ckpt/gru_reg.pt (torch, 526883 bytes, 17 tensors)

rnn.weight_ih_l0 f4 [192, 81]
0	0xbd25b60b	-0.040456813
1	0xbcd36e36	-0.025809389
2	0x3d5ffc10	0.054683745
3	0x3ca00317	0.019532723
4	0x3c68f084	0.0142175
5	0x3da75812	0.08171095
6	0xbda5ba1b	-0.080921374
7	0x3df83b20	0.12120652
8	0xbce7d794	-0.028301038
9	0xbd7494fc	-0.059712395
10	0xbcb6b23f	-0.022301791
11	0xbd12b478	-0.03581664
12	0xbdb83094	-0.089936405
13	0x3d927d38	0.0715279
14	0xbd118d05	-0.035534877
15	0xbda9df53	-0.08294549
16	0xbd853d53	-0.06505837
17	0xbdd2224a	-0.10260446
18	0x3cfde52c	0.030993067
19	0x3c8262f5	0.015916327
20	0x3df1a487	0.11798959
21	0x3de43f26	0.11144857
22	0xbdea7973	-0.11448946
23	0xbdf53e0d	-0.11974726
24	0x3dbaa321	0.091131456
25	0x3d841a08	0.064502776
26	0x3c6e14ae	0.014531298
27	0x3cbcc834	0.023044683
28	0xbddb5113	-0.10708823
29	0xbdc4ca6e	-0.09608923
30	0x3dad9dc1	0.08477355
31	0x3dde1caf	0.10845315
32	0xbd0dd61f	-0.03462803
33	0x3db64732	0.08900298
34	0xbd86412f	-0.065554015
35	0x3d997790	0.07493508
36	0xbce86a84	-0.028371103
37	0xbd9cf895	-0.07664601
38	0xbd867f2a	-0.06567223
39	0xbd8f1b7e	-0.069876656
40	0xbdb46739	-0.08808751
41	0xbdcc5794	-0.09977642
42	0xbd0e7763	-0.034781825
43	0xbe3072c6	-0.17231283
44	0xbda2fd1d	-0.07958434
45	0x3db0b2e9	0.086278744
46	0xbdac09bc	-0.08400294
47	0x3cf18fea	0.029487569
48	0x3d739459	0.059467647
49	0xbd966c6d	-0.07344899
50	0x3dc1c647	0.094616465
51	0xbc87a885	-0.016559849
52	0x3cc9c7c4	0.024631388
53	0x3d6964be	0.05698084
54	0xbd780c2c	-0.060558483
55	0xbd63b8aa	-0.05559603
56	0xbd1e7bdc	-0.03869234
57	0xbd9acf74	-0.075591
58	0x3c0c76c8	0.0085732415
59	0x3e00cf70	0.12579131
60	0x3cafd4d4	0.021463789
61	0xbd9af821	-0.07566858
62	0x3de3ab93	0.111167096
63	0x3d3ec6fd	0.04657649
64	0xbdd9bb4f	-0.106314294
65	0x3dc951fc	0.098300904
66	0xbdbbcb38	-0.0916962
67	0xbdbd854d	-0.09253941
68	0x3cfafc4e	0.030637886
69	0xbe039dee	-0.12853214
70	0x3d462882	0.048378475
71	0x3d65de43	0.05612017
72	0x3cb77f00	0.022399426
73	0xbcb6bdb0	-0.022307247
74	0xbde661d9	-0.11249132
75	0xbdf926b3	-0.121655844
76	0x3de93aef	0.11388194
77	0x3d3549de	0.0442599
78	0xbd5dc4ab	-0.054142635
79	0xbc9c2bd9	-0.019063877
80	0xbda6249c	-0.081124514
81	0x3dc0eed7	0.09420555
82	0xbd2de9fb	-0.04245947
83	0x3de19354	0.11014429
84	0xbde1be0e	-0.11022578
85	0x3dfd34a0	0.12363553
86	0x3ddbfd2b	0.10741647
87	0xbd87c0a4	-0.0662854
88	0x3dc64416	0.09680955
89	0xbd4fa8bd	-0.05069803
90	0x3d8adbf5	0.06780235
91	0x3d96e977	0.07368749
92	0x3c79c0c2	0.015243711
93	0x3dcbf54d	0.09958897
94	0x3db18913	0.08668723
95	0xbcbadb08	-0.02280952
96	0xbd8c564d	-0.06852398
97	0xbcf87080	-0.030327082
98	0xbde5fb3a	-0.11229558
99	0x3d365986	0.04451897
100	0x3d488754	0.048957184
101	0xbd456827	-0.04819503
102	0xbd75ff56	-0.06005796
103	0xbc5a8ba8	-0.013338961
104	0xbdb6e48b	-0.0893031
105	0xbcda36fc	-0.026637547
106	0x3c6197fa	0.013769144
107	0xbda19a21	-0.07890726
108	0x3df082f4	0.11743727
109	0xbdb6f684	-0.08933738
110	0x3d2af8ac	0.04174106
111	0x3c3980eb	0.01132224
112	0x3deca117	0.11554163
113	0x3dc7e97d	0.09761331
114	0x3ccfeafa	0.0253806
115	0xbd25fa26	-0.040521763
116	0xbd9169c0	-0.07100248
117	0xbce681b7	-0.028138025
118	0xbdb8db92	-0.09026255
119	0xbba0cbb4	-0.004907096
120	0xbcb2542c	-0.021768652
121	0xbde87e10	-0.113521695
122	0x3d511159	0.051041935
123	0x3d303253	0.043016743
124	0x3db43936	0.087999746
125	0xbdd9b62f	-0.10630452
126	0xbd78e461	-0.060764674
127	0xbdd9103a	-0.10598798
128	0x3da4e37e	0.08051203
129	0x3d3cd106	0.046097778
130	0x3de3ec32	0.11129035
131	0xbb416d07	-0.0029514448
132	0xbdda0b0e	-0.1064664
133	0x3d9f11f3	0.077670954
134	0xbd9246e6	-0.07142429
135	0x3d8b9ba9	0.06816799
136	0xbcd4d6b1	-0.02598128
137	0x3e064622	0.13112691
138	0xbd8bd22a	-0.06827195
139	0x3c87dc65	0.016584584
140	0x3d6b4089	0.057434592
141	0xbcc0c155	-0.023529688
142	0x3cd9b407	0.026575102
143	0xbd8ebdbc	-0.06969783
144	0x3ad73eda	0.001642193
145	0xbd9247a2	-0.07142569
146	0x3db9e940	0.09077692
147	0x3d567b21	0.05236352
148	0xbc57e9c4	-0.013178293
149	0xbd0a27e3	-0.033729445
150	0xbdc0b325	-0.09409169
151	0x3dac7a4e	0.08421765
152	0x3da468ca	0.080277994
153	0xbdd03487	-0.10166269
154	0xbdd205c5	-0.10255007
155	0x3de7b80d	0.11314402
156	0x3d802ad6	0.0625817
157	0x3dd6095b	0.10451003
158	0x3d694f84	0.056960598
159	0xbd26cbe0	-0.040721774
160	0xbdd40c9b	-0.10353967
161	0x3bd9f6df	0.006651744
162	0x3dbbe519	0.09174556
163	0x3da4be4c	0.08044109
164	0x3deb5d62	0.11492421
165	0x3dd7cc98	0.1053707
166	0x3dc58717	0.09644907
167	0x3d4ed7de	0.050498836
168	0x3cd37fe3	0.025817817
169	0x3e059e45	0.13048656
170	0xbbace115	-0.0052758553
171	0x3c832c4d	0.016012335
172	0xbd4f9cfc	-0.05068682
173	0xbbc5aa24	-0.0060322452
174	0x3db93d7d	0.09044931
175	0x3c6c9b5e	0.014441339
176	0x3e16c489	0.1472341
177	0x3df1bfa1	0.118041284
178	0xbdae2fe0	-0.08505225
179	0xbda47823	-0.08030727
180	0xbce8efcb	-0.028434655
181	0xbcae1304	-0.021249302
182	0xbd7b3c55	-0.061336834
183	0x3e07e384	0.13270384
184	0x3d0ce362	0.034396537
185	0x3d41d430	0.0473215
186	0xbca02f24	-0.019553728
187	0xbc31b53e	-0.010846434
188	0xbe1843a0	-0.14869547
189	0xbdc2aa3c	-0.09505126
190	0xbce097d4	-0.027416147
191	0x3cbfda61	0.02341956
192	0x3da07477	0.07834714
193	0x3cf99f0c	0.030471347
194	0xbdd51470	-0.10404289
195	0x3d1c66f9	0.03818414
196	0xbd955e63	-0.072933935
197	0x3dcf2607	0.10114675
198	0x3dbbd699	0.09171791
199	0x3c17e6c7	0.00927133
200	0x3d0cfe53	0.03442223
201	0x3dd00f79	0.10159201
202	0xbd9e208f	-0.07721054
203	0xbd7ace5e	-0.061231963
204	0xbdd6efe6	-0.10494976
205	0x3d078ac9	0.03309134
206	0xbc7ae443	-0.015313211
207	0x3dbe0d66	0.09279899
208	0xbdc43d28	-0.09581977
209	0x3e1d949e	0.15388724
210	0x3dbe4274	0.09290019
211	0xbd344bcc	-0.044017598
212	0xbd49fa50	-0.049310982
213	0xbd89d4c4	-0.06730035
214	0x3c40f1d1	0.0117764035
215	0x3c9bbfba	0.01901232
216	0xbdc95d5d	-0.09832261
217	0xbde10282	-0.109868065
218	0x3da9fdcc	0.08300361
219	0x3df1175f	0.11772036
220	0x3d80fb71	0.06297959
221	0xbbd2761a	-0.00642277
222	0xbd45c28a	-0.04828123
223	0x3ce23f7c	0.027618162
224	0xbd0269e9	-0.031839285
225	0x3da88dc5	0.082301654
226	0x3d7cc782	0.061713703
227	0x3d8ce31c	0.06879255
228	0xbd57bcb5	-0.0526702
229	0xbd6a7cf3	-0.057248067
230	0xbc58d585	-0.013234501
231	0x3d58d7a4	0.052940026
232	0x3def71c7	0.11691623
233	0xbd65f7f2	-0.056144662
234	0x3d9c1f0c	0.07623109
235	0xbdc50451	-0.09619964
236	0xbc1be3e4	-0.009514783
237	0x3cccdb01	0.025006773
238	0x3ddd2023	0.10797145
239	0x3b3a2f89	0.002840968
240	0xbd00f557	-0.031483974
241	0xbe09f489	-0.13472189
242	0xbc9d3668	-0.019190982
243	0xbd6722f1	-0.056429807
244	0xbdc40baf	-0.09572541
245	0xbe0187c1	-0.12649442
246	0xbd945c3d	-0.072441556
247	0x3d8c7ae6	0.068593785
248	0xbb383ad7	-0.0028111243
249	0x3d9549ac	0.072894424
250	0xbdd457df	-0.103683226
251	0xbdef7031	-0.11691321
252	0xbde92fd7	-0.11386078
253	0xbde56755	-0.1120135
254	0xbdd9cb1b	-0.106344424
255	0x3d8c853d	0.06861351

rnn.weight_hh_l0 f4 [192, 64]
0	0x3b164a42	0.0022932445
1	0xbe07d9d9	-0.13266696
2	0xbe27ecae	-0.1639888
3	0x3daf6aa0	0.08565259
4	0x3dde47f6	0.10853569
5	0x3d4821c4	0.048860326
6	0xbd0d8d33	-0.034558486
7	0xbc2d9fb9	-0.010597163
8	0x3bc08ec8	0.005876396
9	0x3d837f59	0.06420774
10	0x3c2ae1b7	0.010429791
11	0x3940e6b4	0.0001839649
12	0x3d03cd66	0.032178305
13	0xbd75d4ed	-0.060017515
14	0x3dc062cc	0.09393844
15	0xbd8bee57	-0.06832569
16	0x3e011ff5	0.12609847
17	0x3bc837f0	0.006110184
18	0xbd5d1736	-0.053977214
19	0x3d41c255	0.04730447
20	0x3cb198d1	0.021679314
21	0xbda27b26	-0.07933645
22	0xbd5b57f5	-0.05355068
23	0x3adcddbf	0.0016850753
24	0xbd08c46d	-0.03339045
25	0x3d2c343a	0.042041995
26	0x3d479035	0.04872151
27	0x3dd8b744	0.1058183
28	0x3d6a6d0a	0.057232894
29	0xbcd7e974	-0.026356436
30	0x3db7d320	0.08975816
31	0xbd64f1b5	-0.055894572
32	0x3de35e10	0.111019254
33	0xbd98d3a2	-0.07462241
34	0x3cdfac9b	0.027303984
35	0xbdee493d	-0.11635063
36	0x3de930e6	0.1138628
37	0xbdfe8131	-0.12426985
38	0xbdcf6dd1	-0.10128368
39	0xbd42c6ae	-0.047552757
40	0xbddf2b4b	-0.10896929
41	0x3de2a4f5	0.11066619
42	0xbd6c4829	-0.057686005
43	0xbd4891fc	-0.048967347
44	0xbd9bb2ce	-0.07602464
45	0xbdf2b44d	-0.11850796
46	0xbe2d55fb	-0.1692733
47	0x3ceca6ea	0.028888185
48	0x3e390097	0.18066631
49	0x3ca9c74f	0.02072492
50	0x3d23897c	0.039926037
51	0xbdcf5279	-0.10123152
52	0xbd93e8cb	-0.07222136
53	0x3d85c6d5	0.06532065
54	0xbd83659d	-0.064158656
55	0x3de3a32a	0.111151055
56	0xbd90fc63	-0.07079389
57	0xbdcdfaa4	-0.100575715
58	0x3e5cfdbf	0.21581171
59	0xbd65da47	-0.05611637
60	0x3c1d8b18	0.009615682
61	0x3ced4b80	0.028966665
62	0xbdb0221a	-0.08600254
63	0xbc30392e	-0.01075582
64	0x3d505f54	0.050872162
65	0x3bfb14f4	0.00766241
66	0xbe0ab298	-0.1354469
67	0xbde53bac	-0.11193022
68	0xbdf9314f	-0.12167608
69	0x3d1b13bb	0.037860613
70	0xbdfdb242	-0.123875156
71	0x3dad4f09	0.084623404
72	0x3db234da	0.08701487
73	0x3ded04ea	0.11573203
74	0xbc628d0d	-0.013827574
75	0x3d9ebaa2	0.07750441
76	0x39f894ef	0.0004741321
77	0x3d219067	0.039444353
78	0x3d2d2c68	0.042278677
79	0x3dc3f36b	0.09567913
80	0xbdb45fc9	-0.08807332
81	0x3dc3ad31	0.09554518
82	0x3de0db3d	0.109793164
83	0xbde0a927	-0.10969763
84	0xbdb60fff	-0.0888977
85	0xbdadb2d8	-0.08481377
86	0x3d9251a0	0.07144475
87	0xbc43fe57	-0.011962495
88	0x3d78fa94	0.060785845
89	0x3d9307fe	0.07179259
90	0xbc7e9e77	-0.015540711
91	0x3bd06fec	0.0063609984
92	0xbd341385	-0.043963928
93	0x3dc635e5	0.09678248
94	0xbdb95215	-0.09048859
95	0x3d197eca	0.03747443
96	0x3dc4f218	0.09616488
97	0x3d6ebe7b	0.058287125
98	0xbd54f7ed	-0.051994253
99	0xbde6ad7b	-0.112635575
100	0x3d0346a9	0.03204981
101	0xbd28cfa8	-0.04121366
102	0x3db86fd4	0.090057045
103	0x3d6a18c2	0.057152517
104	0xbd8d4231	-0.06897391
105	0xbe02ddc1	-0.12779905
106	0xbd8141b7	-0.06311362
107	0xbde0eddf	-0.1098287
108	0xbd889dbe	-0.06670712
109	0xbd48e8f5	-0.04905029
110	0xbddced73	-0.10787477
111	0x3d903a64	0.07042387
112	0x3d2a76d6	0.041617237
113	0xbdefed00	-0.11715126
114	0xbc11469e	-0.008866934
115	0xbd8b56e6	-0.06803684
116	0x3dfd6c98	0.12374228
117	0x3ded3485	0.11582283
118	0x3da7938a	0.08182438
119	0x3b146ff1	0.002264973
120	0x3ce89978	0.028393492
121	0xbcd6ee9a	-0.026236821
122	0xbd597f36	-0.053099833
123	0xbde041d0	-0.10950053
124	0xbd20880c	-0.039192244
125	0x3d999937	0.074999265
126	0xbba1a964	-0.004933523
127	0xbdc21bf3	-0.09477987
128	0xbd0feae7	-0.03513613
129	0x3d3d8b20	0.046275258
130	0xbdcece90	-0.100979924
131	0x3e29ca08	0.16580975
132	0x3d939e21	0.07207895
133	0x3c4ea0a5	0.012611543
134	0xbd814dbe	-0.06313656
135	0x3d5c8ff6	0.05384823
136	0xbde6d2fe	-0.11270712
137	0x3ddcbad5	0.10777823
138	0xbd3840e7	-0.04498377
139	0x3e5d397c	0.2160396
140	0x3ca8193d	0.020519847
141	0xbd14a0d5	-0.036286194
142	0xbd2660f8	-0.04061982
143	0x3dbf3a75	0.09337322
144	0x3d6a3489	0.057179008
145	0x3d786a49	0.060648236
146	0xbe00650a	-0.12538543
147	0xbd33cf73	-0.04389901
148	0x3d92bf30	0.07165372
149	0xbd7a51c6	-0.06111314
150	0x3d98210e	0.0742818
151	0x3d47cf7c	0.048781857
152	0x3dd97c58	0.1061942
153	0x3d62de57	0.05538782
154	0x3d4c02e9	0.049807463
155	0x3c9c5da1	0.019087614
156	0x3da5c02f	0.08093297
157	0xbd41549b	-0.047199827
158	0xbd82e7c3	-0.06391861
159	0x3bbdd321	0.005792991
160	0x3bdc451f	0.006722107
161	0x3ddb9d18	0.10723323
162	0xbaa932c2	-0.0012908804
163	0x3c732092	0.014839308
164	0x3d9cdde1	0.076595075
165	0x3d99d270	0.07510841
166	0xbd2d7834	-0.042350963
167	0xbd7f023e	-0.062257998
168	0xbdd98857	-0.10621708
169	0x3d2e8788	0.04260972
170	0x3cdf8566	0.027285289
171	0x3dbedecb	0.09319838
172	0xba165e80	-0.00057361275
173	0xbdb87a38	-0.090076864
174	0xbb8554c9	-0.004068945
175	0xbdec9127	-0.11551123
176	0x3d772566	0.0603384
177	0xbd3379c3	-0.043817293
178	0x3d94aaec	0.07259163
179	0x3d59e32f	0.053195175
180	0x3cce9d5f	0.025221525
181	0x3d2e1ab9	0.042505953
182	0xbcae4270	-0.021271914
183	0x3d9b7eea	0.07592566
184	0x3b72ae2e	0.0037030089
185	0xbdbb2dda	-0.09139605
186	0x3d6bf829	0.05760971
187	0x3d45f210	0.048326552
188	0x3d5183af	0.051150974
189	0x3c0e921e	0.008701829
190	0xbe01b9d5	-0.12668546
191	0xbdb82f26	-0.08993368
192	0x3d9e6228	0.077335656
193	0x3d099057	0.03358492
194	0xbd25fa48	-0.04052189
195	0xbdde324c	-0.10849437
196	0x3d7906c9	0.060797486
197	0xbb376d07	-0.002798857
198	0xbda53fd7	-0.08068817
199	0xbdb5201b	-0.08844014
200	0xbcfca525	-0.030840466
201	0xbc679971	-0.014135704
202	0x3c13a432	0.009011315
203	0x3d028139	0.031861518
204	0x3dd96d4a	0.10616548
205	0x3dc8fbc2	0.09813644
206	0x3dbc5fc5	0.09197954
207	0xbe0410b1	-0.12896992
208	0x3dbb6e95	0.09151951
209	0x3db0b71c	0.08628675
210	0xb9aea52f	-0.00033310938
211	0x3c8af8ac	0.01696428
212	0xbc196d08	-0.009364374
213	0xbd380bee	-0.044933252
214	0x3bd443cf	0.00647781
215	0x3d7c5d0e	0.06161218
216	0x3d02b5c6	0.031911634
217	0x3cd113f7	0.025522215
218	0xbcc7171b	-0.02430301
219	0x3c21cb3c	0.009875115
220	0x3ddb8c55	0.107201256
221	0x3cd32c8c	0.025778078
222	0xbda34440	-0.07972002
223	0xbd560f20	-0.052260518
224	0x3de77aa6	0.1130269
225	0x3b7bf961	0.0038448202
226	0xbd3f0349	-0.046633992
227	0xbd2a192b	-0.04152791
228	0xbcc040b9	-0.023468362
229	0x3c83a878	0.016071543
230	0xbd52e8e4	-0.051491633
231	0xbdfc0dbe	-0.123073086
232	0xbdb34305	-0.08753017
233	0xbd9edcdc	-0.07756969
234	0xbdd79da6	-0.10528116
235	0x3db0cd91	0.08632959
236	0x3e0220d0	0.1270783
237	0x3db0cd1e	0.08632873
238	0xbd827e28	-0.06371719
239	0x3d574bf7	0.05256268
240	0xbcd1853a	-0.025576223
241	0xbcaaabae	-0.020833816
242	0xbdb51731	-0.08842314
243	0xbc802b47	-0.015645636
244	0xbd9ba8a2	-0.076005235
245	0x3b57fb82	0.0032956307
246	0xbc6d6eaf	-0.014491721
247	0x3d43ff8b	0.047851127
248	0x3de9d015	0.114166416
249	0x3d53e469	0.0517315
250	0xbd8f5c2e	-0.07000004
251	0x3cf4ecfe	0.029898163
252	0xbc8dffec	-0.017333947
253	0x3d262db0	0.040570915
254	0xbd5256e3	-0.051352393
255	0xbced0c9f	-0.028936682

rnn.bias_ih_l0 f4 [192]
0	0x3d8571c7	0.06515842
1	0x3db98072	0.09057702
2	0xbde868a1	-0.113480814
3	0xbb1f0c56	-0.0024268827
4	0x3d773fd6	0.060363613
5	0x3d8c1dab	0.06841596
6	0x3b82ea30	0.0039952025
7	0xbc886774	-0.016650893
8	0x3cea9097	0.028633399
9	0xbda36972	-0.079790965
10	0x3da82aef	0.08211314
11	0x3dcbfe13	0.0996057
12	0x3df009d2	0.11720623
13	0x3d644912	0.055733748
14	0xbe0058ac	-0.12533826
15	0x3c46ca91	0.0121332565
16	0xbd54d3b1	-0.051959697
17	0xbd0efe91	-0.034910742
18	0x3e0f7310	0.14008737
19	0x3d324bfb	0.043529492
20	0x3d0faa4c	0.035074517
21	0xbcb2e7b5	-0.021839002
22	0x3cdeb1af	0.027184336
23	0xbd19a867	-0.037514117
24	0x3de7840c	0.11304483
25	0x3e021971	0.12705018
26	0x3dcd351a	0.10019894
27	0xbb88a4d2	-0.0041700387
28	0xbde4ef1c	-0.11178419
29	0x3ce606e7	0.028079463
30	0xbb81b940	-0.003958851
31	0x3dee7b57	0.11644619
32	0x3dcbfe5a	0.09960623
33	0x3d857e01	0.06518174
34	0x3cfaa7c9	0.030597584
35	0x3da94001	0.08264161
36	0xbb0a9296	-0.00211445
37	0xbdcda08c	-0.100403875
38	0x3cea1b93	0.028577602
39	0xbd3e480f	-0.04645544
40	0xbdfdf0ad	-0.12399421
41	0x3d4606c5	0.0483463
42	0x3d0078b0	0.031365097
43	0xbd628cb0	-0.05530995
44	0x3dcda830	0.10041845
45	0xbc3c5d63	-0.0114968745
46	0xbdebb3b3	-0.11508884
47	0xbdf8ba05	-0.121448554
48	0x3da2d52f	0.07950818
49	0xbdec29bf	-0.115314
50	0xbc9130e0	-0.0177235
51	0xbd47fa2d	-0.04882257
52	0x3c8b3712	0.016994033
53	0xbb471057	-0.003037473
54	0x3dc03087	0.09384256
55	0xbe06a1a9	-0.13147606
56	0x3dadc44b	0.084847055
57	0x3c272a02	0.010202887
58	0xbdf209e6	-0.11818294
59	0x3dfb9e5f	0.12286066
60	0x3c219f59	0.009864652
61	0xbe0aba21	-0.13547565
62	0xbda9ade9	-0.08285124
63	0x3be78c07	0.007066253
64	0x39b476bc	0.0003442074
65	0x3ca8d515	0.020609418
66	0xbe23cb21	-0.15995456
67	0x3d40f04c	0.047104165
68	0xbd575e50	-0.052580178
69	0xbdd25d8b	-0.10271748
70	0xbd52e631	-0.05148906
71	0xbe1fea6e	-0.15616772
72	0xbcc0d12f	-0.023537247
73	0xbbfe5660	-0.0077617615
74	0xbe36ca7e	-0.17850682
75	0x3d626a88	0.055277377
76	0xbde2e58d	-0.110789396
77	0x3df205e3	0.11817529
78	0x3da28093	0.0793468
79	0x3e17cc66	0.14824066
80	0x3cce1e09	0.025160806
81	0xbd97f76c	-0.07420239
82	0x3c0679a4	0.008207712
83	0x3dba5ce5	0.090997495
84	0x3da65f9d	0.081237055
85	0x3ced838e	0.028993394
86	0x3cdbf40f	0.026849775
87	0xbdef1197	-0.11673277
88	0x3cfa5f5d	0.03056305
89	0xbd2d70dd	-0.042343963
90	0xbd623788	-0.05522874
91	0xbd50d30f	-0.05098253
92	0xbd1183ca	-0.035526074
93	0xbd95ef4a	-0.073210314
94	0xbd918373	-0.0710515
95	0xbdf35281	-0.11880971
96	0x3dc384ff	0.09546851
97	0xbd3c9031	-0.04603595
98	0x3e046832	0.12930372
99	0xbdb13548	-0.08652741
100	0x3d9ef17e	0.07760905
101	0xbdda8abb	-0.10670992
102	0xbddffe4b	-0.109371744
103	0xbe0b9d4e	-0.13634226
104	0x3dcc5ee5	0.09979037
105	0x3d4b9076	0.049698316
106	0x3d683f6b	0.056701105
107	0xbdceeb02	-0.10103418
108	0x3cb137ab	0.02163299
109	0x3d4be43e	0.049778216
110	0x3d572c82	0.05253268
111	0xbdf07c69	-0.11742479
112	0x3ddf1069	0.10891802
113	0xbcb9b9b1	-0.022671552
114	0x3cdc3979	0.026882874
115	0x3d1b38c4	0.037895933
116	0xbda1abc0	-0.07894087
117	0x3d47c076	0.04876753
118	0xbdc63765	-0.096785344
119	0x3c48358a	0.012219796
120	0x3cfa31c9	0.030541318
121	0xbce792e4	-0.028268285
122	0xbe0f6cf5	-0.14006408
123	0xbdcea4fb	-0.10090061
124	0xbe027940	-0.12741566
125	0xbc76001b	-0.015014674
126	0x3d955d9d	0.07293246
127	0x3db25dbf	0.08709287
128	0x3de7a608	0.11310965
129	0x3da84f71	0.08218277
130	0x3df24ab3	0.11830654
131	0xbd8ec426	-0.06971006
132	0x3deeaf37	0.11654513
133	0xbd8313bc	-0.064002484
134	0xbd7a517b	-0.061112862
135	0xbd7067eb	-0.058692854
136	0x3d9adb26	0.075613305
137	0x3dfca997	0.12337034
138	0xbd3d694a	-0.04624299
139	0xbca0c321	-0.019624295
140	0x3ddd1472	0.10794915
141	0x3cbd8d6f	0.02313873
142	0x3d6b74c6	0.05748441
143	0xbd786a1e	-0.060648076
144	0xbc3ecc34	-0.0116453655
145	0x3bbd9218	0.005785238
146	0x3d7c8044	0.06164576
147	0x3dc09e1f	0.09405159
148	0x3d81ab5e	0.06331514
149	0x3c9264e0	0.017870367
150	0x3d9c02fb	0.07617756
151	0x3cf892bc	0.030343406
152	0xbddda364	-0.1082218
153	0x3db0c0e7	0.08630543
154	0xbe0539de	-0.13010356
155	0xbdb0604f	-0.086121194
156	0x3da8e6db	0.08247157
157	0x3db50ee6	0.08840732
158	0xbd9b794c	-0.07591495
159	0xbd527511	-0.051381174
160	0x3cf74c68	0.0301878
161	0xbc16341f	-0.0091677
162	0xbde1f93d	-0.110338666
163	0xbcffe7ae	-0.031238403
164	0xbd024b15	-0.031809885
165	0xbcba7a16	-0.022763293
166	0xbd9b501a	-0.075836375
167	0xbd2c207b	-0.042023163
168	0xbda674d4	-0.08127752
169	0x3df9fc84	0.12206367
170	0xbce00f11	-0.027350934
171	0x3dadda47	0.08488899
172	0x3ca3d01f	0.0199967
173	0x3d88e53b	0.06684347
174	0x3cbfa069	0.02339192
175	0xbda4408b	-0.08020123
176	0x3cc00d03	0.023443704
177	0x3cf33d6d	0.029692376
178	0xbaa90ea6	-0.0012898042
179	0xbddd2427	-0.10797911
180	0xbdb39755	-0.08769099
181	0x3dd65b07	0.10466581
182	0xbd261747	-0.040549543
183	0x3d94b903	0.07261851
184	0xbe10f4e7	-0.14155923
185	0xbd1bd724	-0.03804697
186	0xbd822363	-0.06354406
187	0x3dbe27d2	0.09284939
188	0x3de98b00	0.11403465
189	0x3c8f8f96	0.017524522
190	0xbc419256	-0.011814674
191	0xbe2bb395	-0.16767724

rnn.bias_hh_l0 f4 [192]
0	0xbe0a6c07	-0.13517772
1	0xbd6b6cd6	-0.05747684
2	0xbdce38cd	-0.10069428
3	0xbd1bbf58	-0.038024276
4	0xbafb248c	-0.0019160672
5	0x3df696c1	0.12040473
6	0x3d4390f0	0.047745645
7	0x3db8a694	0.09016147
8	0xbd3c672a	-0.045996822
9	0xbca6faf9	-0.020383345
10	0xbdb461a6	-0.088076875
11	0x3cc41879	0.02393745
12	0x3d816a5d	0.06319115
13	0x3df6407a	0.12024017
14	0x3d98c1b3	0.0745882
15	0xbd951d14	-0.07280937
16	0x3c88cdc2	0.016699675
17	0xbd8b87d0	-0.068130136
18	0x3da45f54	0.08025995
19	0xbc954f4d	-0.01822629
20	0x3dd3ff22	0.10351397
21	0xbcda88f2	-0.026676629
22	0x3d4f19a4	0.050561562
23	0x3daa9b60	0.08330417
24	0xbdb79f62	-0.08965947
25	0xbdef4de2	-0.11684777
26	0xb853bb80	-5.0480943e-05
27	0x3dc5d005	0.09658817
28	0xbd9d7528	-0.076883614
29	0xbd0434ec	-0.032277033
30	0xbddb6e31	-0.10714377
31	0x3d7cee7e	0.06175088
32	0xbdca3176	-0.09872715
33	0x3d3dc8c0	0.04633403
34	0x3d315a83	0.04329921
35	0xbddf106d	-0.10891805
36	0x3de4dee7	0.11175328
37	0x3dde81d0	0.108646035
38	0x3db7e4cf	0.08979189
39	0x3c6a596c	0.014303546
40	0xbdca529f	-0.0987904
41	0x3db224dd	0.08698437
42	0xbca059cb	-0.019574067
43	0x3c9e04cc	0.019289397
44	0xbc6e02ee	-0.014527066
45	0x3c4ba55d	0.012429562
46	0xbe018410	-0.12648034
47	0x3c107911	0.008817927
48	0x3d991599	0.074748226
49	0x3dc81945	0.09770445
50	0x3d56a287	0.052401092
51	0x3d3cef77	0.04612681
52	0xbda6e381	-0.08148862
53	0xbd428b68	-0.04749623
54	0xbcfb014c	-0.030640267
55	0xbe04e2f0	-0.12977195
56	0xbd99a62b	-0.07502397
57	0x3dccce36	0.10000269
58	0x3d82a226	0.063785836
59	0xbdf6d12e	-0.120516166
60	0x3c7d4f54	0.015460808
61	0xbcae0297	-0.02124147
62	0x3db4d6ae	0.088300094
63	0x3e100dd1	0.1406777
64	0xbce254e0	-0.027628362
65	0xbd780bf9	-0.060558293
66	0xbd8cb3d4	-0.06870237
67	0x3c2a2fb9	0.0103873545
68	0x3e000fa2	0.12505963
69	0xbdf32803	-0.11872866
70	0xbd93a5f7	-0.0720939
71	0xbddb61cd	-0.107120134
72	0xbe0fd553	-0.1404622
73	0xbc640622	-0.013917478
74	0xbdc62cd4	-0.09676519
75	0x3d4eb16c	0.05046217
76	0x3d940e91	0.07229341
77	0x3dd670c7	0.10470729
78	0xbd63e171	-0.05563492
79	0x3dac500d	0.08413706
80	0x3d1ace52	0.03779442
81	0x3d23083a	0.039802767
82	0x3d799808	0.060936004
83	0x3d5af7a6	0.053458832
84	0x3d9a7fe5	0.07543925
85	0xbd6853b4	-0.05672045
86	0x3df182bf	0.11792516
87	0xbdf543a1	-0.1197579
88	0x3d9097e0	0.07060218
89	0xbdcb0986	-0.09913926
90	0xbe849eed	-0.259025
91	0xbe02f892	-0.12790135
92	0xbcad0f9f	-0.021125613
93	0x3b385182	0.0028124754
94	0xbc338a81	-0.010958315
95	0xbcc82a0f	-0.024434118
96	0xbc8da54c	-0.017290734
97	0xbdcd2dff	-0.10018539
98	0x3dc92065	0.09820632
99	0xbbf9f6d0	-0.0076282993
100	0xbe008561	-0.1255088
101	0xbcbb300c	-0.022850059
102	0x3ba02a16	0.0048878295
103	0x3cad8e81	0.021186115
104	0xbdaec3e7	-0.08533459
105	0x3dd59bef	0.104301326
106	0xbb65f15d	-0.003508649
107	0x3d742813	0.05960853
108	0x3dbf39c3	0.09337189
109	0x3c508fcf	0.012729599
110	0xbcf5f3bf	-0.030023454
111	0xbcfced6f	-0.030874936
112	0xbddd1433	-0.10794868
113	0x3ddd7517	0.10813349
114	0x3d3a34b6	0.045460425
115	0xbb06306d	-0.0020475641
116	0xbc9bb466	-0.01900692
117	0xbd82a89a	-0.063798144
118	0x3d344671	0.04401249
119	0xbdfc2f0a	-0.123136595
120	0xbd1f7a3a	-0.038934924
121	0xbdcd4382	-0.10022642
122	0x3da46ddf	0.08028769
123	0xbc3c21da	-0.01148268
124	0xbda11d3f	-0.078669064
125	0x3d1b047c	0.037846074
126	0x3de2bef9	0.110715814
127	0x3d605ca1	0.054775838
128	0xbd90dd47	-0.07073455
129	0xbda24239	-0.07922787
130	0x3cc5a56a	0.024126727
131	0xbcc24c16	-0.023717921
132	0x3d2cc7ef	0.04218286
133	0x3de251a1	0.11050726
134	0x3dbbd994	0.09172359
135	0x3cc79b57	0.024366064
136	0x3cd2d5ed	0.025736773
137	0x3b09673d	0.0020966076
138	0x3dcbe19b	0.0995514
139	0xbe0a4f87	-0.135069
140	0xbda4d1df	-0.08047842
141	0xbd848d60	-0.06472278
142	0x3d8623a5	0.065497674
143	0x3c2188c4	0.009859268
144	0x3e03f750	0.12887311
145	0x3d27dab5	0.04098006
146	0xbdb6682b	-0.08906587
147	0x3cb96986	0.022633325
148	0xbce65cba	-0.028120387
149	0xbd947540	-0.07248926
150	0x3ddc2a74	0.10750285
151	0xbdb1a66d	-0.08674321
152	0xbbf635a9	-0.007513721
153	0x3d42baf9	0.047541592
154	0xbdb54aa6	-0.08852129
155	0xbdb3c81f	-0.087784044
156	0xbd9286f4	-0.071546465
157	0xbd40515e	-0.046952598
158	0x3db5d5f4	0.08878699
159	0x3d9a557d	0.07535837
160	0xbd432732	-0.0476448
161	0xbd8445f7	-0.06458657
162	0xbd9ed78a	-0.077559546
163	0xbd02e7af	-0.031959232
164	0xbddb2b1c	-0.10701582
165	0x3ce56ff3	0.028007483
166	0x3da49da1	0.08037878
167	0xbdcd5abf	-0.10027074
168	0x3d8e4406	0.06946568
169	0xbd9c1c6b	-0.07622608
170	0x3d03e1d8	0.032197803
171	0xbd702531	-0.05862922
172	0x3d925307	0.071447425
173	0xbdfc6dba	-0.12325616
174	0xbd8a7a0d	-0.067615606
175	0xbda133c6	-0.07871203
176	0xbc6ad933	-0.014334011
177	0x3dbca7f4	0.09211722
178	0x3e052d26	0.13005504
179	0x3da559bc	0.08073756
180	0xbd111cb9	-0.035427783
181	0x3dc53ca8	0.0963071
182	0x3d3ba1b4	0.04580851
183	0xbda2fbac	-0.07958159
184	0xbd42e696	-0.047583185
185	0x3ce73a9f	0.028226195
186	0x3debc3c8	0.11511952
187	0x3d2b5850	0.04183227
188	0x3d904171	0.07043732
189	0xbdeb2b86	-0.11482911
190	0x3bc8f32c	0.006132504
191	0xbdebd679	-0.11515517

rnn.weight_ih_l0_reverse f4 [192, 81]
0	0x3df93536	0.12168352
1	0xbd391094	-0.045181826
2	0x3dae098f	0.08497917
3	0x3da45dcf	0.08025705
4	0x3b63f75d	0.0034784891
5	0xbc7b1ac5	-0.015326207
6	0x3dff9db2	0.1248125
7	0x3dfde393	0.12396922
8	0x3e0c902d	0.13726874
9	0xbbacad52	-0.005269685
10	0xbd2d4d87	-0.042310264
11	0x3d3c9475	0.046040017
12	0x3dac2e5c	0.0840728
13	0xbd201000	-0.03907776
14	0x3db8a66d	0.09016118
15	0xbd9eaedb	-0.07748195
16	0x3d7ea623	0.06217016
17	0xbdb55319	-0.0885374
18	0xbcc07892	-0.023494992
19	0x3c8cf6f6	0.017207604
20	0x3d7e33e7	0.062061217
21	0xbd9a9112	-0.07547201
22	0x3df37c3e	0.11888932
23	0x3c99c491	0.018770488
24	0xbdc10ce4	-0.09426287
25	0x3e097d25	0.13426645
26	0x3d393ecb	0.0452259
27	0xbc9fadc6	-0.019492041
28	0x3e029809	0.1275331
29	0x3d17672d	0.03696363
30	0xbd960a44	-0.07326177
31	0x3d95cac5	0.07314066
32	0xbd685da2	-0.05672992
33	0x3d38be6e	0.045103483
34	0x3bd9d42f	0.0066476087
35	0x3d72f4b8	0.059315413
36	0x3dbaad56	0.091150925
37	0xbd20901b	-0.03919993
38	0x3ce9c811	0.028537782
39	0x3d72c56a	0.0592703
40	0x3d9f02ce	0.07764207
41	0x3c4d9462	0.012547584
42	0x3e0a77dc	0.13522285
43	0x3d4f5cce	0.050625615
44	0x3da92f1d	0.08260939
45	0xbbb5975a	-0.005541724
46	0xbdb5b2b9	-0.08871979
47	0x3db5a446	0.08869223
48	0x3dad9471	0.084755786
49	0x3e0948f4	0.13406736
50	0x3e0cec13	0.1376193
51	0xbd832ed4	-0.06405416
52	0x3c810572	0.015749667
53	0xbda8c084	-0.082398444
54	0xbd20dd65	-0.03927364
55	0x3d23162c	0.039816067
56	0x385e4901	5.2996915e-05
57	0xbd877eb0	-0.066159606
58	0x3c06618b	0.008201967
59	0x3d363403	0.044483196
60	0x3c97eb34	0.01854477
61	0x3d86e76f	0.06587111
62	0xbd5ceefa	-0.053938843
63	0xbddd753d	-0.10813377
64	0x3d374b84	0.04474975
65	0x3c284757	0.010270915
66	0xbd94fde0	-0.07274985
67	0xbdb2980f	-0.08720409
68	0xbd133b30	-0.035945117
69	0xbdba77dd	-0.09104893
70	0x3e060500	0.13087845
71	0x3cdfa6fd	0.027301306
72	0x3d00cb59	0.031443927
73	0x3d1efae3	0.038813483
74	0xbbffeea3	-0.00781043
75	0xbd52864b	-0.051397603
76	0x3dc2ede5	0.09518031
77	0x3d0ce480	0.034397602
78	0x3dc6edbf	0.09713315
79	0xbd4595b7	-0.048238482
80	0xbc7b45e6	-0.015336489
81	0xbda14b6d	-0.078757145
82	0x3dc621bf	0.09674405
83	0xbdd524f9	-0.104074426
84	0xbdb32ece	-0.08749162
85	0xbdd36bac	-0.10323271
86	0xbccdb77e	-0.02511191
87	0xbe101dca	-0.14073864
88	0xbded3930	-0.11583173
89	0xbd1ad1f0	-0.03779787
90	0xbd3f4ec3	-0.046705972
91	0xbdd95025	-0.106109895
92	0xbc6b0711	-0.0143449465
93	0xbd31ec43	-0.043438207
94	0xbddc5cd0	-0.1075989
95	0x3d8aa82f	0.0677036
96	0x3d74a82c	0.059730694
97	0xbd8cd183	-0.06875899
98	0xbe03a599	-0.12856139
99	0xbd87c82d	-0.066299774
100	0xbdf17d13	-0.11791434
101	0x3d3fbd55	0.04681142
102	0xbcb23e7b	-0.021758309
103	0xbde60c0a	-0.11232765
104	0xbdb4f3b6	-0.08835547
105	0x3d4d3462	0.050098784
106	0xbe0341b6	-0.12818035
107	0x3dc738e8	0.09727651
108	0xbde8d8ac	-0.11369452
109	0xbd2e6596	-0.04257735
110	0xbce95b5f	-0.028485952
111	0x3d76f50f	0.0602923
112	0x3d493f04	0.049132362
113	0xbc962b3d	-0.018331164
114	0x3de25cab	0.11052831
115	0x3d4146ef	0.04718679
116	0x3dba30d8	0.090913475
117	0xbd93ec70	-0.07222831
118	0xbda7dafb	-0.08196064
119	0xbdebbc15	-0.11510483
120	0xbd6343c7	-0.05548456
121	0x3d8031ba	0.062594846
122	0xbdd105d8	-0.10206193
123	0xbdffbc2b	-0.12487062
124	0xbd970a9b	-0.0737507
125	0x3db34665	0.08753661
126	0xbe044801	-0.12918092
127	0xbc46f9df	-0.012144535
128	0xbdf7ddcd	-0.12102852
129	0xbe0ebf45	-0.13940151
130	0x3d917758	0.07102841
131	0xbd0eae32	-0.034834094
132	0xbc416aa6	-0.011805212
133	0x3db2ada6	0.08724527
134	0xbd92a6b2	-0.07160701
135	0x3d154531	0.03644294
136	0x3dbeff97	0.09326094
137	0xbdd2cce9	-0.1029299
138	0x3d9c7e28	0.0764125
139	0x3d1d024a	0.03833226
140	0x3cc2a18b	0.02375867
141	0x3d90f19f	0.070773356
142	0xbdb54c23	-0.088524126
143	0x3df1d9b2	0.118091
144	0xbd0d4c9e	-0.034496896
145	0xbd92f044	-0.07174733
146	0xbcb4c18a	-0.022064943
147	0x3c453bb5	0.012038161
148	0xbd56dab5	-0.05245467
149	0x3def7f1e	0.116941676
150	0xbd85d03c	-0.06533858
151	0xbd4eb2e4	-0.050463572
152	0x3e083a42	0.13303474
153	0x3ddcb2a4	0.107762605
154	0x3cb2fa53	0.02184788
155	0xbc8a75e0	-0.01690191
156	0xbd1b3c1e	-0.03789913
157	0xbe0fd84a	-0.14047351
158	0x3de395ad	0.11112533
159	0xbd5bd947	-0.05367401
160	0xbd37264f	-0.04471427
161	0x3d9d79ca	0.07689245
162	0x3d28c960	0.04120767
163	0x3d9a370a	0.07530029
164	0xbdc17e1d	-0.09447882
165	0xbdbf822f	-0.093510024
166	0xbc8c9488	-0.017160669
167	0x3d6199a5	0.055078167
168	0xbd4492c1	-0.047991518
169	0xbddff915	-0.109361805
170	0xbdc1d4f5	-0.094644465
171	0x3dcfffb2	0.10156192
172	0x3ce5b0f0	0.028038472
173	0xbd92a3ab	-0.071601234
174	0x3de7dfe5	0.11322001
175	0xbd81e682	-0.06342794
176	0xbd873df4	-0.066036135
177	0xbd9c8c7f	-0.07643985
178	0x3db7c24e	0.089726076
179	0x3db47e70	0.088131785
180	0xbd7d6cf8	-0.0618715
181	0x3b875e9d	0.004131152
182	0xbe01f49e	-0.1269097
183	0xbd174dc1	-0.036939386
184	0x3dca466c	0.09876713
185	0xbd59e387	-0.053195503
186	0xbdb1445c	-0.08655617
187	0xbdc43cd5	-0.09581915
188	0xbd30cf98	-0.043166727
189	0x3d80104d	0.06253109
190	0x3ccd80fb	0.025085917
191	0xbddf7ca4	-0.10912445
192	0xbc5eb99f	-0.01359406
193	0x3bdbb882	0.0067053447
194	0xbcfa069f	-0.030520735
195	0xbde19dd0	-0.110164285
196	0xbdcbcf9b	-0.09951707
197	0xbd5476fc	-0.051871285
198	0xbdb17c5d	-0.086662985
199	0xbd87632c	-0.066107124
200	0x3d50a0d2	0.05093462
201	0x3dac9cfa	0.084283784
202	0xbc057f2b	-0.008147995
203	0xbd533e46	-0.05157306
204	0x3d9ad974	0.07561007
205	0x3d14f592	0.036367007
206	0xbe040e84	-0.12896162
207	0xbd017bbd	-0.031612147
208	0x3b26a41b	0.0025427404
209	0x3d55552a	0.052083172
210	0x3d1b3ba7	0.037898686
211	0xbe010547	-0.1259967
212	0xbd96bc23	-0.07360103
213	0x3c613f7b	0.013748045
214	0x3d9a66e4	0.07539156
215	0xbb993c14	-0.0046763513
216	0x3dc06f2e	0.09396206
217	0xbd998445	-0.074959315
218	0xbde7d0c6	-0.11319117
219	0xbcf5d3d8	-0.030008242
220	0xbd81a71a	-0.063307
221	0xbdf50cf4	-0.11965361
222	0x3dec8697	0.115491085
223	0xbcf4bfdf	-0.029876648
224	0xbce615da	-0.028086592
225	0x3c6ac124	0.014328275
226	0x3d423069	0.04740945
227	0x3b6a9bff	0.0035798547
228	0xbcd821de	-0.026383337
229	0xbde55861	-0.111984976
230	0xbc583e16	-0.013198396
231	0x3d8b99d9	0.068164535
232	0xbdf46492	-0.11933245
233	0xbd6cddb1	-0.05782861
234	0xbddcff93	-0.107909344
235	0xbdc90bc4	-0.09816697
236	0xbd3e0dec	-0.046399996
237	0xbc433190	-0.011913672
238	0x3c9f6817	0.019458814
239	0x3dde94f9	0.10868258
240	0x3d8456ab	0.06461843
241	0x3c8900f6	0.016724091
242	0x3c5e3686	0.013562804
243	0xbd49841f	-0.049198266
244	0x3d2a4050	0.04156524
245	0x3d7568c5	0.05991437
246	0x3dec58e8	0.11540395
247	0x3d97d26f	0.07413184
248	0xbdaa04bd	-0.08301685
249	0x3d9b29af	0.0757631
250	0x3da272af	0.079320304
251	0x3d9acffe	0.075592026
252	0xbddc52c2	-0.10757972
253	0x3dd26147	0.102724604
254	0x3d8c7c24	0.068596154
255	0xbda7ca8c	-0.081929296

rnn.weight_hh_l0_reverse f4 [192, 64]
0	0xbcac26d9	-0.021014618
1	0x3a25f088	0.00063300924
2	0xbdae32f7	-0.085058145
3	0x3d7eab72	0.06217522
4	0x3dcf512a	0.10122903
5	0xbda4d9f5	-0.080493845
6	0x3ce36acd	0.027760888
7	0x3d36c102	0.04461766
8	0x3cb062db	0.021531513
9	0xbdf0cb78	-0.117575586
10	0xbde7a0a9	-0.1130994
11	0x3dcc7867	0.099839024
12	0x3df945cc	0.12171516
13	0xbda11396	-0.07865064
14	0xbe01fcce	-0.12694094
15	0x3e1df113	0.15423994
16	0x3dcb09cf	0.0991398
17	0x3d05dc8c	0.032681033
18	0x3deab3d7	0.11460083
19	0xbe1796c1	-0.14803602
20	0x3dad613a	0.0846581
21	0x3db7370a	0.08946045
22	0xbd1b6831	-0.03794116
23	0x3dc4b264	0.09604338
24	0x3d6cebb4	0.05784197
25	0xbda73660	-0.08164668
26	0x3ba3fc87	0.005004469
27	0x3d23ef67	0.040023234
28	0x3dc48716	0.09596078
29	0xbd3f3b59	-0.046687458
30	0x3da1fdc8	0.07909733
31	0x3dbca7e7	0.09211712
32	0x3d83a77a	0.06428428
33	0xbc9f0509	-0.01941158
34	0xbc9736b1	-0.018458696
35	0x3d415ac2	0.047205694
36	0x3da8e669	0.08247072
37	0x3e18e7e8	0.14932215
38	0x3dd91482	0.10599615
39	0x3d6429a3	0.05570377
40	0xbd900a59	-0.07033224
41	0xbc16fbd7	-0.009215317
42	0x3d4fb0a5	0.05070557
43	0xbd943f81	-0.07238675
44	0xbd84681c	-0.0646517
45	0x3da83638	0.082134664
46	0xbe27a243	-0.16370492
47	0x3db82dd0	0.08993113
48	0x3dc46c48	0.095909655
49	0xbd8d9da1	-0.06914831
50	0xbc4f915f	-0.0126689365
51	0x3d9d262c	0.07673296
52	0x3d14aea5	0.036299367
53	0xbd2fdc93	-0.042934965
54	0x3dcfb14e	0.1014124
55	0xb8e53689	-0.00010929729
56	0xbde9406f	-0.11389243
57	0x3c036f72	0.008022176
58	0x3bea4c20	0.007150188
59	0xbd91708f	-0.07101547
60	0x3dc00290	0.09375489
61	0x3d65efbb	0.056136828
62	0xbbc61b8d	-0.006045765
63	0xbe103c6e	-0.14085552
64	0xbdc1fa4f	-0.09471571
65	0x3d1119de	0.03542506
66	0x3d157e73	0.036497544
67	0xbd39e361	-0.04538286
68	0x3dafd844	0.08586171
69	0x3dcb2e90	0.099209905
70	0x3da3ced2	0.07998432
71	0xbdedef6d	-0.116179325
72	0xbd81fd19	-0.06347103
73	0xbcbe7e3a	-0.023253549
74	0x3df33bed	0.11876664
75	0x3c51f99d	0.01281586
76	0x3c4c71c3	0.012478295
77	0xbe1f85f2	-0.1557844
78	0x3dd2b775	0.10288898
79	0xbded8ca4	-0.11599091
80	0x3d4f887b	0.050667267
81	0x3d18506b	0.037186068
82	0xbd8e25a8	-0.06940776
83	0xbd826ca3	-0.06368377
84	0xbe03dbcf	-0.12876819
85	0xbdbe6694	-0.09296909
86	0x3d74cb7a	0.059764363
87	0x3c15ae9a	0.009135867
88	0x3d2e3834	0.04253407
89	0x3de7834b	0.11304339
90	0x3d07439c	0.03302346
91	0x3c0c4b65	0.008562897
92	0xbdb5cf3f	-0.0887742
93	0x3d31d945	0.043420095
94	0x3dd1ddbd	0.10247371
95	0x3da2636b	0.07929119
96	0x3c73ed5b	0.014888133
97	0x3d4a87c9	0.0494459
98	0x3aaedcd0	0.0013340954
99	0x3ccabc95	0.024748126
100	0x3d34725f	0.044054385
101	0x3d430d30	0.04762
102	0x3d32b2a7	0.043627407
103	0x3d830e81	0.06399251
104	0x3c37a014	0.011207599
105	0x3c270cc3	0.010195914
106	0x3dc2f9e0	0.09520316
107	0x3d12dad7	0.035853233
108	0xbdb22615	-0.0869867
109	0xbdbfacba	-0.09359117
110	0xbc1fbb82	-0.009749295
111	0xbdb0ebd2	-0.08638729
112	0x3daf5e43	0.08562901
113	0x3d255647	0.040365484
114	0x3d4e4837	0.05036184
115	0xbcaede36	-0.021346193
116	0x3ce941c1	0.028473737
117	0x3d004c7d	0.031322945
118	0xbdf621f2	-0.12018193
119	0x3d871270	0.065953135
120	0x3d68c1dc	0.056825504
121	0xbd97f3d4	-0.074195534
122	0xbdc7031b	-0.09717389
123	0x3c28bbca	0.010298679
124	0xbd6fe081	-0.058563713
125	0xbda5af24	-0.08090046
126	0xbcc130e3	-0.023582881
127	0x3d9d1c25	0.07671384
128	0x3da04151	0.07824958
129	0xbdecc87d	-0.115616776
130	0xbdd227b7	-0.10261481
131	0x3ca08445	0.019594321
132	0x3d67f6ca	0.05663184
133	0xbc33730c	-0.010952722
134	0x3d859a84	0.06523612
135	0x3d81f9fd	0.063465096
136	0xbb257232	-0.0025245068
137	0xbd922043	-0.0713506
138	0xbd00a187	-0.031404044
139	0x3cf6ec52	0.030141983
140	0xbd6d8fb9	-0.057998393
141	0x3c34f5e8	0.011044957
142	0x3dd5b5d8	0.104350746
143	0xbe0a3f8c	-0.13500804
144	0xbda049a7	-0.07826548
145	0x3d821c6a	0.06353076
146	0x3d77b486	0.060474895
147	0xbcbe564e	-0.023234513
148	0x3d331eef	0.043730672
149	0x3db123dd	0.086494185
150	0x3af4b55e	0.0018669774
151	0xbe01e343	-0.1268435
152	0x3da4585a	0.08024664
153	0x3dfe83f9	0.124275155
154	0x3c8fb13e	0.01754057
155	0xbd9b2899	-0.07576103
156	0xbe02c713	-0.12771253
157	0xbd4aa870	-0.04947704
158	0xbdb1e1ae	-0.08685623
159	0x3da3648e	0.07978164
160	0xbe0d2166	-0.13782272
161	0xbd7449cf	-0.0596407
162	0x3d9b4e36	0.07583277
163	0x3c9c9124	0.019112177
164	0x3dde3095	0.1084911
165	0x3d213884	0.039360538
166	0xbc86fa0f	-0.01647666
167	0xbd9d8dc2	-0.07693054
168	0xbc9d2f80	-0.019187689
169	0xbdec7dee	-0.11547457
170	0xbc9a0366	-0.018800449
171	0x3da0a714	0.078443676
172	0x3d555cd0	0.052090466
173	0xbdfa4b6e	-0.12221418
174	0x3e0f878f	0.14016555
175	0x3ca063ba	0.019578803
176	0xbe06ddd6	-0.13170561
177	0xbcf2500d	-0.029579187
178	0xbd18ee98	-0.037336916
179	0x3d8e294c	0.069414705
180	0xbdce5c04	-0.10076144
181	0x3c6beaad	0.014399213
182	0xbd035878	-0.032066792
183	0x3d89d3f0	0.06729877
184	0x39b30209	0.00034143057
185	0xbb4d6fb0	-0.0031347089
186	0x3db6e8c6	0.08931117
187	0xba1f61a6	-0.00060799194
188	0xbd07e54f	-0.03317767
189	0x3c7a1f5f	0.0152662685
190	0x3d307af9	0.043086026
191	0xbd8c0c4f	-0.06838285
192	0xbd748822	-0.05970014
193	0x3cf84143	0.030304557
194	0xbd16f045	-0.036850233
195	0xbdd816d3	-0.105512284
196	0xbd28439e	-0.04108011
197	0x3d84ff79	0.0649404
198	0x3d1a581a	0.037681676
199	0xbdebfb56	-0.11522548
200	0x39883557	0.00025979683
201	0xbd1a9aad	-0.037745167
202	0xbc47cefc	-0.012195345
203	0xbdb4eb60	-0.08833957
204	0xbd2e6bc8	-0.042583257
205	0xbd6e461f	-0.05817234
206	0x3d0ae17c	0.033906445
207	0xbb52b393	-0.0032150492
208	0x3d95e1cf	0.0731846
209	0x3d7debf8	0.061992615
210	0x3cfc7903	0.030819422
211	0x3bf641e0	0.007515177
212	0xbde6f93c	-0.112780064
213	0x3c3675f7	0.011136523
214	0xbdbff834	-0.09373513
215	0xbd467912	-0.048455305
216	0x3d89a2ab	0.067204796
217	0xbde46842	-0.11152698
218	0xbd5953ff	-0.05305862
219	0xba6eb674	-0.0009106167
220	0xbd62cd5c	-0.055371627
221	0xbdea5fbd	-0.11444042
222	0x3d39f667	0.045401003
223	0xbc82bd89	-0.015959518
224	0xbd802736	-0.06257479
225	0xbcc917a7	-0.024547411
226	0x3a915ed7	0.0011090887
227	0x3d99ae86	0.07503991
228	0x3cfb1e0c	0.030653976
229	0x3d8487a4	0.06471184
230	0x3d9b7e4b	0.07592448
231	0xbdb1ef23	-0.0868819
232	0xbd473ba0	-0.048640847
233	0xbd84684f	-0.06465208
234	0xbd670d43	-0.05640913
235	0x3dd63086	0.10458474
236	0xbd92fedf	-0.07177519
237	0xbd943494	-0.07236591
238	0xbcdb31e4	-0.026757188
239	0x3e10b3a9	0.14131035
240	0xbc772b7e	-0.015086053
241	0x3c373393	0.01118173
242	0x3d42096c	0.047372267
243	0xbd3ec393	-0.046573233
244	0x3d336919	0.0438014
245	0x3d3d67e0	0.04624164
246	0xbdad06d4	-0.08448568
247	0xbcce120e	-0.025155094
248	0xbdba8788	-0.09107882
249	0x3ce3726b	0.02776452
250	0xbb33c7c2	-0.0027432297
251	0x3df220db	0.11822673
252	0x3c3c46ca	0.011491487
253	0xbdc3b1a2	-0.09555365
254	0x3c9dec34	0.01927767
255	0xbd978641	-0.07398654

rnn.bias_ih_l0_reverse f4 [192]
0	0x3af8d135	0.0018983247
1	0x3c3391a5	0.010960017
2	0x3d2ac705	0.041693706
3	0x3e1887d9	0.14895572
4	0x3d96ccc1	0.073632725
5	0x3d503ee5	0.05084123
6	0xbda36413	-0.07978072
7	0xbad52b0b	-0.0016263438
8	0x3d7f6348	0.06235054
9	0x3defa231	0.117008574
10	0xbdbf393b	-0.09337088
11	0x3e168edd	0.14702936
12	0x3d1113d3	0.035419296
13	0xbd160234	-0.036623195
14	0x3e15070f	0.14553474
15	0x3d81ab11	0.063314565
16	0x3d3383c1	0.043826822
17	0x3d0a3e48	0.033750802
18	0xbe07b290	-0.1325171
19	0xbd52f9f4	-0.051507905
20	0x3dd4873b	0.10377356
21	0x3d97a366	0.07404213
22	0xbd115204	-0.035478607
23	0x3d742f28	0.059615284
24	0xbd96b58d	-0.07358847
25	0x3ca844b1	0.020540567
26	0x3c8ba6d9	0.017047333
27	0xbddb5b80	-0.107108116
28	0x3d94bc4a	0.07262476
29	0x3d1830a7	0.037155773
30	0x3c2acab7	0.010424308
31	0xbddf9204	-0.10916522
32	0xbd06dd5c	-0.03292595
33	0x3d45240e	0.048130088
34	0xbd9383b6	-0.07202856
35	0xbde67ff7	-0.11254876
36	0x3da2e164	0.07953146
37	0x3de980d0	0.11401522
38	0xbcef34a3	-0.029199904
39	0xbdc8ebee	-0.09810625
40	0x3de2ea95	0.11079899
41	0xbc003b6b	-0.007826666
42	0x3ddc0f4b	0.107451044
43	0x3de164d7	0.11005562
44	0xbdc6a426	-0.096992776
45	0xbd84fb21	-0.064932115
46	0xbd80814a	-0.0627466
47	0xbdd8c35b	-0.10584136
48	0x3d0f252a	0.03494755
49	0x3c3e1ff9	0.011604303
50	0x3be311f0	0.0069296286
51	0xbda34cda	-0.07973643
52	0x3d635dd9	0.055509422
53	0x3d657fff	0.05603027
54	0x3d4bae01	0.04972649
55	0x3d9ed871	0.07756127
56	0x3e29407e	0.16528508
57	0x3d7f104b	0.062271398
58	0x3d687454	0.056751564
59	0xbdf96d55	-0.121790566
60	0x3db26622	0.087108865
61	0x3e693571	0.22774293
62	0xbc14d0f4	-0.009083021
63	0x3cf1f836	0.029537302
64	0xbd92f6ea	-0.07176001
65	0xbda96dbb	-0.082728826
66	0xbcf4793a	-0.029842962
67	0xbdd027fe	-0.10163878
68	0x3c538737	0.012910656
69	0xbe02af9e	-0.12762305
70	0x3d85c8dc	0.065324515
71	0xbdf951a7	-0.12173777
72	0x3d873fea	0.066039875
73	0xbd1d5dcf	-0.03841954
74	0x3d93abf0	0.07210529
75	0x3db9ffe4	0.090820104
76	0xbcf6dd21	-0.03013474
77	0xbcdfcd11	-0.027319463
78	0x3de04d7a	0.109522775
79	0xbd513a86	-0.051081203
80	0xbd395d4d	-0.045254994
81	0x3e04948f	0.12947296
82	0xbdad1f52	-0.084532395
83	0xbde72c35	-0.11287729
84	0xbba79005	-0.005113604
85	0xbd072f83	-0.033004295
86	0xbd65b8ea	-0.05608455
87	0xbca33247	-0.019921435
88	0x3d6166d9	0.055029724
89	0xbdc7eec7	-0.0976234
90	0xbce22ff6	-0.02761076
91	0xbc00f938	-0.007871918
92	0x3dd6af5d	0.10482667
93	0xbcafdbd9	-0.021467136
94	0xbdb70982	-0.0893736
95	0x3ca9011a	0.020630408
96	0x3c967486	0.01836611
97	0x3d1662ac	0.036715195
98	0xbd12eeeb	-0.03587238
99	0xbb8a5726	-0.0042218147
100	0x3c0a3398	0.0084351525
101	0x3dba15d0	0.09086192
102	0xbe056b7f	-0.13029288
103	0xbdda80f7	-0.10669129
104	0xbcad68a0	-0.021168053
105	0x3c5926c2	0.0132538695
106	0x3dd06878	0.10176176
107	0xbd8f77a5	-0.07005242
108	0x3d0c0368	0.034182936
109	0x3d655329	0.05598751
110	0xbc6d1cb5	-0.014472176
111	0x3c9c8198	0.019104764
112	0x3cde7ea7	0.027160002
113	0xbd46a475	-0.048496682
114	0xbdd7e49b	-0.1054165
115	0xbdc20c48	-0.09474999
116	0x3cfc7360	0.030816734
117	0xbda0f452	-0.078591004
118	0x3d56b7a3	0.052421223
119	0xbba7a662	-0.00511627
120	0xbd32859c	-0.04358445
121	0xbda2f36c	-0.07956585
122	0x3ddec3e2	0.108772054
123	0xbd004d53	-0.031323742
124	0xbd461fda	-0.04837022
125	0x3da345c6	0.079722926
126	0x3dea4de6	0.11440639
127	0xbdd5d366	-0.10440712
128	0x3da696ec	0.08134255
129	0x3d8ab109	0.06772048
130	0x3da52ef2	0.08065595
131	0xbd0c4f52	-0.034255333
132	0x3d8c7d87	0.0685988
133	0x3cd953ad	0.026529158
134	0x3d5b80a1	0.053589467
135	0x3db8eaa1	0.09029127
136	0x3df9892a	0.12184365
137	0xbdca249b	-0.09870263
138	0x3dd2cc24	0.10292843
139	0x3dc05e32	0.09392966
140	0xbce12a6f	-0.027486054
141	0xbdce1c33	-0.10063972
142	0xbd46eac6	-0.04856374
143	0x3da0c340	0.07849741
144	0x3d394ddd	0.04524027
145	0x3cdb7841	0.02679074
146	0x3d215dcc	0.039396092
147	0x3dbf98e5	0.09355334
148	0xbd584ed0	-0.052809536
149	0x3db71fee	0.08941637
150	0x3db7a813	0.089676045
151	0x3d8ea292	0.069646016
152	0x3ca58b65	0.02020807
153	0xbdaa8f46	-0.083281085
154	0xbc8c2a9d	-0.017110163
155	0xbd58ffd1	-0.05297834
156	0x3dc2b997	0.09508055
157	0xbb6dd052	-0.0036287499
158	0xbc47705d	-0.012172786
159	0xbd977664	-0.07395628
160	0xbdb8b7a8	-0.09019405
161	0xbdc30ec1	-0.095242985
162	0x3d22f8e9	0.03978816
163	0x3d0aec04	0.03391649
164	0x3bda048c	0.006653374
165	0xbe0c7b28	-0.13718855
166	0xbdf5e9a7	-0.12007456
167	0x3d915053	0.07095399
168	0x3c4360eb	0.0119249625
169	0x3dd15da5	0.102229394
170	0x3d5bc9cf	0.053659257
171	0xbd1072e9	-0.035265837
172	0xbe0183bf	-0.12647913
173	0xbdb8ad32	-0.090174094
174	0x3d632af0	0.05546087
175	0x3ca2070c	0.01977875
176	0x3d8267bd	0.06367443
177	0xbdf0ddbe	-0.11761044
178	0x3cf9234c	0.030412339
179	0xbd3d82c8	-0.0462673
180	0x3de09b18	0.10967082
181	0x3e01012a	0.125981
182	0xbd5a9d5f	-0.053372737
183	0x3de554c8	0.11197811
184	0xbabe9a8b	-0.0014541907
185	0xbda8d6c9	-0.08244092
186	0xbd6bd269	-0.05757371
187	0x3dab1589	0.08353717
188	0x3dc4c371	0.0960759
189	0xbdcaa9f1	-0.09895695
190	0x3d9fb43f	0.07798051
191	0x3e04e0f4	0.12976438

rnn.bias_hh_l0_reverse f4 [192]
0	0x3d235c09	0.039882693
1	0xbda319d0	-0.07963908
2	0xbde0237e	-0.109442696
3	0xbd64b337	-0.055834975
4	0x3daae43e	0.08344315
5	0x3d0fbcc2	0.035092123
6	0xbdb00eaf	-0.08596551
7	0xbc8879d6	-0.016659658
8	0x3e9090b8	0.28235412
9	0xbd273491	-0.040821616
10	0x3d3dbb88	0.04632142
11	0x3d724126	0.05914416
12	0xbd0a6fa1	-0.033797864
13	0x3dd07162	0.10177876
14	0xbd916d9a	-0.07100983
15	0x3e1b195c	0.15146393
16	0x3c906a40	0.017628789
17	0xbd56c7b4	-0.052436545
18	0x3b1960b6	0.0023403591
19	0xbd4c2b80	-0.049846172
20	0x3d7f6235	0.062349517
21	0x3d4e9930	0.05043906
22	0xbc1065c2	-0.008813323
23	0x3dab33f3	0.08359518
24	0xbd4c629b	-0.049898725
25	0xbc9fef25	-0.019523213
26	0x3dd85952	0.105639115
27	0x3cc377e7	0.023860885
28	0x3d2a9192	0.041642733
29	0xbbd5cd71	-0.0065247347
30	0x3dfd15d4	0.12357679
31	0xbd679ce6	-0.056546114
32	0xbd68f34f	-0.056872662
33	0xbca440e3	-0.020050472
34	0x3d84bf7f	0.064818375
35	0xbdc9e9f1	-0.09859074
36	0xbcf3d8db	-0.02976649
37	0xbd8379de	-0.06419729
38	0x3cb140b5	0.0216373
39	0x3d0246d4	0.03180583
40	0x3df5dd0d	0.12005053
41	0xbc9fbd36	-0.019499402
42	0x3dbce589	0.09223468
43	0xbd7feb5a	-0.062480308
44	0xbd7bd90b	-0.061486285
45	0x3d9ad17f	0.075594895
46	0xbde809a2	-0.11329962
47	0x3d3b7c2d	0.04577272
48	0xbda9957c	-0.08280465
49	0xbd6164c2	-0.05502773
50	0x3da9ce13	0.08291259
51	0xbc0e0e8f	-0.008670463
52	0x3d4e806d	0.050415445
53	0x3db306d3	0.08741536
54	0xbd2e2713	-0.042517733
55	0x3deb6ca9	0.11495335
56	0xbd8bf0ad	-0.06833015
57	0x3b855e10	0.004070051
58	0x3d250a70	0.040293157
59	0x3c2b6fd3	0.010463673
60	0xbdb50d9a	-0.08840485
61	0xbbe57eac	-0.007003626
62	0x3d9a7aa7	0.07542925
63	0x3d09543c	0.033527598
64	0x3de53484	0.11191657
65	0x3ca24c19	0.019811677
66	0xbdde4851	-0.10853637
67	0xbc566d19	-0.013087534
68	0xbdf69027	-0.12039214
69	0x3cc4ade0	0.024008691
70	0xbd1f8d68	-0.038953215
71	0x3b432f51	0.0029782841
72	0x3d44df65	0.048064608
73	0x3d9c7636	0.076397344
74	0xbbdf5b40	-0.006816298
75	0x3c4a92d2	0.012364106
76	0xbd9e8b2c	-0.07741389
77	0xbdba3c21	-0.090935
78	0xbdfe029e	-0.12402843
79	0xbdef4f5c	-0.116850585
80	0x3d4c233f	0.0498383
81	0xbcdc4b44	-0.026891358
82	0x3d7e189b	0.062035184
83	0x3d642833	0.0557024
84	0x3d517dbe	0.051145308
85	0xbcba25c4	-0.022723086
86	0xbdf1069e	-0.1176884
87	0x3dd16400	0.102241516
88	0xbbc6fedb	-0.0060728616
89	0xbd1f8225	-0.038942475
90	0x3cb5153e	0.022104856
91	0x3d2866bc	0.0411136
92	0x3ad23803	0.0016038421
93	0x3d536638	0.051611155
94	0xbcddb33a	-0.027063001
95	0xbdaa4fb3	-0.08315983
96	0x3ddf958e	0.10917197
97	0xbd947906	-0.07249646
98	0xbce110ba	-0.027473796
99	0xbcf6f943	-0.030148154
100	0x3d2c6a34	0.04209347
101	0xbce2c2f3	-0.02768085
102	0xbd9b26fb	-0.07575794
103	0xbde60f91	-0.11233438
104	0xbdd32e38	-0.1031155
105	0x3d695ae3	0.056971442
106	0xbdf35eb8	-0.118833005
107	0x3c933b1c	0.017972521
108	0x3db6f505	0.089334525
109	0x3ca730e8	0.020409063
110	0xbdbff367	-0.09372597
111	0xbdf14659	-0.11780996
112	0x3d26d612	0.040731497
113	0x3c882767	0.016620351
114	0xbdff30b4	-0.12460461
115	0xbdbf2ef0	-0.093351245
116	0x3d8f77e3	0.070052885
117	0x3c9c6073	0.01908896
118	0x3d7b1639	0.06130049
119	0x3d943dae	0.07238327
120	0x3dbea26e	0.09308325
121	0xbd2193f8	-0.039447755
122	0x3b774fed	0.0037736848
123	0xbbc15096	-0.005899499
124	0xbab616c9	-0.0013892289
125	0xbdbd50fe	-0.09243964
126	0xbd7ea40f	-0.062168177
127	0xbdc46ef2	-0.09591474
128	0xbd998728	-0.07496482
129	0xbd01a67f	-0.031652924
130	0x3d1470d8	0.03624043
131	0xbe1170ee	-0.14203236
132	0x3d790f14	0.060805395
133	0x3d8e1656	0.06937854
134	0xbd88ef8a	-0.066863135
135	0xbcab3b80	-0.020902395
136	0x3de9bec0	0.11413336
137	0x3c9ac6aa	0.018893559
138	0x3dd53a75	0.104115404
139	0x3dc8a392	0.097968236
140	0x3de329c9	0.11091954
141	0xbd44d465	-0.048054118
142	0x3d64b661	0.055837993
143	0x3dc08225	0.09399823
144	0xbdbbcd92	-0.09170069
145	0xbce422f0	-0.02784869
146	0x3d9fb8a2	0.07798888
147	0x3d8ac96e	0.06776701
148	0xbe118c46	-0.14213666
149	0x3d4f9989	0.050683532
150	0xbd22d0ff	-0.039750095
151	0xbdfcba11	-0.12340177
152	0xbd5bb157	-0.05363592
153	0xbc8b73c5	-0.017022977
154	0xbc871b92	-0.016492639
155	0x3d7d8a9c	0.061899766
156	0xbb3452b4	-0.0027515115
157	0x3cbfcf5c	0.023414306
158	0xbdc38bc5	-0.09548143
159	0x3da11476	0.07865231
160	0xbc85ebd4	-0.016347803
161	0xbdf501cc	-0.11963233
162	0xbdb4526c	-0.08804783
163	0x3d9d7e28	0.07690078
164	0xbcdca1f5	-0.026932696
165	0xbd3e0f45	-0.04640128
166	0x3d8ecbdc	0.06972477
167	0xbdf59e22	-0.11993052
168	0xbc957650	-0.018244892
169	0x3d10a530	0.035313785
170	0x3e05d300	0.13068771
171	0x3d959a83	0.073048614
172	0xbdaed87a	-0.085373834
173	0xbdd0482d	-0.101700164
174	0x3d972b60	0.0738132
175	0x3d25ddb9	0.040494654
176	0xbda84a06	-0.08217244
177	0xbb45bc87	-0.0030172186
178	0xbdad8100	-0.084718704
179	0xbda8fba4	-0.08251122
180	0xbd477f61	-0.048705462
181	0xbd695f53	-0.056975674
182	0xbc79b6f1	-0.015241371
183	0xbd2dac4c	-0.042400643
184	0x3d7d6f74	0.061873868
185	0x3d7b2192	0.061311312
186	0x3dc92adb	0.09822627
187	0xbc38a601	-0.011270047
188	0xbdac85cb	-0.084239565
189	0xbddc5989	-0.10759265
190	0xbd5f9c74	-0.054592565
191	0x3df5ccd8	0.120019615
