ckpt/lstm_reg.pt (torch, 701475 bytes, 17 tensors)

rnn.weight_ih_l0 f4 [256, 81]
-0.03944854 -0.015525202 -0.047192108 -0.0055136844 0.093132846 -0.109577395 0.06706809 0.058647297
-0.054986577 0.09115716 -0.070910536 -0.034748234 0.06655397 0.015660347 -0.012331705 -0.033216465
-0.06169196 -0.048563767 0.08194552 0.05410978 0.007990219 0.0532651 -0.074749336 0.044765987
0.016050437 -0.05398769 0.075549416 -0.03466006 0.10221961 0.060131013 -0.084949754 0.10507339
-0.007449263 0.040263563 -0.062257443 0.0053938976 -0.0731264 -0.07145151 0.022665396 -0.058279127
0.048705153 0.065221176 0.10307783 -0.013500385 0.083569795 -0.017104357 0.14038363 0.04928353
-0.022359116 -0.045655143 0.105413824 -0.10894901 -0.08509199 0.06975331 -0.052090626 -0.0033885913
-0.032426916 -0.044010673 0.022078255 0.001743616 0.044560257 -0.0794076 -0.0197422 -0.08786367
0.0031064434 0.075591795 -0.035492845 -0.004932252 -0.016737996 0.114467196 -0.08494629 -0.07701709
0.10731601 -0.13673736 -0.07110783 0.0927373 0.001389224 0.04486855 -0.047108583 0.14378808
0.10404986 0.06494664 -0.01276312 0.09204364 0.01873822 -0.057367638 0.02015348 0.09518572
-0.04728865 -0.06307077 0.08083144 0.033151522 0.120445125 -0.025686264 0.09239704 0.053629536
0.1201294 0.08033574 -0.035550144 0.023122681 0.018287875 0.12804064 -0.1155238 0.09964797
0.011148014 0.014846752 -0.05392931 -0.10349281 -0.07468747 0.10098668 0.02328041 -0.011733435
-0.122113205 0.029516697 -0.025399642 0.06917899 0.11680527 0.058324948 -0.059034094 -0.10067734
-0.021882921 0.0333398 -0.030320715 -0.007442633 -0.04687745 -0.08293146 0.059107974 0.05774837
-0.032912318 -0.03531341 -0.023297234 0.08005687 -0.07418337 -0.05068954 0.11631115 0.12775017
-0.0073990826 0.0099390205 0.116788566 0.11740749 0.030547267 0.07338059 -0.00865033 0.072917424
0.00625057 0.10724855 0.13153736 0.048313707 0.09273924 0.10121514 -0.12359812 0.10059847
0.13284448 -0.077233955 -0.090364106 0.12200275 0.0018199596 -0.033727426 0.0066578686 0.09487603
0.09978605 -0.013167134 0.0312646 -0.034832105 0.036487423 0.09081259 0.0535779 0.019556765
-0.051166475 0.14173475 -0.09656531 -0.011234484 -0.0812299 -0.08756703 0.028557166 0.03233893
0.08290015 -0.074201904 -0.10844844 -0.043667775 0.00851542 0.038435023 0.042109154 0.10819013
0.01777023 0.11653715 0.0068439622 -0.06832576 0.13736747 0.09724923 0.13056397 -0.019906506
0.034694515 0.043517783 0.06806543 0.077326626 0.116126366 0.0723894 0.09148441 0.011290102
0.107489474 -0.07009013 -0.021339644 0.10926951 -0.0063526295 -0.05476112 0.02943905 -0.103722855
0.071345784 0.04223427 0.053215884 -0.0026468225 -0.020835474 -0.039437983 -0.02665436 0.044387687
-0.02819386 -0.058174156 0.120214105 0.121793106 -0.066386186 -0.08279819 0.053694263 -0.024477798
-0.092681885 0.04479283 -0.10888101 0.07762167 0.093944 -0.023684088 0.08176017 0.021702783
-0.07636184 0.014837243 0.00058912236 -0.017367786 0.075052224 0.0265356 -0.06816252 0.13710807
0.124681175 -0.08815328 -0.048916455 0.077693135 -0.0090356665 -0.02684774 -0.1106507 0.01862396
0.10926002 -0.070225745 -0.11371962 -0.029450458 0.021818116 -0.1176352 0.109257445 -0.066811986
00000000: cb94 21bd 6b5d 7ebc 834c 41bd 23ac b4bb
00000010: 6fbc be3d 1d6a e0bd ff5a 893d 2638 703d
00000020: 9b39 61bd 9bb0 ba3d 8b39 91bd 2a54 0ebd
00000030: 734d 883d 214a 803c eb0a 4abc fd0d 08bd
00000040: b5b0 7cbd cdea 46bd 0ed3 a73d 37a2 5d3d
00000050: 68e9 023c 812c 5a3d 2e16 99bd 8a5c 373d
00000060: 357c 833c 3222 5dbd a7b9 9a3d b5f7 0dbd
00000070: 8458 d13d f04b 763d 23fa adbd b830 d73d
00000080: f218 f4bb 68eb 243d a901 7fbd 4bbf b03b
00000090: 4bc3 95bd 2b55 92bd c8ac b93c 18b6 6ebd
000000a0: 0e7f 473d ae92 853d 781a d33d b830 5dbc
000000b0: a426 ab3d 701e 8cbc bac0 0f3e 87dd 493d
000000c0: 772a b7bc e300 3bbd 34e3 d73d a920 dfbd
000000d0: b644 aebd d3da 8e3d fb5c 55bd 2113 5ebb
000000e0: 16d2 04bd 8944 34bd 75dd b43c 0b8a e43a
000000f0: d184 363d 74a0 a2bd 65ba a1bc def1 b3bd
00000100: 7995 4b3b dfcf 9a3d f260 11bd bb9e a1bb
00000110: 1f1e 89bc c76d ea3d 52f8 adbd 23bb 9dbd
00000120: 7fc8 db3d e104 0cbe fba0 91bd 0eed bd3d
00000130: 9f16 b63a 16c8 373d eef4 40bd 2f3d 133e
00000140: 1818 d53d be02 853d 681c 51bc 6081 bc3d
00000150: e580 993c 54fa 6abd e918 a53c bbf0 c23d
00000160: beb1 41bd 3f2b 81bd f48a a53d e4c9 073d
00000170: efab f63d 006c d2bc a93a bd3d a5aa 5b3d
00000180: 6706 f63d 1087 a43d 079d 11bd c76b bd3c
00000190: 74d0 953c 161d 033e be97 ecbd 3c14 cc3d
000001a0: 29a6 363c cb3f 733c fbe4 5cbd 0af4 d3bd
000001b0: bff5 98bd 1bd2 ce3d 8fb6 be3c 983d 40bc
000001c0: 7d16 fabd 00cd f13c e912 d0bc b7ad 8d3d
000001d0: 9a37 ef3d 24e6 6e3d bccd 71bd ec2f cebd
000001e0: d043 b3bc 508f 083d 2663 f8bc 55e1 f3bb
000001f0: 9202 40bd f8d7 a9bd 341b 723d 8e89 6c3d
00000200: 11cf 06bd cba4 10bd d7d9 bebc dbf4 a33d
00000210: 73ed 97bd d69f 4fbd 8a34 ee3d f1d0 023e
00000220: 0174 f2bb 46d7 223c d82e ef3d 5773 f03d
00000230: 433e fa3c 9048 963d 1dba 0dbc bb55 953d
00000240: 95d1 cc3b 21a5 db3d bbb1 063e 98e4 453d
00000250: 12ee bd3d e249 cf3d 0321 fdbd 9206 ce3d
00000260: 6208 083e d62c 9ebd d110 b9bd 94dc f93d
00000270: b68b ee3a c525 0abd 402a da3b 5d4e c23d
00000280: a15c cc3d f6ba 57bc 4f0f 003d 1cac 0ebd
00000290: d673 153d f4fb b93d 8074 5b3d 8235 a03c
000002a0: f093 51bd ea22 113e 09c4 c5bd d710 38bc
000002b0: dd5b a6bd 5856 b3bd b8f0 e93c d375 043d
000002c0: 8ec7 a93d 2bf7 97bd 371a debd fbdc 32bd
000002d0: 4384 0b3c 0b6e 1d3d a67a 2c3d c992 dd3d
000002e0: e092 913c 08ab ee3d 5143 e03b 60ee 8bbd
000002f0: 0faa 0c3e 9b2a c73d 90b2 053e f812 a3bc
00000300: d61b 0e3d b43f 323d e365 8b3d 6c5d 9e3d
00000310: a9d3 ed3d e540 943d 2e5c bb3d 1ffa 383c
00000320: 7123 dc3d 6a8b 8fbd 7ad0 aebc b1c8 df3d
00000330: b829 d0bb 324d 60bd 2a2a f13c a66c d4bd
00000340: bd1d 923d d8fd 2c3d e6f8 593d 5076 2dbb
00000350: 28af aabc b989 21bd 3f5a dabc ddcf 353d
00000360: cff6 e6bc 0648 6ebd d032 f63d aa6e f93d
00000370: 7bf5 87bd 1992 a9bd 84ee 5b3d aa85 c8bc
00000380: 00d0 bdbd b078 373d 02fd debd 1cf8 9e3d
00000390: b665 c03d 2205 c2bc e071 a73d 09ca b13c
000003a0: 9963 9cbd e817 733c 556f 1a3a e346 8ebc
000003b0: fbb4 993d 3061 d93c cb98 8bbd 0f66 0c3e
000003c0: d858 ff3d b589 b4bd 9f5c 48bd 941d 9f3d
000003d0: 550a 14bc cbef dbbc d69c e2bd 4691 983c
000003e0: b8c3 df3d 84d2 8fbd d5e5 e8bd 1642 f1bc
000003f0: e8bb b23c b9ea f0bd 5ec2 df3d b9d4 88bd

rnn.weight_hh_l0 f4 [256, 64]
-0.0008398771 0.053884737 0.15384035 0.010562487 0.026004488 0.06454412 -0.05937409 -0.16129349
0.028642146 0.11719778 0.12452141 0.042354494 -0.20152916 -0.16216885 -0.057214655 0.10136599
0.018244473 0.030898415 0.04673765 -0.13727592 0.02434977 -0.12118075 -0.07700232 -0.08499094
0.06112365 -0.13080809 -0.0020306674 0.027078087 0.14857416 0.13515112 0.064099416 -0.041287273
0.09720345 0.033768103 -0.057827946 -0.008806035 -0.023431303 0.13764709 0.027758753 0.028361449
0.0969546 0.045293447 -0.06409455 -0.054546345 0.088963486 0.089285746 -0.0653615 -0.008947883
0.010240513 0.1295711 0.08949734 0.09099167 0.01660225 0.08502016 0.08397441 0.006745087
0.023104519 -0.026744625 -0.09290276 -0.06086082 0.10452543 -0.029578391 -0.08904335 0.042684622
0.055081233 -0.05731104 -0.008112018 -0.055327237 0.05844709 0.09145219 0.1255766 0.10821576
-0.051455125 0.025498936 0.020797329 -0.013784501 0.0045364574 -0.023932103 -0.06964351 0.09368205
-0.08631137 0.013773842 0.071134344 0.040199302 0.051835485 0.11091902 0.09212165 -0.06496461
0.005418506 -0.0047499607 0.06763566 0.0042873467 0.05312292 -0.09792148 -0.07315492 0.031981688
-0.0520352 -0.010879312 0.12123612 -0.09523078 -0.12652995 0.03410139 -0.011649148 0.0052700588
-0.029153101 0.004411584 -0.06502869 0.0661334 -0.07265693 0.09077922 0.07294349 -0.026927002
-0.052774023 -0.08358519 0.091919586 0.063015044 0.087936826 0.11490022 0.11572852 0.059121896
-0.03811245 0.03411282 0.03383724 0.014074556 -0.1062568 0.04772434 -0.102933 0.12173627
-0.12807022 -0.06796019 -0.08033359 -0.0083547635 0.050808795 0.063068226 -0.019619333 -0.15111008
-0.058790732 -0.11171242 -0.02687701 -0.10701002 -0.09939835 0.043316904 -0.021490626 0.059482045
0.09139282 0.09073707 -0.028579284 0.10034261 -0.009770816 -0.014425708 0.0024329536 -0.06774516
-0.101937845 0.099269584 0.051481877 -0.04936085 -0.046298996 -0.046316497 -0.054292 -0.021822898
0.045889422 0.013959048 -0.036475156 -0.08862602 0.014708195 0.0485653 0.02966521 -0.06502632
-0.012406365 0.007305604 -0.049105667 0.043824725 -0.08673396 -0.002228092 -0.043894295 0.04990078
0.028745297 0.06556832 0.06586478 0.08650033 -0.05526383 -0.027793104 0.12097071 -0.06717154
-0.1289876 -0.092563696 0.1098518 -0.008558634 0.01517844 0.14916514 0.036924694 0.0858492
0.16070373 -0.010654192 -0.09451559 -0.03163807 -0.04158359 0.005427511 -0.07086571 -0.080524325
-0.10407622 0.049267378 -0.08935238 -0.01154467 0.07807547 -0.014173606 -0.0218824 0.043025028
0.062271878 0.09487976 -0.06576859 0.09742769 0.09922432 0.12442925 -0.065145314 -0.11744213
0.019751476 0.029356236 0.029078411 0.028031487 0.04088105 0.06525974 -0.0309751 0.045325942
-0.06021408 0.009972249 -0.035708368 -0.02419409 -0.09126192 0.08375487 0.013946584 0.05678542
0.0802277 -0.06980083 0.029692573 -0.08877418 -0.08525247 -0.10628587 0.067874365 -0.008359332
-0.13142684 -0.08239323 0.05868167 -0.02133867 -0.0067433375 -0.13563536 0.13044637 0.100598395
-0.10520343 -0.06808802 0.058030862 -0.050316896 -0.04196489 -0.070745066 -0.07539482 -0.11518444
00000000: 332b 5cba 3eb6 5c3d 5388 1d3e 480e 2d3c
00000010: 5d07 d53c b52f 843d 3f32 73bd 1f2a 25be
00000020: efa2 ea3c 6405 f03d 1505 ff3d e87b 2d3d
00000030: a95d 4ebe 970f 26be ea59 6abd f998 cf3d
00000040: 6f75 953c ac1e fd3c fa6f 3f3d 0f92 0cbe
00000050: 2b79 c73c 9d2d f8bd 64b3 9dbd bb0f aebd
00000060: cb5c 7a3d 8ef2 05be f214 05bb ddd2 dd3c
00000070: d323 183e 0e65 0a3e 8e46 833d d81c 29bd
00000080: 9a12 c73d 6c50 0a3d ffdc 6cbd 3047 10bc
00000090: 01f3 bfbc 5cf3 0c3e 5366 e33c 4556 e83c
000000a0: 2290 c63d 9f85 393d 0144 83bd fd6b 5fbd
000000b0: 7d32 b63d 72db b63d 40dc 85bd 249a 12bc
000000c0: d3c7 273c 49ae 043e 624a b73d d759 ba3d
000000d0: 7101 883c 0d1f ae3d c7fa ab3d e405 dd3b
000000e0: b045 bd3c 8b17 dbbc cd43 bebd 3249 79bd
000000f0: 6e11 d63d 624e f2bc 5c5c b6bd 12d6 2e3d
00000100: dc9c 613d fbbe 6abd 45e8 04bc d09e 62bd
00000110: 3766 6f3d 494b bb3d 2797 003e 39a0 dd3d
00000120: 9cc2 52bd 25e3 d03c 295f aa3c 63d8 61bc
00000130: 90a6 943b 420d c4bc 42a1 8ebd 60dc bf3d
00000140: 04c4 b0bd aeab 613c e2ae 913d 06a8 243d
00000150: 7251 543d 8329 e33d 47aa bc3d 2a0c 85bd
00000160: b98d b13b 8fa5 9bbb 9184 8a3d df7c 8c3b
00000170: 6b97 593d 0f8b c8bd 3fd2 95bd 3bff 023d
00000180: dd22 55bd 243f 32bc a54a f83d 5b08 c3bd
00000190: 1191 01be e6ad 0b3d 11dc 3ebc 75b0 ac3b
000001a0: 7cd2 eebc 0d8f 903b c32d 85bd f370 873d
000001b0: 28cd 94bd 75ea b93d 6663 953d 0496 dcbc
000001c0: 9329 58bd b62e abbd 5640 bc3d 080e 813d
000001d0: 3918 b43d ce50 eb3d 1303 ed3d cd29 723d
000001e0: cd1b 1cbd e2b9 0b3d eb98 0a3d f798 663c
000001f0: 2a9d d9bd 997a 433d 89ce d2bd de50 f93d
00000200: d724 03be b62e 8bbd f085 a4bd 6be2 08bc
00000210: e21c 503d ea29 813d b9b8 a0bc 9abc 1abe
00000220: 8dce 70bd 7bc9 e4bd 2d2d dcbc 1228 dbbd
00000230: 5d91 cbbd 116d 313d 1c0d b0bc 72a3 733d
00000240: 292c bb3d 5bd4 b93d 1a1f eabc 6d80 cd3d
00000250: c615 20bc ce59 6cbc 3072 1f3b f9bd 8abd
00000260: cac4 d0bd da4d cb3d a9de 523d 9a2e 4abd
00000270: 04a4 3dbd 5eb6 3dbd 4a61 5ebd efc5 b2bc
00000280: 8cf6 3b3d 7eb4 643c f966 15bd 8f81 b5bd
00000290: a4fa 703c 68ec 463d 7404 f33c 852c 85bd
000002a0: 1144 4bbc d963 ef3b 0623 49bd 8e81 333d
000002b0: 93a1 b1bd 2e05 12bb 81ca 33bd c364 4c3d
000002c0: 427b eb3c af48 863d 1de4 863d 1627 b13d
000002d0: 535c 62bd 5dae e3bc 7ebf f73d 3b91 89bd
000002e0: 5315 04be 0992 bdbd fbf9 e03d 8339 0cbc
000002f0: feae 783c bfbe 183e 593e 173d b5d1 af3d
00000300: 858f 243e ec8e 2ebc 6491 c1bd ec96 01bd
00000310: 8e53 2abd 43d9 b13b 0b22 91bd f0e9 a4bd
00000320: ea25 d5bd 97cc 493d 61fe b6bd db25 3dbc
00000330: 08e6 9f3d 6a38 68bc b842 b3bc 033b 303d
00000340: cc10 7f3d 5250 c23d afb1 86bd 2b88 c73d
00000350: 1f36 cb3d c3d4 fe3d e86a 85bd 8085 f0bd
00000360: d9cd a13c 7d7c f03c d935 ee3c 4aa2 e53c
00000370: e372 273d e6a6 853d 7ebf fdbc b2a7 393d
00000380: 0aa3 76bd a562 233c f042 12bd af32 c6bc
00000390: 88e7 babd ac87 ab3d 3780 643c d497 683d
000003a0: 6c4e a43d bdf3 8ebd d73d f33c 3dcf b5bd
000003b0: d998 aebd 68ac d9bd b701 8b3d 94f5 08bc
000003c0: c294 06be c8bd a8bd 315c 703d 6fce aebc
000003d0: 37f7 dcbb ffe3 0abe bc93 053e 8806 ce3d
000003e0: e574 d7bd bb71 8bbd c5b1 6d3d 1719 4ebd
000003f0: 60e3 2bbd cae2 90bd 9968 9abd d2e5 ebbd

rnn.bias_ih_l0 f4 [256]
0.13111982 -0.088164225 -0.044333957 0.06449565 -0.08883565 -0.08933301 -0.034161653 -0.07768849
0.109934576 -0.014185739 -0.043459456 0.09367814 0.070911095 0.02243009 -0.08318299 0.0037435305
-0.10500252 0.00079151464 0.016019965 -0.017423246 0.12282538 -0.082359955 -0.039737407 0.0055804905
-0.07412441 0.021667078 -0.07464825 0.074043304 -0.018650224 -0.032788057 0.12754379 0.016685676
0.16569783 0.07414756 -0.044618398 0.06301135 0.034112744 0.05005271 0.14942609 0.052419513
0.023934882 -0.095895 -0.01519284 0.009721461 -0.09197787 -0.009630136 0.042990677 0.028854502
0.06951261 0.068409346 0.114830814 -0.04892841 0.03694893 0.09780957 -0.011306931 -0.0131703485
-0.04144792 -0.022685073 0.035702355 -0.03922072 -0.077625334 0.063211925 -0.033335265 0.09627253
-0.10393072 -0.0456693 -0.0217687 0.03346386 -0.11310797 0.10359428 -0.049005 0.10023794
0.006418456 0.09183422 0.094089784 0.037585434 -0.10986533 0.035034172 0.01624672 -0.12035801
-0.028396932 -0.061949525 0.1027799 -0.016211558 -0.1044371 -0.10340762 -0.058634277 0.0010226502
0.052209143 -0.076187715 -0.12661117 -0.11754567 -0.090366244 0.082256824 -0.012497045 0.01768562
-0.06969275 -0.049832407 -0.10871685 0.02278892 -0.016609741 0.108296655 -0.0073127914 -0.070263796
0.0024770205 0.031130124 0.06087544 0.06463102 0.11200948 0.051772844 -0.008278939 -0.022635648
-0.09356414 -0.07562406 0.055462644 -0.038018886 0.021231199 0.036012273 -0.094082475 -0.06177673
0.05598002 -0.027514191 -0.020333424 0.029476805 -0.020186856 -0.06998972 -0.10756322 0.07556735
0.060371965 0.022798957 0.10047813 0.05397478 -0.07114424 0.07528067 -0.069227256 0.03611515
-0.07469166 -0.038153913 -0.072220415 0.02191333 -0.023270914 0.03716249 -0.0109341 0.028866267
0.094629474 0.13310514 -0.050159518 0.060921803 -0.08199047 -0.09298955 0.11257663 -0.0027234252
0.042346723 0.014472965 -0.06830455 0.007556295 0.103197135 -0.086809635 -0.12197885 -0.026265636
0.07948199 0.065822534 -0.09727857 -0.097260855 -0.034677025 -0.040149063 0.12185838 -0.017327594
-0.016872875 -0.10547229 -0.05358044 0.113023646 -0.06461017 -0.06280829 0.08702572 0.044857528
-0.0010371062 0.06798591 -0.07039984 0.0020514233 0.023106473 -0.050205417 -0.006059686 0.027721303
0.033894114 -0.060809154 0.05586758 -0.024145659 -0.0012821774 0.006965335 0.045246445 0.059117235
-0.08859277 0.090355836 -0.09233417 0.052582376 -0.010197802 0.0076043336 -0.012039538 0.014944511
0.12825675 0.004324627 -0.09353892 0.081733204 -0.08170112 0.06807554 0.03236126 -0.098660655
0.087572604 0.083008625 0.1089965 -0.07793362 -0.08679187 -0.011230494 0.0415864 0.097519286
0.056502413 0.054380268 -0.05015038 0.022949124 0.07696422 0.0119263735 0.13206899 0.03567354
0.15951397 -0.016834222 0.031287704 0.09765346 0.017076889 -0.055756155 -0.03252795 -0.021677284
-0.011412524 -0.025594322 -0.0021905804 -0.11800279 0.041548736 -0.00898471 -0.055730384 -0.06136177
-0.093864076 -0.063818686 0.0798331 -0.086255305 0.013650523 0.042488456 0.07766391 0.067816794
0.023380363 0.12849216 -0.057109307 0.1307717 0.034824535 -0.0028702212 -0.073150925 0.06919021
00000000: 4644 063e 728f b4bd 8697 35bd 4c16 843d
00000010: 77ef b5bd 3af4 b6bd 17ed 0bbd 251b 9fbd
00000020: 6125 e13d 4d6b 68bc 8b02 32bd 53da bf3d
00000030: d639 913d 4fbf b73c d85b aabd 0556 753b
00000040: 900b d7bd a67d 4f3a 4d3c 833c 32bb 8ebc
00000050: df8b fb3d 56ac a8bd b1c3 22bd 8cdc b63b
00000060: 8ace 97bd 287f b13c 2fe1 98bd 04a4 973d
00000070: 5bc8 98bc c54c 06bd d79a 023e 66b0 883c
00000080: b1ac 293e adda 973d c8c1 36bd 180c 813d
00000090: ceb9 0b3d 1204 4d3d 2703 193e d8b5 563d
000000a0: 1613 c43c 9964 c4bd 64eb 78bc c346 1f3c
000000b0: e55e bcbd b8c7 1dbc fe16 303d 4760 ec3c
000000c0: a15c 8e3d 331a 8c3d 6b2c eb3d 2869 48bd
000000d0: c357 173d 6250 c83d b540 39bc 72c8 57bc
000000e0: 4bc5 29bd 0cd6 b9bc a23c 123d e8a5 20bd
000000f0: 08fa 9ebd 4175 813d 8f8a 08bd 882a c53d
00000100: a1d9 d4bd bb0f 3bbd 4654 b2bc 6711 093d
00000110: 27a5 e7bd 3d29 d43d 78b9 48bd 8d49 cd3d
00000120: e951 d23b 9413 bc3d 25b2 c03d 2ff3 193d
00000130: 1301 e1bd fe7f 0f3d d717 853c 437e f6bd
00000140: afa0 e8bc c9be 7dbd 457e d23d 1ace 84bc
00000150: 1ee3 d5bd 60c7 d3bd 7f2a 70bd 720a 863a
00000160: 41d9 553d 4e08 9cbd 5ca6 01be c9bb f0bd
00000170: f011 b9bd 4476 a83d 68c0 4cbc 6fe1 903c
00000180: 13bb 8ebd 111d 4cbd f1a6 debd d4af ba3c
00000190: 2711 88bc a3ca dd3d 24a0 efbb 77e6 8fbd
000001a0: 8255 223b 9a04 ff3c 8658 793d 455d 843d
000001b0: 3a65 e53d c30f 543d 63a4 07bc 656e b9bc
000001c0: 8e9e bfbd cae0 9abd cc2c 633d b1b9 1bbd
000001d0: 0ded ad3c 9b81 133d 50ae c0bd 9909 7dbd
000001e0: 4e4b 653d 7165 e1bc 4892 a6bc 5779 f13c
000001f0: e85e a5bc c556 8fbd 1b4a dcbd 0ec3 9a3d
00000200: 9848 773d e1c4 ba3c 7ac7 cd3d a914 5d3d
00000210: 12b4 91bd c02c 9a3d 05c7 8dbd 7bed 133d
00000220: f1f7 98bd 4747 1cbd 4ce8 93bd 9583 b33c
00000230: a5a2 bebc b237 183d f024 33bc f378 ec3c
00000240: 19cd c13d b74c 083e 1174 4dbd 2489 793d
00000250: 9fea a7bd 4e71 bebd 948e e63d 7e7b 32bb
00000260: c273 2d3d 0420 6d3c 42e3 8bbd cc9a f73b
00000270: 0559 d33d 40c9 b1bd 0cd0 f9bd 082b d7bc
00000280: 74c7 a23d f7cd 863d fd39 c7bd b330 c7bd
00000290: 7f09 0ebd 5873 24bd e390 f93d 99f2 8dbc
000002a0: fc38 8abc db01 d8bd 2a77 5bbd f178 e73d
000002b0: 5652 84bd a2a1 80bd 8a3a b23d 87bc 373d
000002c0: 82ef 87ba 323c 8b3d cb2d 90bd 2c71 063b
000002d0: c949 bd3c 32a4 4dbd 5590 c6bb c917 e33c
000002e0: 8ed4 0a3d 0513 79bd 67d5 643d 1ecd c5bc
000002f0: bc0e a8ba 773d e43b 5654 393d ea24 723d
00000300: 2070 b5bd 7b0c b93d b319 bdbd 9e60 573d
00000310: af14 27bc c62d f93b 7b41 45bc d2d9 743c
00000320: bd55 033e 9ab5 8d3b 5591 bfbd bd63 a73d
00000330: eb52 a7bd 306b 8b3d 3e8d 043d 990e cabd
00000340: 4459 b33d 6d00 aa3d 8f39 df3d a99b 9fbd
00000350: f0bf b1bd 1b00 38bc 8056 2a3d 31b8 c73d
00000360: 136f 673d d8bd 5e3d 7c6a 4dbd cdff bb3c
00000370: 6b9f 9d3d d666 433c 183d 073e 6b1e 123d
00000380: a157 233e ece7 89bc 8927 003d 8afe c73d
00000390: d5e4 8b3c 9160 64bd 073c 05bd 8f94 b1bc
000003a0: 98fb 3abc 2fab d1bc d78f 0fbb 72ab f1bd
000003b0: 022f 2a3d 9b34 13bc 8b45 64bd 7b56 7bbd
000003c0: cf3b c0bd 5fb3 82bd 897f a33d 9fa6 b0bd
000003d0: 71a6 5f3c 6008 2e3d 420e 9f3d 88e3 8a3d
000003e0: 2d88 bf3c 7393 033e 73eb 69bd 04e9 053e
000003f0: 2ca4 0e3d 521a 3cbb 27d0 95bd 99b3 8d3d

rnn.bias_hh_l0 f4 [256]
-0.015617161 0.069040656 -0.089642145 0.08324648 -0.04953267 0.006169953 0.05741482 -0.08283041
-0.06980965 0.06944906 -0.08733356 0.032366063 0.02354846 0.088142976 -0.0024467718 0.1158561
0.06349648 0.039339695 -0.11397474 -0.06355941 -0.06820183 0.034358386 -0.10378773 0.074614696
-0.0032853698 0.047266398 -0.10733772 0.01659365 -0.021773454 0.013801218 -0.012403161 0.02128059
-0.0695147 -0.021580976 -0.09944506 0.030656882 0.064581074 -0.058708474 0.063159935 0.07653693
-0.08260263 -0.0013413274 -0.012945684 -0.019161794 0.024842193 -0.11326938 -0.02048224 -0.07768915
0.1267519 0.048302505 0.015475849 0.10420852 0.05131356 0.048669223 0.09956533 0.11562723
0.041222338 -0.09028066 0.04477592 0.17207845 0.05806518 -0.09656408 -0.094429694 -0.022396665
-0.023029465 -0.10028317 -0.00022201784 0.0071054255 0.08267816 -0.00063125486 0.104312755 0.027876835
-0.039280076 -0.026817359 -0.096588336 -0.124491714 0.015006902 0.018123914 -0.04807611 0.045201465
-0.10553102 0.06624903 -0.028407289 0.049975928 -0.119429484 -0.10719235 -0.11468806 -0.03366861
0.036790222 -0.123259485 -0.05885352 -0.029646527 -0.08770895 -0.01839676 -0.049586937 0.107961856
0.02318692 -0.08666746 0.111155115 0.040236697 -0.08775024 -0.072694875 0.045587935 0.039297063
0.00013617435 0.08077033 0.05576574 0.10404744 0.060353976 0.065644294 -0.08402735 0.11374345
-0.052274495 0.06566008 0.021950066 -0.04890566 0.029084766 0.006383278 0.08923441 0.019904483
0.09951191 -0.028226152 0.008049323 0.007408028 -0.01659055 0.11324968 -0.0624703 -0.011814206
0.024512656 0.089133576 -0.025285512 0.06544452 -0.07483777 0.060395796 0.09459298 0.031341236
-0.02728325 0.09842116 0.06424106 0.094631426 0.029316537 -0.12625563 -0.0016793486 0.0047249217
-0.026556654 -0.08977286 -0.11211798 -0.06375566 -0.06655259 0.077593714 0.10989407 -0.079145156
0.05925114 -0.121829994 -0.04068983 -0.035939552 0.0002882539 -0.123380944 0.04475468 -0.01024177
-0.11092151 0.11726746 0.08830819 0.12728636 -0.016389064 0.020254074 -0.052700274 0.08303753
-0.014458442 -0.027454836 0.071755424 0.08906638 0.07823868 0.11145651 -0.03197298 -0.03852372
-0.06444035 -0.092163116 -0.09980034 0.04441165 0.05243487 0.082699515 0.091993555 -0.013658786
-0.10086171 0.07295008 -0.07942071 -0.15320136 0.0739607 -0.12806538 -0.11106668 0.09061218
0.09979895 -0.073877014 -0.07117594 0.111517884 -0.018812612 0.09717499 0.016370192 0.04683681
0.029518234 0.08097737 0.13535872 -0.027444482 -0.013162212 -0.055541698 0.10350698 -0.075175084
-0.0073901103 -0.09677198 0.014804567 -0.003067019 0.00950586 0.12358077 0.11736549 -0.09890806
-0.06897767 0.022232627 -0.1261335 0.1010819 0.035977658 0.05166431 0.12884331 0.05452811
0.17393954 -0.04902275 0.06870791 0.1112729 0.035688438 -0.06576964 0.06910488 -0.093653016
0.037085455 0.089055054 0.032658927 -0.10533711 0.14094593 0.07101565 -0.0743331 -0.11727932
0.11178192 0.10214249 0.0909624 0.0017111604 -0.029592732 -0.10199028 -0.0074638226 -0.03799995
-0.07089584 -0.09062592 -0.03236156 -0.064199574 0.109262586 -0.048337206 -0.036008332 0.12299447
00000000: 1fdf 7fbc 3065 8d3d 4d96 b7bd 217d aa3d
00000010: c5e2 4abd 512d ca3b cd2b 6b3d fda2 a9bd
00000020: 5df8 8ebd 4f3b 8e3d f0db b2bd 4792 043d
00000030: b3e8 c03c 4e84 b43d 055a 20bb f745 ed3d
00000040: 710a 823d a922 213d 976b e9bd 702b 82bd
00000050: 67ad 8bbd 61bb 0c3d a98e d4bd 97cf 983d
00000060: 5c4f 57bb 699a 413d e1d3 dbbd 68ef 873c
00000070: 3e5e b2bc 811e 623c a136 4bbc a254 ae3c
00000080: b95d 8ebd 96ca b0bc daa9 cbbd 2424 fb3c
00000090: 1543 843d 4c78 70bd ff59 813d 65bf 9c3d
000000a0: 912b a9bd 7bcf afba 221a 54bc 32f9 9cbc
000000b0: db81 cb3c c7f9 e7bd 5fca a7bc 7d1b 9fbd
000000c0: 40cb 013e d9d8 453d 6a8e 7d3c 476b d53d
000000d0: 2b2e 523d 6159 473d e8e8 cb3d f8cd ec3d
000000e0: c1d8 283d 11e5 b8bd f566 373d 5535 303e
000000f0: c1d5 6d3d 63c3 c5bd 5b64 c1bd 3679 b7bc
00000100: 4aa8 bcbc 4361 cdbd 76cd 68b9 a1d4 e83b
00000110: 2b53 a93d cc7a 25ba eda1 d53d f65d e43c
00000120: 25e4 20bd 14b0 dbbc 1bd0 c5bd 83f5 febd
00000130: 82df 753c 9a78 943c 75eb 44bd 2c25 393d
00000140: a620 d8bd 92ad 873d 67b6 e8bc 8fb3 4c3d
00000150: 7297 f4bd aa87 dbbd 93e1 eabd 19e8 09bd
00000160: 58b1 163d 786f fcbd 6310 71bd 46dd f2bc
00000170: c0a0 b3bd cdb4 96bc ac1b 4bbd 1b1b dd3d
00000180: 7ff2 bd3c b67e b1bd 4ba5 e33d 3ccf 243d
00000190: 66b6 b3bd 0de1 94bd 6aba 3a3d f5f5 203d
000001a0: 06ca 0e39 ea6a a53d 9e6a 643d d316 d53d
000001b0: bb35 773d 8470 863d 8816 acbd 53f2 e83d
000001c0: c81d 56bd cb78 863d a0d0 b33c 4d51 48bd
000001d0: 2d43 ee3c d12a d13b 88c0 b63d ba0e a33c
000001e0: e6cc cb3d 883a e7bc 4fe1 033c 0bbf f23b
000001f0: e8e8 87bc 73ef e73d dbe0 7fbd 5f90 41bc
00000200: c4ce c83c aa8b b63d 9023 cfbc c707 863d
00000210: 8b44 99bd 9561 773d f7b9 c13d ab5f 003d
00000220: 1f81 dfbc 0891 c93d d190 833d 1fce c13d
00000230: 3c29 f03c 2849 01be 971d dcba 84d3 9a3b
00000240: 578d d9bc d5da b7bd 1d9e e5bd 5492 82bd
00000250: b94c 88bd 74e9 9e3d 2410 e13d db16 a2bd
00000260: 53b1 723d 0182 f9bd 61aa 26bd 5a35 13bd
00000270: c920 9739 26af fcbd af50 373d 19cd 27bc
00000280: d12a e3bd ec29 f03d edda b43d 5b57 023e
00000290: 5c42 86bc dfeb a53c 3edc 57bd 950f aa3d
000002a0: 1ae3 6cbc f7e8 e0bc 82f4 923d 6f68 b63d
000002b0: 9a3b a03d 5043 e43d 19f6 02bd 0ccb 1dbd
000002c0: 4df9 83bd 04c0 bcbd 1f64 ccbd fee8 353d
000002d0: f2c5 563d 5d5e a93d 1e67 bc3d 1ac9 5fbc
000002e0: 9690 cebd da66 953d 53a7 a2bd d1e0 1cbe
000002f0: b578 973d 9223 03be ed76 e3bd e192 b93d
00000300: 6463 cc3d d54c 97bd b1c4 91bd 7d63 e43d
00000310: e81c 9abc ae03 c73d c81a 863c f4d7 3f3d
00000320: 39d0 f13c 77d7 a53d 7a9b 0a3e 40d3 e0bc
00000330: 52a6 57bc b17f 63bd 78fb d33d 65f5 99bd
00000340: bd28 f2bb 6330 c6bd db8e 723c 0a00 49bb
00000350: 77be 1b3c ea17 fd3d 515d f03d 4f90 cabd
00000360: 2a44 8dbd 3321 b63c 2429 01be 0704 cf3d
00000370: 4f5d 133d f59d 533d 80ef 033e de58 5f3d
00000380: 351d 323e 14cc 48bd bcb6 8c3d 0ce3 e33d
00000390: 0a2e 123d 3cb2 86bd dc86 8d3d 27cd bfbd
000003a0: ebe6 173d 7f62 b63d 5ec5 053d fcba d7bd
000003b0: 2154 103e a770 913d f43b 98bd 2430 f0bd
000003c0: ebed e43d 1530 d13d 7f4a ba3d 0449 e03a
000003d0: 756c f2bc 48e0 d0bd 1593 f4bb d6a5 1bbd
000003e0: d731 91bd 159a b9bd 8e8d 04bd 117b 83bd
000003f0: 10c5 df3d 3cfd 45bd 797d 13bd 86e4 fb3d

rnn.weight_ih_l0_reverse f4 [256, 81]
0.039939664 0.11857083 0.097156584 0.08277408 -0.016129233 0.018044401 0.08770919 0.12713017
0.10011893 0.0783502 -0.00711067 0.13237067 0.11408816 0.098092064 -0.06328961 0.035876404
-0.06656947 0.114515804 0.097474605 0.123376936 0.114384316 0.045628123 0.01692429 -0.05399255
0.029907042 0.085958235 -0.032097332 -0.030734682 0.075077064 -0.061311238 -0.05043664 -0.080607615
-0.042812504 0.12343063 0.02093411 -0.0110582225 0.046169747 0.03194163 0.043409772 -0.028854657
0.0020919386 0.11190861 -0.07279778 -0.116048336 -0.060975295 -0.096725725 0.04795742 0.07175208
-0.07241895 0.022242866 -0.0040082154 0.028342342 0.004936169 0.031458814 0.09508471 -0.039783355
-0.00741634 -0.10771206 -0.028175509 -0.01532888 -0.06100079 -0.06533026 0.049366098 -0.09122699
-0.08745566 -0.09812696 0.07856999 -0.079387575 0.033261962 -0.034980327 0.11127601 0.0056283944
0.05893743 -0.008990047 0.08495186 0.040295687 0.08345547 0.037289523 -0.05181849 0.06008523
-0.037128683 0.13239105 0.05577323 0.045800544 0.13248979 0.11010992 0.0875026 -0.049051322
0.14678448 -0.0683348 0.10512845 -0.05617486 0.119184636 -0.014205648 0.03870312 0.077805415
-0.02519434 -0.11794378 0.12154765 -0.05385182 -0.05550524 -0.043059092 -0.062027045 0.02494926
0.04019757 0.039688475 0.106435314 0.12694341 -0.043880217 0.052312907 0.07511384 -0.095571876
-0.048466716 0.08870989 -0.046238594 0.06507755 -0.03814976 0.040507298 0.06704724 0.11185905
-0.0023125142 -0.01229248 -0.029439772 -0.06705525 -0.10158463 0.09865705 -0.0781628 -0.02913094
0.07851109 -0.022522861 -0.101264596 -0.082107924 -0.06803918 0.0026171906 0.114180274 0.009117798
-0.07645544 0.06687816 -0.025413012 0.10423195 0.1277261 0.06378914 0.12121038 -0.053775452
0.09138734 0.046005804 -0.041658375 0.13287759 0.058551226 0.09535604 0.10523556 -0.061194256
0.027685875 0.10160677 0.03953885 -0.080075376 0.017233271 0.068973154 -0.014909035 0.04402395
-0.018623905 -0.08662232 0.06522604 0.103724256 -0.032567944 0.06083253 0.113837965 -0.08604264
0.039830286 -0.09788433 0.072167754 -0.060059194 0.025904723 0.09779659 -0.105483785 0.09326557
-0.037919942 0.12598176 0.004875955 0.088241965 -0.07068756 0.08118301 -0.030322408 -0.077932015
0.10226723 -0.054100137 -0.09345178 0.0022101603 0.09387804 0.1075346 0.0012876462 0.10492322
0.09371744 0.07850626 0.0021529882 0.086144656 -0.029079404 -0.097896546 0.13492654 0.12914833
0.10941117 -0.10240901 -0.02438736 0.12519187 0.043442424 0.043802086 -0.063066445 0.024545463
0.021531884 -0.07436123 0.1543534 -0.00035261805 0.07786799 -0.09260725 0.037308943 -0.071071856
-0.040035892 0.055730376 0.062081564 0.043122783 0.11194044 -0.07030606 -0.029386166 0.029610809
-0.07104443 0.06260698 0.011371773 -0.051234227 0.07278704 0.09822217 0.062240478 -0.02788474
-0.105353326 0.07697239 0.060624994 0.04321525 0.08440262 -0.045450404 -0.07214715 -0.10535509
0.08522014 -0.09797064 -0.0813117 -0.0398536 0.07314958 0.039180696 -0.041125804 0.10764087
-0.11353625 -0.030976571 0.08671473 -0.08200652 0.07404576 0.046923477 -0.054832827 0.053191397
00000000: c697 233d 43d5 f23d 08fa c63d 7585 a93d
00000010: 7421 84bc dad1 933c e0a0 b33d 692e 023e
00000020: 270b cd3d 1276 a03d a000 e9bb 2d8c 073e
00000030: 0ea7 e93d 7ee4 c83d fc9d 81bd 23f3 123d
00000040: 9355 88bd 4387 ea3d c4a0 c73d 0cad fc3d
00000050: 5342 ea3d 8ee4 3a3d cfa4 8a3c 4b27 5dbd
00000060: 9dff f43c df0a b03d 7e78 03bd 4dc7 fbbc
00000070: 01c2 993d 7e21 7bbd a696 4ebd 9b15 a5bd
00000080: 2a5c 2fbd 33c9 fc3d 037e ab3c 8c2d 35bc
00000090: 7d1c 3d3d 3ad5 023d 72ce 313d 9a60 ecbc
000000a0: e818 093b 5730 e53d 0117 95bd c0aa edbd
000000b0: 3bc1 79bd 2318 c6bd 006f 443d c1f2 923d
000000c0: 6350 94bd ac36 b63c 5957 83bb 332e e83c
000000d0: 96bf a13b f5da 003d c6bb c23d dff3 22bd
000000e0: c504 f3bb 2498 dcbd 53d0 e6bc fc25 7bbc
000000f0: f7db 79bd dfcb 85bd 1b34 4a3d 37d5 babd
00000100: f41b b3bd caf6 c8bd 4ee9 a03d f495 a2bd
00000110: b23d 083d 8847 0fbd ade4 e33d 656e b83b
00000120: 6068 713d fd4a 13bc 3efb ad3d 170d 253d
00000130: b4ea aa3d e6bc 183d a03f 54bd ee1b 763d
00000140: 3f14 18bd 8591 073e 7872 643d 5a99 3b3d
00000150: 67ab 073e 4f81 e13d 9034 b33d 0aea 48bd
00000160: ac4e 163e 1ef3 8bbd 964d d73d 9c17 66bd
00000170: 1317 f43d cebe 68bc 2a87 1e3d 7258 9f3d
00000180: 5c64 cebc 828c f1bd f9ed f83d ba93 5cbd
00000190: 7659 63bd bb5e 30bd 1210 7ebd 6462 cc3c
000001a0: 35a6 243d 6290 223d c2fa d93d 74fd 013e
000001b0: bebb 33bd 0f46 563d 49d5 993d 30bb c3bd
000001c0: 0985 46bd 88ad b53d ae64 3dbd 6147 853d
000001d0: ec42 1cbd fbea 253d 1050 893d 5c16 e53d
000001e0: 8d8d 17bb 6666 49bc ad2b f1bc 4354 89bd
000001f0: 9a0b d0bd b50c ca3d d113 a0bd 02a4 eebc
00000200: 6cca a03d dd81 b8bc d063 cfbd 3328 a8bd
00000210: 2058 8bbd 2c85 2b3b 59d7 e93d d162 153c
00000220: ab94 9cbd 6bf7 883d f32e d0bc 9077 d53d
00000230: a1ca 023e e1a3 823d 263d f83d a643 5cbd
00000240: 4929 bb3d 9570 3c3d f9a1 2abd 1011 083e
00000250: 69d3 6f3d 074a c33d be85 d73d d4a6 7abd
00000260: 7dcd e23c 3617 d03d 7df3 213d 8ffe a3bd
00000270: ca2c 8d3c cc41 8d3d 0645 74bc 7552 343d
00000280: 2991 98bc 0b67 b1bd 3b95 853d 626d d43d
00000290: f765 05bd 882b 793d e123 e93d 2037 b0bd
000002a0: 1525 233d 9477 c8bd b0cc 933d a100 76bd
000002b0: 2436 d43c 9449 c83d e207 d8bd 0502 bf3d
000002c0: f151 1bbd 5d01 013e 7ac6 9f3b 34b8 b43d
000002d0: a4c4 90bd 4743 a63d b366 f8bc d29a 9fbd
000002e0: 7b71 d13d 1b98 5dbd a663 bfbd 56d8 103b
000002f0: 2143 c03d 1a3b dc3d 3dc6 a83a fce1 d63d
00000300: eeee bf3d e4c7 a03d 2619 0d3b 9c6c b03d
00000310: ee37 eebc fc7d c8bd 2f2a 0a3e 763f 043e
00000320: f712 e03d d1bb d1bd 00c8 c7bc 4c32 003e
00000330: aff0 313d d169 333d fb28 81bd 9113 c93c
00000340: a263 b03c b34a 98bd d10e 1e3e 98df b8b9
00000350: 4179 9f3d dfa8 bdbd 43d1 183d 1f8e 91bd
00000360: adfc 23bd 8945 643d 3d49 7e3d 84a1 303d
00000370: 0841 e53d a0fc 8fbd 42bb f0bc 5e92 f23c
00000380: be7f 91bd 1738 803d ac50 3a3c fbda 51bd
00000390: 5f11 953d b428 c93d dfef 7e3d 8a6e e4bc
000003a0: 7cc3 d7bd b3a3 9d3d ea51 783d 7902 313d
000003b0: 48db ac3d 342a 3abd e3c1 93bd 69c4 d7bd
000003c0: e687 ae3d d5a4 c8bd c086 a6bd 873d 23bd
000003d0: 72cf 953d f07b 203d 8873 28bd d172 dc3d
000003e0: b285 e8bd 94c2 fdbc 7e97 b13d 09f3 a7bd
000003f0: 4ea5 973d d532 403d 6398 60bd 39df 593d

rnn.weight_hh_l0_reverse f4 [256, 64]
-0.022878643 0.108203284 -0.006527054 0.0018849539 -0.075920776 -0.06785424 0.029219314 0.07143676
0.047333587 -0.04494746 0.023605732 0.027469445 -0.080600634 -0.017542347 0.019145323 0.05314669
-0.010959357 0.026362207 0.037750956 0.048642874 0.049732145 0.040186502 -0.029337097 0.09411259
-0.04467692 -0.049815487 0.10662415 0.10754727 0.079104416 -0.11420693 0.046492632 -0.051273946
0.052068178 -0.08136537 0.052171543 0.079958156 0.02129949 -0.0086625125 -0.08267758 -0.081181504
-0.11424937 -0.11130136 -0.002130326 0.14594886 0.04250196 0.04374805 -0.024286801 0.0652023
-0.13791154 0.08201789 0.080828786 -0.08089895 -0.016426507 -0.08177371 -0.119157284 -0.10889815
0.080987655 0.01910838 -0.010836519 0.0109747015 0.060295273 -0.004757703 -0.003925865 0.035965767
-0.074080355 0.05856272 -0.06289433 -0.044214867 -0.10910293 -0.05359818 0.009355245 0.09327955
-0.06374469 0.03329579 -0.10179632 0.108640864 -0.00069543294 0.06637035 -0.03989856 0.071603216
-0.064555034 0.012744819 0.032068435 -0.12525523 -0.13324675 0.04609594 0.02773581 -0.038823966
-0.11650475 -0.09600951 0.0463394 -0.05830323 0.027840333 -0.11688885 0.10981142 0.09164418
-0.076422945 0.11320467 0.068222165 0.0925426 -0.028724512 0.13399787 -0.046375874 -0.07813309
-0.09331844 0.012027587 0.064737044 0.118058175 -0.07870432 0.10256482 0.109017104 -0.089425474
0.069200434 0.03775605 -0.024374219 0.0077734576 0.06887191 -0.08762636 -0.11515315 0.037820052
-0.107518554 0.07981371 0.047392134 0.0056141918 0.120270215 -0.025829783 0.02471598 -0.023030132
0.07101252 0.01120861 -0.016395874 0.04814225 0.017283894 0.083045445 -0.0751154 0.013584216
0.011522971 0.029476717 -0.013111363 -0.03437678 0.034089092 0.037023146 0.081353605 0.01977793
-0.011771524 -0.0077301525 0.08063925 0.050069984 -0.04044945 0.0391017 0.005732405 -0.0061958013
0.0777327 0.08814338 0.022890406 0.1085076 -0.019283568 0.025731742 -0.079559065 -0.11243928
0.11269794 0.09157852 -0.017834514 -0.0061396575 0.03770575 0.07245873 0.061277095 -0.0014215914
-0.12597239 -0.039180066 -0.08857203 -0.019102506 -0.059885774 -0.0051129856 -0.051341627 -0.048365466
-0.040881105 -0.039210398 -0.09867369 -0.12286948 0.011434243 -0.02122774 -0.006757838 0.11424768
-0.06655806 -0.073334016 -0.045373272 0.10675676 -0.05075089 0.022919971 0.073966175 -0.0036186196
0.089339554 0.14280206 -0.08944806 -0.09026526 -0.019084422 -0.098844886 -0.06364616 -0.072360225
0.051210083 0.031750754 0.014959664 -0.12282717 0.07223302 -0.028291628 -0.087411635 0.046831734
0.09855693 0.0473058 -0.056565106 -0.1141363 -0.063815475 -0.020280631 0.07849398 0.103749424
-0.15315664 -0.04322702 0.066589594 0.010959304 -0.08348409 0.02862966 0.0946714 -0.06021345
0.06568826 0.11366035 0.03318798 0.044181447 -0.03547625 -0.0577014 -0.04985402 -0.034910936
0.03271628 -0.09855745 0.13491732 0.0038728118 0.17508446 -0.029625075 -0.09939528 0.11809993
0.032879345 -0.098414704 -0.08046786 -0.052301634 -0.09137161 -0.1512341 -0.012882697 0.005186834
0.015769279 0.07686788 -0.048849124 -0.09061176 0.13024947 0.017596442 -0.023549773 -0.10633172
00000000: fe6b bbbc af99 dd3d e6e0 d5bb 8f10 f73a
00000010: 5a7c 9bbd 2af7 8abd 585d ef3c 704d 923d
00000020: dde0 413d d41a 38bd cf60 c13c 9a07 e13c
00000030: f211 a5bd f8b4 8fbc a7d6 9c3c 58b0 593d
00000040: e08e 33bc 8ef5 d73c bfa0 1a3d c03d 473d
00000050: efb3 4b3d 9a9a 243d 5a54 f0bc 1abe c03d
00000060: 25ff 36bd 530b 4cbd c35d da3d be41 dc3d
00000070: 7f01 a23d 53e5 e9bd 0f6f 3e3d a104 52bd
00000080: 7145 553d e3a2 a6bd d4b1 553d 1ac1 a33d
00000090: 457c ae3c 36ed 0dbc dd52 a9bd 7d42 a6bd
000000a0: 93fb e9bd f8f1 e3bd f09c 0bbb 9e73 153e
000000b0: 8916 2e3d 2831 333d 1df5 c6bc c988 853d
000000c0: af38 0dbe fff8 a73d 9089 a53d 59ae a5bd
000000d0: e290 86bc fa78 a7bd bc08 f4bd fe05 dfbd
000000e0: dbdc a53d 2d89 9c3c a88b 31bc 3ccf 333c
000000f0: 2df8 763d 81e6 9bbb 8ba4 80bb d750 133d
00000100: 71b7 97bd 76df 6f3d bece 80bd a61a 35bd
00000110: 5b71 dfbd c489 5bbd be46 193c 5909 bf3d
00000120: 938c 82bd 2b61 083d 977a d0bd 1a7f de3d
00000130: b74d 36ba 2eed 873d ac6c 23bd b5a4 923d
00000140: 6e35 84bd a5cf 503c 315a 033d e842 00be
00000150: d671 08be 19cf 3c3d 3636 e33c e105 1fbd
00000160: 0b9a eebd a2a0 c4bd 62ce 3d3d 5ecf 6ebd
00000170: 6911 e43c 6c63 efbd cfe4 e03d f2af bb3d
00000180: a283 9cbd dad7 e73d 10b8 8b3d fa86 bd3d
00000190: ab4f ebbc bd36 093e a1f4 3dbd 3e04 a0bd
000001a0: bd1d bfbd 5b0f 453c db94 843d 7cc8 f13d
000001b0: bb2f a1bd 810d d23d 5c44 df3d b424 b7bd
000001c0: f5b8 8d3d 16a6 1a3d 71ac c7bc 7db8 fe3b
000001d0: b70c 8d3d 7375 b3bd 6ad5 ebbd 33e9 1a3d
000001e0: b032 dcbd 5f75 a33d 411e 423d 41f7 b73b
000001f0: 3b50 f63d fb98 d3bc 2b79 ca3c b0a9 bcbc
00000200: 036f 913d 51a4 373c a450 86bc cf30 453d
00000210: f496 8d3c bb13 aa3d 1ad6 99bd 5590 5e3c
00000220: d8ca 3c3c 2879 f13c 0bd1 56bc abce 0cbd
00000230: 01a1 0b3d 95a5 173d b89c a63d 5305 a23c
00000240: 5add 40bc 384d fdbb 3126 a53d 2f16 4d3d
00000250: 53ae 25bd 1b29 203d e6d6 bb3b 2606 cbbb
00000260: 5232 9f3d 8484 b43d a984 bb3c 3c39 de3d
00000270: 93f8 9dbc 60cb d23c ddef a2bd 9146 e6bd
00000280: 2dce e63d 858d bb3d b019 92bc 2e2f c9bb
00000290: 5871 1a3d 3e65 943d b1fd 7a3d b154 baba
000002a0: e8fe 00be 477b 20bd 4165 b5bd dc7c 9cbc
000002b0: c94a 75bd d58a a7bb 994b 52bd de1a 46bd
000002c0: f272 27bd 159b 20bd 6e15 cabd fea2 fbbd
000002d0: b156 3b3c cce5 adbc db70 ddbb b0fa e93d
000002e0: 984f 88bd 2530 96bd 53d9 39bd 4aa3 da3d
000002f0: 2ae0 4fbd aac2 bb3c 947b 973d 5d26 6dbb
00000300: a8f7 b63d b43a 123e 8b30 b7bd fedc b8bd
00000310: ef56 9cbc 306f cabd eb58 82bd 9931 94bd
00000320: aac1 513d 140d 023d 6119 753c d08c fbbd
00000330: e8ee 933d d8c3 e7bc df04 b3bd a2d2 3f3d
00000340: 37d8 c93d bac3 413d d0b0 67bd 4bc0 e9bd
00000350: b0b1 82bd 9123 a6bc 74c1 a03d 947a d43d
00000360: 18d5 1cbe d10e 31bd 2060 883d a78e 333c
00000370: b5f9 aabd c088 ea3c 14e3 c13d 61a2 76bd
00000380: 9187 863d c2c6 e83d 1ff0 073d 9bf7 343d
00000390: 8b4f 11bd 4e58 6cbd bb33 4cbd c5fe 0ebd
000003a0: 8201 063d 7dd8 c9bd c427 0a3e 00cf 7d3b
000003b0: 5749 333e 49b0 f2bc c18f cbbd 60de f13d
000003c0: 7eac 063d a68d c9bd 55cc a4bd 3d3a 56bd
000003d0: 0a21 bbbd 1ddd 1abe f311 53bc 51f6 a93b
000003e0: 932e 813c e86c 9d3d 0516 48bd a992 b9bd
000003f0: 1e60 053e 6a26 903c 74eb c0bc 72c4 d9bd

rnn.bias_ih_l0_reverse f4 [256]
-0.040537443 0.023121918 -0.076591685 -0.034884587 0.13685687 0.12992908 0.032187983 -0.009350507
0.10611991 -0.023712873 -0.02797972 0.050313238 0.04616255 0.1256916 -0.10325036 0.0225772
-0.04499791 -0.0102142785 -0.07632316 -0.058657505 0.015433149 -0.04689182 0.06731639 0.083238654
0.1089542 -0.008105562 -0.007072579 -0.08778071 0.055337403 0.09819662 0.15443958 -0.091171585
-0.028181711 0.07293292 0.005973669 0.06422801 0.123137474 0.12986642 0.123385414 -0.08720217
0.012701911 0.009290678 0.066366725 0.060382307 0.0665753 0.030206421 0.06209739 0.059277475
0.14633758 -0.08356048 0.1103475 0.0012917204 -0.068096295 0.11146606 0.002105183 -0.052383497
-0.06257615 -0.021618865 0.011322311 -0.01828665 -0.08930048 0.12892854 0.021849914 -0.07130315
-0.09939131 0.031377077 0.09854051 -0.07125592 0.123456895 -0.038452696 -0.07558006 0.08963399
-0.06817204 0.010308628 0.094688766 -0.03283187 -0.070076115 -0.09394592 0.117672116 0.027439253
0.05610923 -0.013169683 0.07267063 0.07486738 0.024122067 0.07582694 0.010428443 0.12406381
0.0061734538 0.05656012 0.12569119 -0.1095555 0.1303456 -0.0025736114 0.115054585 -0.042363912
-0.044216294 0.047500152 0.021321204 0.12111703 0.12330245 0.0057187537 0.0790218 0.0459604
0.042763233 -0.1159635 -0.08788658 0.15275908 0.10912294 0.13374802 -0.008070245 0.050374392
0.080374695 0.040105645 0.066754855 0.080744 -0.07577637 -0.052004684 -0.09101331 0.036445025
0.07876738 -0.04272293 0.07261506 -0.055286437 -0.0064595714 0.137258 -0.035746466 -0.08094615
0.11544103 0.06301473 0.013491795 -0.040499676 -0.07581609 -0.07341554 0.09787278 -0.06447643
0.09565759 -0.11893705 0.081242114 -0.0948969 0.073769234 -0.027871838 -0.04737072 0.014388936
0.07880658 -0.09891896 -0.08815369 -0.02692479 0.092093416 -0.11134129 0.12979126 -0.0039915466
0.059964105 -0.09230591 0.04989588 -0.041726187 -0.1220382 0.07807281 0.035065793 -0.08728803
-0.08451736 0.082132936 0.030888079 -0.06354198 0.0318982 0.08164763 0.12734793 0.09640954
-0.047606863 0.1002215 -0.07436796 -0.12342531 0.10107689 0.095742404 -0.11398286 0.039478738
0.02580335 0.10092121 0.1267485 -0.08226412 0.011773851 0.0647464 0.070599586 -0.027628034
0.08255277 0.11826196 0.012169262 0.006553276 -0.05673663 0.08393989 -0.047589198 0.03527943
0.0011812784 -0.1084174 0.052327197 -0.03085317 0.05552028 -0.042432714 0.067119576 0.009297776
-0.09029227 -0.067894556 -0.12610379 -0.01505446 -0.04345412 -0.07944401 0.060620368 -0.090626694
-0.0997166 0.09874976 -0.0041958326 -0.024630385 -0.074405 0.048635714 -0.011239444 -0.018682793
-0.08029543 0.028553471 -0.00010732206 -0.037477944 -0.09243938 0.07093381 -0.09450773 -0.042911906
0.042509414 -0.055586062 0.049706813 -0.09073295 -0.0125266565 0.096119 0.12169765 -0.040523235
0.0036947865 -0.07508369 0.1266717 -0.038560037 0.004635312 0.041841272 -0.11922306 0.081958465
0.09340454 -0.10688269 -0.024928553 0.11307381 -0.04869311 -0.10322806 0.061436173 -0.08495758
-0.024769675 -0.040749963 0.05413642 0.010425066 -0.08097429 -0.075121306 0.12000349 -0.10239702
00000000: 970a 26bd 2d6a bd3c 1adc 9cbd 24e3 0ebd
00000010: 3524 0c3e 210c 053e 8cd7 033d de32 19bc
00000020: 6555 d93d 8041 c2bc ba35 e5bc 4115 4e3d
00000030: f114 3d3d 4cb5 003e ed74 d3bd d2f3 b83c
00000040: ba4f 38bd ca59 27bc 514f 9cbd da42 70bd
00000050: 52db 7c3c a311 40bd 2ddd 893d 0779 aa3d
00000060: 6123 df3d 31cd 04bc 18c1 e7bb 5fc6 b3bd
00000070: 79a9 623d 4f1b c93d 6925 1e3e 2bb8 babd
00000080: 55dd e6bc db5d 953d c4be c33b fa89 833d
00000090: 802f fc3d b4fb 043e 7eb1 fc3d 0d97 b2bd
000000a0: ad1b 503c ee37 183c 47eb 873d 7053 773d
000000b0: a258 883d 7573 f73c d559 7e3d f0cc 723d
000000c0: 85d9 153e c221 abbd dffd e13d f24e a93a
000000d0: 1276 8bbd 5148 e43d 1cf7 093b 1490 56bd
000000e0: ed27 80bd 0c1a b1bc 3781 393c e2cd 95bc
000000f0: 2ce3 b6bd d805 043e 97fe b23c 6307 92bd
00000100: ac8d cbbd 4085 003d 9bcf c93d a0ee 91bd
00000110: f8d6 fc3d 9380 1dbd b8c9 9abd 0692 b73d
00000120: c89d 8bbd 85e5 283c 2fec c13d b67a 06bd
00000130: 1184 8fbd b866 c0bd 14fe f03d 49c8 e03c
00000140: cbd2 653d a7c5 57bc 57d4 943d 1254 993d
00000150: a49b c53c 284b 9b3d 0fdc 2a3c 2b15 fe3d
00000160: af4a ca3b 96ab 673d 31b5 003e a25e e0bd
00000170: 5179 053e 09aa 28bb bda1 eb3d c885 2dbd
00000180: 251c 35bd 858f 423d cea9 ae3c 350c f83d
00000190: ff85 fc3d 6264 bb3b 2ed6 a13d f940 3c3d
000001a0: 8028 2f3d 467e edbd e1fd b3bd e06c 1c3e
000001b0: d97b df3d 3ef5 083e 1039 04bc 6155 4e3d
000001c0: 7d9b a43d d145 243d c5b6 883d 1c5d a53d
000001d0: a430 9bbd dd02 55bd 3065 babd 6147 153d
000001e0: cb50 a13d 3dfe 2ebd 34b7 943d 0874 62bd
000001f0: d0aa d3bb 5c8d 0c3e e36a 12bd 18c7 a5bd
00000200: 596c ec3d de0d 813d b10c 5d3c fde2 25bd
00000210: 7745 9bbd e35a 96bd 8671 c83d 380c 84bd
00000220: 20e8 c33d 4595 f3bd 4462 a63d 4e59 c2bd
00000230: 5314 973d 7b53 e4bc cd07 42bd 92bf 6b3c
00000240: 5865 a13d 0696 cabd ec89 b4bd 6191 dcbc
00000250: 799b bc3d e706 e4bd 00e8 043e 85cb 82bb
00000260: ec9c 753d e20a bdbd 9f5f 4c3d 14e9 2abd
00000270: 2aef f9bd a3e4 9f3d 26a1 0f3d 11c4 b2bd
00000280: 7017 adbd 5035 a83d ff08 fd3c 4c22 82bd
00000290: b0a7 023d df36 a73d 7f67 023e 5d72 c53d
000002a0: 6aff 42bd ee40 cd3d 3b4e 98bd 69c6 fcbd
000002b0: 6701 cf3d 9814 c43d d96f e9bd 75b4 213d
000002c0: 8c61 d33c c8af ce3d 5cca 013e 177a a8bd
000002d0: 1ce7 403c c399 843d 8496 903d 3054 e2bc
000002e0: 6d11 a93d 5433 f23d 9661 473c ddbc d63b
000002f0: ab64 68bd ade8 ab3d e4ec 42bd 2a81 103d
00000300: 20d5 9a3a f109 debd 0b55 563d cabf fcbc
00000310: 3c69 633d edcd 2dbd fd75 893d b355 183c
00000320: 27eb b8bd 4d0c 8bbd 5a21 01be fba6 76bc
00000330: f3fc 31bd 8bb3 a2bd 104d 783d 7d9a b9bd
00000340: 3738 ccbd 503d ca3d 327d 89bb a9c5 c9bc
00000350: a661 98bd 3e36 473d a525 38bc a80c 99bc
00000360: ee71 a4bd f8e8 e93c 1812 e1b8 7982 19bd
00000370: dc50 bdbd bf45 913d 458d c1bd 65c4 2fbd
00000380: 5a1e 2e3d 36ae 63bd 5f99 4b3d 32d2 b9bd
00000390: 9b3c 4dbc 0ada c43d 9e3c f93d b1fb 25bd
000003a0: 3b24 723b 7ac5 99bd 3ab6 013e 21f1 1dbd
000003b0: d1e3 973b c161 2b3d 382b f4bd d7d9 a73d
000003c0: e14a bf3d 50e5 dabd f736 ccbc 3e93 e73d
000003d0: 6d72 47bd 3c69 d3bd 7fa4 7b3d 3dfe adbd
000003e0: c6e9 cabc 6fe9 26bd 27be 5d3d e5cd 2a3c
000003f0: d9d5 a5bd 33d9 99bd 64c4 f53d 87b5 d1bd
