ckpt/rnn_with_attn_reg.pt (torch, 376211 bytes, 21 tensors)

rnn.weight_ih_l0 f4 [64, 81]
00000000: 026a e23c 664c fdbd 7c09 8ebd 996d 8c3c
00000010: 2d81 ca3d 6f30 fe3d 0c1a 2c3d af87 80bd
00000020: ea84 a5bd ad58 5fbd 6364 58bc 9062 56bd
00000030: 0ac6 ea3d 889d 233d d64a 7cbd 7970 e43d
00000040: 697a 4a3b b3b6 de3c e9b3 b1bd b82b acbd
00000050: 07d6 153d 4a6e b9bd f614 33bd b5ee b13d
00000060: cd53 523d 56d3 07bd 33f2 d83d 3fa5 b93c
00000070: c735 8ebd 996b 063d f107 75bd aa70 3dbd
00000080: 5a30 ee3d 50fa 503d 97b4 6f3c 9cd9 ddbd
00000090: a00c eabc e4b5 e23c 7508 e83d e9dc bc3d
000000a0: 9df6 d73d 3f3f e83d 4460 663d 4454 083d
000000b0: 4a71 a3bd d20f a63d 856e 5cbd 20aa b5bd
000000c0: 904a 1fbd 52a5 edbd 896d 863c 9f06 68bd
000000d0: da8f c53c 24a4 da3c ab22 5b3d 5ad3 3e3d
000000e0: 687e f4bd 9ca6 f63c 13f8 d13d 53d7 eabd
000000f0: 5ffc e0bd 4369 e13c 0ae9 813c badb d9bb
00000100: 8c54 84bd c239 e5bd 8d67 c73b cc5b 8f3d
00000110: bc98 98bc b4fa f5bb 33e5 ae3d 1a10 ea3d
00000120: 301e f8bd 4735 74bd ff60 3bbd c77c fb3d
00000130: 1b0e f3bd 876d bebd 8133 b23d 1d4c babd
00000140: 971a 5abc 9dd6 9bbd 1d0e 4cbd a410 b8bd
00000150: 19b1 9dbd ab06 ca3d aa8f 3bbd c48b 403d
00000160: 25f3 c93d de26 b93d b08c c13b 3cac 903b
00000170: 3fc7 cebd c1b2 71bd c82f 023d b3dc 85bd
00000180: ef46 6e3d 00be 783c 13b3 92bd fce4 1cbd
00000190: bf4e 9fbd 72bb 8cbd f23c dcbd 01b0 a4bd
000001a0: e2bd 473d c861 b7bc 335d bcbd 769a 9a3d
000001b0: 6d2f 33bd 4115 c23c 3b3a bc3d 894d a0bd
000001c0: 1248 76bc b53a 023b 9a71 01be ce57 153d
000001d0: 776e f83d 35a1 f83d 2175 a5bd 99ed 57bd
000001e0: 3f93 a53d 37ed f13c 4afe 493c 25a0 52bd
000001f0: 9eb7 ecbd 267e c33d 10a6 023e d061 a8bd
00000200: d01e a8bd 70f2 d6bd ea4f d3bd d1eb 983d
00000210: 9e54 e33c a120 843c a76c adbd 7846 a4bd
00000220: 55f1 543d 835c d5bd 23e8 763d d2e2 453a
00000230: e25f 013e 78e8 22bd 18ee ae3d 28ad b13d
00000240: c529 aabd a745 d1bd 6c28 e83d 786f 9d3c
00000250: c0b0 803c d4ad 5abd dcf7 03bc be0c 6c3d
00000260: 48f6 263d e8bb 983d baf5 bcbd 8d29 2bbd
00000270: 3dc8 5a3d ad2b 1bbd 392c 5d3b a0c6 c33c
00000280: c9b8 e9bb 5a39 5f3d 4279 063d ed25 c6bd
00000290: 188a cbbd 682e a13d 6231 a5bd 74b7 e0bd
000002a0: f327 90bd 2f75 f4bd b9ea 0cbc dcb9 933d
000002b0: b2b0 7fbd b3a9 9abc c667 fe3d 3237 e9bd
000002c0: 2e73 9fbc 9f67 dd3d d46d efbd 0c37 61bd
000002d0: 229f bd3d bb21 07bd db9e d5bd 98ec d43d
000002e0: 4758 d33d bc3e e73d 01b0 dbbd f3f6 41bd
000002f0: 83c2 a1bd e79f 9abc cda0 84bd e9ca 50bd
00000300: b523 7dbc 89c3 39bc 4c02 ef3c 3452 3ebd
00000310: 405e db3d a092 d83b f715 a0bb 4023 cb3d
00000320: bdf1 d8bc 3bd9 86bd 65a3 cbbd 5ffb 82bc
00000330: cfb7 41bd ce9e bcbd 918d 2fbd 0b67 4f3d
00000340: 6514 49bd f777 033d 090d 94bc 73b2 963d
00000350: 1cc3 deba 1ac0 7b3d 4742 a9bc b335 923d
00000360: 161f 13bd b2cd b4bd 4cdc 543d 69f8 f33d
00000370: fa9c e53d ec9a f73d c400 073d c793 793d
00000380: 51ce 03bd 6b20 b9bc 1a7e a0bd 3013 bfbc
00000390: dae7 82bd 06ba 65bd be29 dbbd 9526 95bd
000003a0: dd12 cbbd aece bd3d 7597 e4bd 8f85 233d
000003b0: 9023 b8bc 5f9e cf3c 1fab 1f3d 3333 c13b
000003c0: b85e 47bc 8fea 94bd bade 483d 5eb3 8e3d
000003d0: fa4a c23d ae92 8e3c ad0e 873c 6956 27bd
000003e0: 7178 223d c019 d23d 9b70 bbbd 33ca 9fbd
000003f0: d99f 853d 22e5 dcbd 82ce 37bd d338 5cbc
0.02763844 -0.123680875 -0.06935403 0.017142104 0.098879196 0.12411582 0.042017028 -0.062758796
-0.08081992 -0.054527927 -0.013207528 -0.05234009 0.11463554 0.039945155 -0.061594807 0.11154265
0.0030895716 0.027186727 -0.08676893 -0.08406776 0.036581066 -0.09054239 -0.04372116 0.08688108
0.05134945 -0.03316053 0.10593071 0.022661803 -0.06943851 0.032817457 -0.059822027 -0.046250023
0.11630316 0.051019967 0.014630458 -0.10832521 -0.028570473 0.027674623 0.11329738 0.09221823
0.105450846 0.11340188 0.05624415 0.033283487 -0.079805925 0.08108486 -0.053816337 -0.088703394
-0.038889468 -0.11603798 0.016409652 -0.05664694 0.024116445 0.026689596 0.05349986 0.04658828
-0.119381726 0.030108742 0.102523945 -0.11466851 -0.10985636 0.027516013 0.015858192 -0.006648508
-0.064614385 -0.11192657 0.0060853423 0.06999931 -0.018627517 -0.007506693 0.0853981 0.114288524
-0.12115133 -0.05962112 -0.0457468 0.12279659 -0.11867925 -0.092982344 0.0870123 -0.09096549
-0.013312004 -0.076092936 -0.049818147 -0.08987549 -0.07699794 0.09864553 -0.045791306 0.04700829
0.09860829 0.090406165 0.005906664 0.004415063 -0.10096597 -0.059008364 0.03178385 -0.06536236
0.058173116 0.015182018 -0.07163062 -0.038304314 -0.077786915 -0.0687169 -0.10753812 -0.080413826
0.04876507 -0.022385493 -0.09197464 0.07548992 -0.0437464 0.023691775 0.09190794 -0.07827289
-0.015031831 0.0019871418 -0.12640992 0.03646069 0.121304445 0.12140123 -0.08078981 -0.052716825
0.080847256 0.029532058 0.012328694 -0.051422257 -0.1155846 0.09545545 0.1275866 -0.08221781
-0.08209002 -0.1049546 -0.10317977 0.074668534 0.02775031 0.01612884 -0.084679894 -0.08021253
0.051987965 -0.10418036 0.060279977 0.00075487525 0.12634233 -0.03977248 0.085415065 0.08675605
-0.08308748 -0.10218363 0.11335835 0.019218192 0.015709281 -0.05338843 -0.0080547 0.05762934
0.040762216 0.07457715 -0.09226556 -0.041787673 0.05341362 -0.03788345 0.0033748283 0.023898423
-0.007132624 0.054498054 0.032830484 -0.096752025 -0.09938449 0.078701794 -0.0806606 -0.10972491
-0.0703887 -0.119364135 -0.008600884 0.07213184 -0.06242437 -0.018879747 0.12422137 -0.11387481
-0.019464102 0.1081078 -0.1169087 -0.054984137 0.09258868 -0.032991152 -0.1043069 0.10396689
0.10319572 0.112912625 -0.107269295 -0.04735465 -0.07898428 -0.018875076 -0.06475983 -0.05097476
-0.015450408 -0.011338123 0.0291759 -0.046465114 0.10711336 0.006609276 -0.004885431 0.09918833
-0.026482457 -0.06584402 -0.099432744 -0.015989004 -0.047294434 -0.09209977 -0.042859618 0.05063538
-0.049091715 0.03209683 -0.018072622 0.07358255 -0.0016995403 0.0614625 -0.020661486 0.071391486
-0.035918318 -0.08828296 0.051967904 0.11912615 0.112115815 0.12090096 0.032959715 0.060931947
-0.03217918 -0.022598466 -0.07836552 -0.023324579 -0.063918784 -0.05608561 -0.10701321 -0.072827496
-0.09915707 0.09267937 -0.11161701 0.039922293 -0.022477895 0.025344072 0.038981553 0.005895996
-0.012168579 -0.07271301 0.049040534 0.06967805 0.09486957 0.017403927 0.01648649 -0.04085389
0.039665643 0.10258818 -0.09152337 -0.07802238 0.06524629 -0.10785891 -0.044874676 -0.013441282

rnn.weight_hh_l0 f4 [64, 64]
00000000: ff4d 51bc 8aa7 64bd cfde 12bd 1a36 2a3d
00000010: c8d9 8c3c f3fd 02bc 5cee 05bc 1dde c63d
00000020: ed72 273d ffd0 9abc 659e babd a829 3ebd
00000030: 00be f23d 16b3 76bd 4c64 58bd 3123 f2bd
00000040: 1c0b fabd 0517 fbbd 58e4 0c3d 74e7 553d
00000050: 2f8b 99bd b1e8 3c3d dce7 2fbd b568 a9bd
00000060: b3a3 71bd 2426 b63d 96e4 ff3d ae2d abbd
00000070: eada 0a3c c2ca 73bd d0f3 f93c 9a3a 84bd
00000080: 70ca 05be 884c 193d 060b 93bc 3a45 f93a
00000090: bcea edba 7323 b63d bdb7 79bd b7ac dd3d
000000a0: a9a6 adbc ae71 293d 0e55 b4bd 38c5 983d
000000b0: 44f6 b0ba 33f0 ef3d 368f db3d 669e e93d
000000c0: 0899 a73d 92e1 643d 2245 d83d 4803 813c
000000d0: 8255 9c3d 0fc4 bcbd 2c5c c1bc b65b 91bd
000000e0: 9972 bbbd bed1 d83c 1b7f e7bd 5527 bfbd
000000f0: c0c0 e8bd ed2f bc3d d5e3 fa3d 39c6 b0bb
00000100: 244e eb3d 0d3d 7e3d 19c8 ca3b 0acc d53d
00000110: 1369 b1bc cf2f cbbd ef6c 923d a4b3 b0bd
00000120: 00e3 da3d 87ff 8c3c e0bd c6bc 32e8 b6bd
00000130: 64cc f33d 4a60 00be 06c6 e23d 5b32 193d
00000140: d153 21bc 61a4 a9b9 79fe 413d 2e93 9cbd
00000150: 7a1f 253d 9417 9f3d 8c1f ffbc 57e3 63bd
00000160: 3cfc a8bc 6242 13bd ae4b e6bd a966 143d
00000170: 45b5 66bd 491c 69bd 9edd cfbd eba0 8b3c
00000180: 0cc2 c03d 14eb a03d c2cb 933d a581 003e
00000190: f59f 91bd 8fd2 bd3d e5d7 fbbd 5fc2 28bd
000001a0: dde6 adbd f472 54bd 0b83 45bd d2f5 bd3d
000001b0: da9f e23d ca74 5dbd d7de c33d e286 8bbd
000001c0: b516 cc3c 82ea 08bb a7e7 18bd 4da2 703c
000001d0: 3f01 f7bc c602 ecbc 9422 463d 1611 bb3d
000001e0: 690e 82bd e5db b6bc 0b06 c0bd bd34 f23d
000001f0: 714a 503d a337 2fbc a03e ed3d fafd 2bbc
00000200: bbee 7cbc de37 7f3c f816 aabd 84e9 ffbc
00000210: a38b 7cbd d884 443d a79e 49bd 775f 4f3d
00000220: a89d 38bc afd1 bcbc 526e f7bd aa81 bebc
00000230: 327f c4bc 5d20 993d edea 553d 65d7 d73d
00000240: 9814 b13d 3f31 d53c 5e15 fabd 9337 4cbd
00000250: 414b b6bd 0bf8 103e 10b6 593d 7a8b df3d
00000260: f64c bd3b 7475 76bd 4f70 b0bd 826b 02bd
00000270: da79 52bc 10f3 443d de54 c93d 369f c9bd
00000280: a81e 89bd 6593 523d d0c8 813d 257a f4bc
00000290: 5575 f03c 3df5 233d 25a6 f1bd 5b3d 1a3d
000002a0: 5f70 5f3d 8a22 da3b acd3 c53c 50b9 f33d
000002b0: dd4b 413d 92cc cebd 0c8e ecbd c4fc 163d
000002c0: cd9d a1bd 9b34 eb3c 76a4 ac3d d63b a83d
000002d0: 6376 ac3d 75d3 81bd a816 49bd 61c8 553d
000002e0: 9e02 82bd 3952 263d 5ce5 a3bd 46e9 7c3d
000002f0: 59b1 ae3d 7127 55bd a25f c9bd 5ac4 d8bc
00000300: 7ac7 4f3d 555a 82bc 14c6 01be 8d5c 62bd
00000310: 0cb0 b6bd fc62 9c3d 996a 433d 976c 56bd
00000320: adeb 8b3d 47e3 dfbd d0fc 263d 8517 583d
00000330: dd53 64bd e25f a33c aaa6 953d d6ed f43c
00000340: c5c7 85bd 7feb c83d 1328 d7bc 02d2 02bd
00000350: 7005 cabc 91a9 813c 3aef b9bd ddc3 033b
00000360: 5c62 37bd 4d38 43bc a0c1 b6bb 91e7 b7bd
00000370: de33 9b3c 7327 e1bd ae99 b63d 251d c4bd
00000380: 729a 68bd 804b 2b3d 0ee0 be3d 9b49 23bd
00000390: 4519 a3bb d3f5 97bb a049 8fbd 12d7 e63d
000003a0: 1610 bebb fc18 083c 08a7 f33d 666b 753d
000003b0: a613 d13c 0d0f 403d 46ce 10bd 4248 92bd
000003c0: 9711 9e3d c682 4e3d 39c4 b5bd 5406 f3bd
000003d0: db97 063a 12e5 b73d 9c4c 57bc db85 1f3c
000003e0: 3644 30bc 9d82 d7bd 2b6b 063d c042 f13b
000003f0: 241f ffbd b0b0 58bd a18f 57bc 2d9f db3d
-0.012774943 -0.05582384 -0.035857018 0.0415555 0.01719369 -0.0079951165 -0.008174505 0.097103335
0.040881086 -0.018898485 -0.091122426 -0.046426445 0.11852646 -0.060229383 -0.052830026 -0.118231185
-0.1220915 -0.1226025 0.034397453 0.052222684 -0.0749725 0.04612035 -0.042945728 -0.082719244
-0.058994006 0.088939935 0.12494771 -0.08358322 0.008475045 -0.059519537 0.030511767 -0.0645649
-0.13065505 0.0374265 -0.017949592 0.0019017824 -0.0018151621 0.0889348 -0.060966242 0.10823958
-0.021197634 0.04136818 -0.088052854 0.074594915 -0.0013501127 0.11715736 0.10720675 0.11407165
0.08183485 0.055879183 0.10560061 0.015748635 0.07633497 -0.09217083 -0.023603521 -0.070975706
-0.09152717 0.0264672 -0.1130354 -0.09333674 -0.11364889 0.091888286 0.12250487 -0.0053947237
0.114895135 0.06206994 0.0061884043 0.10439308 -0.021656549 -0.09921228 0.07149684 -0.08628014
0.10687828 0.017211689 -0.024260461 -0.089310065 0.11904219 -0.12536731 0.11072926 0.03740154
-0.009846644 -0.00032356664 0.047361825 -0.0764526 0.04031322 0.07768169 -0.031142972 -0.05563673
-0.020628087 -0.03595198 -0.112449035 0.036230717 -0.056325216 -0.05691174 -0.10149692 0.017044505
0.094120115 0.078573376 0.07216598 0.12549455 -0.071105875 0.092686765 -0.12297038 -0.04120099
-0.08491299 -0.05186744 -0.048220675 0.09275402 0.110656455 -0.054066457 0.09563988 -0.06812836
0.024913171 -0.002089173 -0.037330296 0.014687133 -0.030151961 -0.028809916 0.04837282 0.09134118
-0.06350405 -0.02232165 -0.093761526 0.11826465 0.050852243 -0.010694417 0.115842104 -0.010497564
-0.015437777 0.015577285 -0.08305162 -0.031239279 -0.061656605 0.047978252 -0.04922357 0.05062815
-0.011268057 -0.023049204 -0.12081589 -0.023255188 -0.023986433 0.07476876 0.052225996 0.1053913
0.08646506 0.026024459 -0.12211107 -0.049857687 -0.08901072 0.14157121 0.053152144 0.10915275
0.0057769967 -0.060170606 -0.08615171 -0.03184081 -0.0128464345 0.048083365 0.0983064 -0.0984482
-0.066953 0.051410098 0.0633713 -0.0298434 0.029352823 0.0400288 -0.11799268 0.03765617
0.054550525 0.0066569494 0.024148785 0.1190058 0.04719149 -0.100976124 -0.11550531 0.03686215
-0.07891426 0.028711608 0.08429806 0.08214538 0.08421018 -0.0633916 -0.049093872 0.05219305
-0.063481554 0.040605757 -0.08002731 0.061745904 0.0852992 -0.052039567 -0.09832694 -0.026460815
0.050727345 -0.015912214 -0.12673217 -0.055264045 -0.08920297 0.07636067 0.04770908 -0.052349653
0.06832061 -0.109320216 0.040768445 0.052756805 -0.05574404 0.019943181 0.07307179 0.029898565
-0.06532244 0.09810542 -0.026264226 -0.03193856 -0.024660796 0.015827926 -0.09078832 0.0020105757
-0.044771537 -0.011915279 -0.005577281 -0.08979715 0.01894563 -0.109938525 0.08916031 -0.095758714
-0.056787916 0.04182005 0.09320079 -0.039865118 -0.0049773776 -0.004637459 -0.06996465 0.1127149
-0.0058002574 0.008306738 0.11897093 0.059916876 0.025522064 0.046889354 -0.035352968 -0.07142688
0.07718199 0.050417684 -0.08875317 -0.11866441 0.00051343226 0.089792386 -0.013140824 0.0097365035
-0.01075845 -0.105229594 0.032817047 0.0073626935 -0.124571115 -0.052902877 -0.013156802 0.1072372

rnn.bias_ih_l0 f4 [64]
00000000: f484 8e3d 91da 943d cae8 93bd a51d 263c
00000010: e767 ca3b 8b31 233d 36f9 f83d fcff e83d
00000020: b444 91bd d7cf 833d 8cfb 6b3d 3d4f 873d
00000030: 63d1 1fbd 4056 bebd 3bc5 f7bc d49c 4d3c
00000040: a1d6 3c3d ab14 3d3d 97a4 adbd 12e7 91bd
00000050: 8582 b23d cd3e e7bc ad99 f7bc 8722 1cbd
00000060: 77b9 8a3d 06ca d1bd 16f8 833d fbfd 8d3d
00000070: 637c c3bc 937e e33d c3d2 de3d b32e cabd
00000080: c0c1 d33d 6f48 823d e2b7 773d 6c8b 453d
00000090: 11f7 95bd 489d 953d 0f9a 12bd 1967 b6bd
000000a0: 64bc c7bd 5ea5 21bd 48e5 f8bd 77c8 b5bd
000000b0: e401 993d 173d 0c3d f9eb 90bd 1af0 d33b
000000c0: 69ef 7f3d 964e d9bd e86f 99bc 4db5 313d
000000d0: 514c 9a3d 593a f8bd 7018 db3d 9768 32bd
000000e0: 0c8a 113d da0e 2abd a32b fc3d 949b fb3d
000000f0: 6661 29bd bf3b 763d 7302 97bd 8769 abbd
0.069589525 0.07268251 -0.07222135 0.010138904 0.006176937 0.03984217 0.12156908 0.1137695
-0.07093182 0.06436127 0.05761294 0.066069104 -0.039018046 -0.09293795 -0.030245414 0.012549598
0.046103124 0.04616229 -0.08478659 -0.07124151 0.08716301 -0.028228188 -0.030224646 -0.038118865
0.06773656 -0.10243611 0.06443803 0.069332086 -0.023863023 0.111081265 0.10880043 -0.098721884
0.10339689 0.06361472 0.0604781 0.048228666 -0.07322515 0.0730539 -0.035791453 -0.08906383
-0.097527295 -0.039464347 -0.12153107 -0.08876126 0.07471064 0.034237947 -0.07076258 0.0064678313
0.06248418 -0.10610692 -0.018730119 0.043385793 0.075340874 -0.12120504 0.106980205 -0.043556776
0.035532042 -0.04151807 0.123130105 0.122855335 -0.041352652 0.060115572 -0.07373514 -0.08369737

rnn.bias_hh_l0 f4 [64]
00000000: 46ce f5bd 4b9f d0bb 9faf 29bd 388a e5bd
00000010: 516d 103d 796a 8b3d 81ab 9e3d eadc e23d
00000020: d306 ccbd 9dea a9bd 413f 863c d178 91bd
00000030: 09fd 4d3c bea1 ed3c 5a75 23bd abe9 64bc
00000040: 8bc3 09bc f4fb 93bc 958f f13c f827 e8bd
00000050: 05b3 163d 6302 02bd c52e 0d3d eda5 f33a
00000060: eed7 a8bd 87ba 9dbd 8662 cebc 01e2 c33d
00000070: cdab 7bbd 0506 97bc b6fe 00be 2edb 013e
00000080: 70d5 6bbd d604 44bd 81d5 10bc f7fa d5bd
00000090: 51e7 8c3d 02b6 983d abe5 dd3d 6b18 d23d
000000a0: 4a04 7bbd 7619 97bd 2ee2 c8bd dc62 603d
000000b0: c684 9fbd 39cc 3dbd 6d30 bcbc e537 a43c
000000c0: f3b9 93bc 4c95 b0bd 92ad da3d a1c4 babd
000000d0: 6623 04be 9e0e 62bd c611 39bd 3608 d13d
000000e0: 945b 82bc 28ce 89bd e82c 0a3c f0fd f3bd
000000f0: 9146 843d a6ca 833d 8f05 f8bd c57b f13d
-0.12002234 -0.0063666455 -0.04142725 -0.11208004 0.035260502 0.068074174 0.077475555 0.11077292
-0.09962239 -0.08296702 0.016387584 -0.07103122 0.012572535 0.029007789 -0.039906837 -0.013971726
-0.0084084375 -0.018064477 0.02948741 -0.113357484 0.03679182 -0.031740557 0.03446843 0.0018588878
-0.0824431 -0.07701593 -0.025193464 0.09564591 -0.06144314 -0.018435488 -0.12597165 0.12681267
-0.057576597 -0.047856174 -0.008839966 -0.10448258 0.068800576 0.0745659 0.10834821 0.102585636
-0.061283387 -0.07377903 -0.09808765 0.05478178 -0.077889964 -0.04633734 -0.02297231 0.020046184
-0.018033003 -0.08622226 0.10677637 -0.09119535 -0.12904128 -0.05518972 -0.045182966 0.10206644
-0.015912808 -0.06728774 0.008433558 -0.11913669 0.06458772 0.064351365 -0.12110435 0.11791185

rnn.weight_ih_l0_reverse f4 [64, 81]
00000000: 6392 753d d230 523d f7fd d53d 8b04 ccbb
00000010: 6e50 54bc bd2a cabd be72 efbd 9368 e43d
00000020: 7e89 c33c 1068 a63b 9982 73bd e127 8b3d
00000030: 67bd df3d 5c17 f5bd 90ae 953c a064 a93d
00000040: d8ec 4ebc e365 9a3b 1603 c9bc 507c a6bc
00000050: a7a6 ac3d f9f5 343d 47cf 563d 708d 7e3b
00000060: 62be dc3d 02e2 823b 9ca4 ce3d 3cda 1bbd
00000070: e27f f73d aff2 f0bd 062b e93d 0230 71bd
00000080: dfc4 0a3e 94cf 933c 6a8a 16bd 735f b93d
00000090: 0850 ddbd cd0d 773b e47d cdbd be14 873d
000000a0: 4040 cdbb 8482 c23d c2be 84bd 1254 99bd
000000b0: 38be 3a3d 42e1 f43d 304b 2fbd 0607 7b3d
000000c0: b7d1 473d 2d83 b13d dcc4 53bd 278d b9bd
000000d0: e104 37bd ce69 ab3d 1eb1 8abd 10cf c0bc
000000e0: 9b39 c13d ee10 0dbc 610a 8c3a 287d 843d
000000f0: 85fd da3d 5bcd 553d 7144 343d 2cbb 57bd
00000100: 9305 85bd 4631 273d d407 03bc bade aebd
00000110: 169c 923d c8df 25bd fd6e bdbc 651c 4d3d
00000120: bb57 d9bd c720 6a3b ec46 f1bc 3c0e 3abd
00000130: 09b4 69bd 1599 79bd f701 943d 57e1 3c3d
00000140: 8bd5 3ebd dadd cdbd 8fb0 1abd d2a1 b63d
00000150: 2e7b c63d 4a34 3dbd d74b c8bd a96a e2bc
00000160: 2d58 2ebc 4595 b23d 5927 e3bd 4bb7 02be
00000170: 0772 aa3d 7f50 873c 793e 4a3b 525d 53bd
00000180: c0d0 113d 87ce d3bd 5275 32bd d726 843d
00000190: 4d82 cabd adf1 f0bd 8838 013d 0ab7 343c
000001a0: 6fe0 e03d f2ab b93d aaf1 eb3d cb9d 1dbd
000001b0: d325 ebbd 6d5c b0bd de88 7b3d 3ebc 48bd
000001c0: 5f3b c3bd 7be8 65bd f460 77bd 14a5 e4bd
000001d0: c545 b6bd 6504 68bd 9d79 d93c ead0 2d3d
000001e0: f9b4 e1bc 76a6 4f3d f757 a3bd 399c d2bb
000001f0: 094a 00be 163c c23d 25c9 abbd 3966 95bd
00000200: 894a 31bd a26f d1bd 9693 b6bd 9059 fd3d
00000210: 22da 583d 44d6 86bd 0e6c fa3d 3627 8a3d
00000220: 9624 e33d 80f1 4bbd ef47 c9bd 51ba a63d
00000230: e926 a7bd 0429 923c 24c7 1cbc 2945 d33d
00000240: 6b04 80bd 14e8 cf3d c9c2 85bd 3352 80bd
00000250: 4ee3 7dbd eaf4 a83d f216 abbd 72b4 003c
00000260: 5f47 7cbd dd1b 8c3c 4c4b 9abd 21a1 d03d
00000270: e994 eaba 8942 213d a31c d03d 322e 913d
00000280: 073b adbc 1f34 013e 199f d53c 7918 343d
00000290: 875d ccbd 13f2 c63c aff8 cabd 8bd6 383c
000002a0: 97ad 433d 5bb6 6e3c c079 cfbd 8976 763d
000002b0: 8ba0 df3d 79a7 233d f3b2 fdbd 34e5 aa3d
000002c0: aa46 6d3c a3aa 8fbd 9c2d 683a bac6 40bd
000002d0: 0688 96bc f90e 523d 045f c3bb 2dc4 a3bd
000002e0: 3da0 0ebd 1de9 cc3d f235 133d 6138 4e3c
000002f0: b391 a8bd 454b e2bd aae8 613d 41d2 e1bd
00000300: 2c0f f93d 65ab ecbc bc91 183c 4cdd 66bb
00000310: 902f 3cbd d05e 1d3d e0b9 803d de21 dd3d
00000320: 735b d3bc c23f c23d 8021 1abc a175 86bd
00000330: 53c7 e43c 6ada 6abc 9cf6 8d3b 1612 793c
00000340: e9f4 f2bd bc7f 603d 7646 ad3d a99e 06bd
00000350: e470 293d f574 963d 3419 183d 925b 5b3d
00000360: 941a ccbd 6d07 323d dea0 6abd fa7b b03d
00000370: 5426 5c3c 917e c73c 92aa b5bd 920a 963c
00000380: bcd5 2d3d b332 d43d 27ef a73d 2daa 26bd
00000390: d533 c7bc eda2 b0bd 5728 96bd 158a 203c
000003a0: 2bda 2e3d 09d5 c43c efef 96bc 9ebd f53d
000003b0: 321b 0b3d 9047 f7bd 749d edbd 4847 0cbd
000003c0: d8d0 a7bd 4558 c03d f7a8 493d 598d b73b
000003d0: 2d4b f63d e89f c1bd dadb 86bd da76 5fbd
000003e0: 9364 103b bc92 ddbd abef 4d3d 9b74 e1bd
000003f0: 17a3 0bbb 382d 11bd d9a9 f1bc 0cda b7bc
0.05995406 0.05131609 0.104488306 -0.0062261275 -0.012958629 -0.09871433 -0.11691807 0.111527584
0.023869272 0.005078323 -0.05945072 0.06794716 0.109247975 -0.11967346 0.018271714 0.08271146
-0.01262971 0.004711853 -0.024537604 -0.020322949 0.08430224 0.04417989 0.05244377 0.0038841628
0.107785 0.0039942274 0.100899905 -0.03804992 0.120849386 -0.11765038 0.11385159 -0.058883674
0.13551663 0.018043317 -0.036753096 0.090514086 -0.108062804 0.0037697435 -0.10033777 0.06595753
-0.0062637627 0.0949755 -0.06481697 -0.07486738 0.045591563 0.11957027 -0.042796314 0.061285995
0.048783984 0.08667598 -0.05170141 -0.09060126 -0.044682387 0.0836979 -0.06772064 -0.023536235
0.094348155 -0.008609993 0.0010684245 0.06469184 0.10692886 0.052197795 0.044010583 -0.052668735
-0.06495204 0.040818475 -0.007997472 -0.085385755 0.07158677 -0.040496618 -0.023124212 0.050075907
-0.106124364 0.0035725103 -0.029452763 -0.04542373 -0.05705646 -0.060937006 0.07226937 0.04611334
-0.04659037 -0.100520805 -0.037766036 0.089175835 0.096914634 -0.046192445 -0.0978009 -0.02763875
-0.01064114 0.08719877 -0.11091489 -0.12765233 0.0832253 0.016517876 0.003085999 -0.05160267
0.03559947 -0.10342126 -0.043568917 0.064527206 -0.09888134 -0.11764846 0.031548053 0.011029968
0.10980307 0.09065999 0.11520703 -0.03848056 -0.11481824 -0.08611379 0.061409824 -0.049007647
-0.095328085 -0.056129914 -0.060395196 -0.11164299 -0.08900026 -0.056644816 0.026547248 0.042435564
-0.027552115 0.05069586 -0.07975762 -0.0064273146 -0.12528242 0.09484117 -0.08387975 -0.07294888
-0.043283973 -0.102263704 -0.089148685 0.12370598 0.052942403 -0.06583837 0.12227641 0.0674576
0.110909626 -0.04979086 -0.09828173 0.08141006 -0.081617184 0.017841823 -0.009568963 0.10315926
-0.06250843 0.10151687 -0.06531293 -0.06265678 -0.061984353 0.08249839 -0.08353986 0.0078555215
-0.061591502 0.01710313 -0.07533893 0.10186983 -0.0017897162 0.039370093 0.10161712 0.07088889
-0.02114631 0.12617539 0.02607684 0.04396865 -0.099787764 0.024285352 -0.09910714 0.01128162
0.04777297 0.014569844 -0.10130644 0.060171638 0.10919293 0.039954636 -0.123876475 0.08344498
0.01448218 -0.07014968 0.0008856894 -0.04706452 -0.018375408 0.05128381 -0.0059622545 -0.07996402
-0.034820784 0.100054 0.035940118 0.012586684 -0.08230915 -0.11049513 0.055153526 -0.11026431
0.12161097 -0.028890321 0.0093120895 -0.0035227118 -0.045943797 0.0384205 0.06285453 0.10797475
-0.025800442 0.09484817 -0.009407401 -0.06565405 0.027927076 -0.0143343005 0.0043323766 0.015202066
-0.11863119 0.054809317 0.08460705 -0.032866154 0.041367427 0.073465265 0.03713341 0.053554125
-0.09966007 0.043464113 -0.05728232 0.08617397 0.0134368725 0.024352344 -0.08870424 0.018315587
0.04244016 0.103612326 0.081999116 -0.040689636 -0.024316708 -0.086248256 -0.07331913 0.009798546
0.04268853 0.024027364 -0.018424956 0.11999057 0.033961482 -0.12074196 -0.116022974 -0.034247667
-0.08194131 0.09391836 0.049233403 0.0056015668 0.120260574 -0.09454328 -0.06584902 -0.054556705
0.0022032603 -0.10819003 0.050277393 -0.11008569 -0.0021306926 -0.035443515 -0.029499935 -0.02244284

rnn.weight_hh_l0_reverse f4 [64, 64]
00000000: 587b ad3d 8400 d9bd c6ee eabd 9a0e 4ebd
00000010: d244 e03d 4258 623d 86f1 6d3c 190e 8ebd
00000020: d79d 7d3a 028e ec3c bb3f 213d a9b9 083e
00000030: 0c29 9fbd f4ed bb3d fa7e e13c db9c 3f3d
00000040: 9272 06bd 0804 a2bc 45ab febc d0c2 9b3d
00000050: 67bf ca3d daf3 03be 746a 5d3b 9547 8c3d
00000060: b991 583d ac93 e2bd 48a0 5dbd 60ef 6abc
00000070: 1ce7 e23d c8b8 c5bd 9f31 45bc 8e76 d6bd
00000080: 41d1 50bc 4bcb dbbd 3456 cfbd d799 a9bd
00000090: b5e3 6f3d 216e de3d 2b81 db3d 76e9 56bd
000000a0: 2e48 4e3d 4cf3 4ebd 454b 8fbc 0b6c 41bd
000000b0: 9640 bcbd 128f 1bbd 9504 d8bd 94eb b83d
000000c0: 3e60 ec3d 3006 04be feef 04bd c76c 803d
000000d0: 8624 873c 16ce 8e3c 9727 a83d 4e20 7a3d
000000e0: 2321 dcbd 0573 b03c b2f9 e8bd 9298 d13d
000000f0: 90e1 fc3c b974 9ebc eab4 ba3b 470a 8ebd
00000100: ecbc 4e3d e6ff eebd b5c3 55bd a912 84bd
00000110: 7b54 c33c fe0e 433c f55a febd dd9c bbbc
00000120: 36e3 cfbb 05b9 8f3d 6a50 3639 6e72 91bd
00000130: fb75 033d e392 93bd 2012 dabb 2e0d a93d
00000140: 9f0b 72bd 0346 a93d 8613 333c 5d03 ec3d
00000150: b5b0 98bd ce4e bd3d dc3d 08be 4951 843c
00000160: 9624 e23d 9e55 ca3d 74d7 9cbd 9f00 adbd
00000170: 697d edbd 5746 e5bd a09d b23d b850 03bd
00000180: 2b2c b53d 5d40 24bd 53eb c13d 2dd8 f13d
00000190: 6bae 59bd 1983 c7bc 77bd fdbd b895 c13c
000001a0: ce47 dfbd 79c4 71bc a0fd b63d e732 653c
000001b0: 0e14 9ebd 0e23 3d3d 51e2 f5bd b00d 88bd
000001c0: e6fe 91bd 3085 d8bd e5fe 95bd be8c c8bd
000001d0: 52e3 ff3c 07a7 ddba 1cc4 88bd d727 033b
000001e0: 966e e9bb 137a 963c 1094 dbbd 99e7 1fbc
000001f0: 8182 1bbc 6fdf bd3d 90a9 ddbd d31f 15bd
00000200: 75ce 8dbc df51 e63d d958 a0bd eaf5 66bd
00000210: 91fb 3abd 345d 3d3c 6f83 4d3c 7de3 80bd
00000220: 877e fbbb 9e5b 9cbd 57db 773d 67bd e53d
00000230: 23dd 013e e88d 96bd 981f e53d 170f f93d
00000240: 9479 aa3d c88f 83bd 3c69 80bc 174e 85bc
00000250: 8bac 50bd a7a5 69bd 5a86 cabd 0bef b23d
00000260: 70d3 963d 83c7 e93d e9c7 073d 8cbd fe3d
00000270: 7768 623d cef1 ec3a d666 cd3d 52cd 633d
00000280: 7785 23bc 72c9 d9bc 43a6 a4bd 84c1 8c3c
00000290: b358 8abd d48b 37bc 78e1 59bd 19b2 e7bc
000002a0: 53bd 07be 94ca fb3d 7aee 63bd 156a a33d
000002b0: c5b8 2bbd 6974 c1bd 1695 6dbc ffa3 a23d
000002c0: 7331 e23d eaff 1b3d 9019 c3bd 57c4 5c3b
000002d0: 1ec4 ccbd 0ff9 26bd 48c6 be3d 1846 e93d
000002e0: dd7d 89bc 25f7 943a df19 dbbd b5ec b73d
000002f0: 1507 2d3d 6fc0 9abd 8d0d 8ebd b97d dbbd
00000300: db8e 28bd a96f 2dbd 3f5b ae3d 1de9 e43c
00000310: 6d29 cf3b 9024 8a3d 652e 79bd ffe8 bc3d
00000320: 8149 19bd 60c0 5d3d 8f6a babd 4510 ebbd
00000330: 5225 13bd c1c3 7a3d e3b3 92bd 35e8 e73d
00000340: 5567 d4bc 8f51 9c3c 6dc6 363c 755e 09bd
00000350: ecfd a03d b48e b23c c60c 4cbd c6a4 10bd
00000360: 1fb7 f8bd 35b2 e3bb 2a92 d8bd 0ac6 57bd
00000370: 3045 f73c 2a68 553d 68ed 41bd e941 0b3b
00000380: b01b 173d de64 29bc 41d4 ec3d c63c da3d
00000390: 2579 26bd 959c c0bd 2de4 9b3d ba44 0a3d
000003a0: 4334 fd3d ea06 653d e4bd 9b3d 24a1 38ba
000003b0: 5604 3e3d 4077 f9bc e102 d23d 52a4 d5bc
000003c0: d7eb 4bbd 05c9 6cbd 8260 c83d 3881 d5bd
000003d0: 6189 18bd 49e1 90bd 386c fcbd 2042 05be
000003e0: f03a 71bd 45f3 d23c b38f be3d 72c6 86bc
000003f0: 1c17 c4bd 91c5 3bbd 2898 593d 3ae7 3ebc
0.084707916 -0.105958015 -0.11471324 -0.050306894 0.109506264 0.05525995 0.014522916 -0.06936283
0.0009674704 0.028876308 0.03936742 0.13352074 -0.07771501 0.09176245 0.027526367 0.04678045
-0.032824107 -0.019777313 -0.031087527 0.07605517 0.09899788 -0.1288599 0.0033785375 0.06849591
0.052873347 -0.110633224 -0.054107934 -0.014339298 0.11079237 -0.09654385 -0.012035756 -0.10471831
-0.0127452025 -0.107321344 -0.10123864 -0.08281296 0.058566768 0.10860849 0.10717996 -0.05246874
0.050361805 -0.050524995 -0.017491946 -0.04722218 -0.09192006 -0.03797824 -0.10547749 0.09029308
0.11541794 -0.12892985 -0.032455437 0.06270748 0.016496908 0.017432254 0.08210676 0.061065964
-0.10748508 0.02153922 -0.113757506 0.102341786 0.030869275 -0.019342767 0.005697836 -0.06935554
0.05047314 -0.116699025 -0.052188594 -0.06448872 0.023843994 0.01190543 -0.124196924 -0.022901947
-0.0063442243 0.070177115 0.00017386829 -0.07101904 0.032094937 -0.07205751 -0.0066549927 0.08254467
-0.059093114 0.08265307 0.010929948 0.11524079 -0.07455579 0.092435464 -0.13304847 0.016152041
0.110421345 0.098796114 -0.07658282 -0.08447384 -0.11596186 -0.11195057 0.08721471 -0.0320594
0.08846315 -0.040100444 0.09468713 0.118088104 -0.053144854 -0.024354504 -0.12389653 0.023630962
-0.109023675 -0.014756315 0.08935094 0.013989187 -0.07718669 0.04617601 -0.12006057 -0.06643236
-0.07128696 -0.105722785 -0.07324008 -0.097924694 0.031236324 -0.001691074 -0.0667803 0.002001276
-0.0071237786 0.018368756 -0.107216 -0.009759807 -0.009491564 0.09271132 -0.10823357 -0.036407303
-0.01731036 0.112460844 -0.07829446 -0.056386866 -0.04565007 0.011557866 0.012543543 -0.0629339
-0.0076749953 -0.07634662 0.060511913 0.11217766 0.12682013 -0.07351285 0.11187667 0.12161081
0.083239704 -0.064239085 -0.01567518 -0.016272588 -0.0509458 -0.057042744 -0.09888907 0.08737
0.07364547 0.11415007 0.033149634 0.12438497 0.055275407 0.0018077435 0.1002938 0.05561573
-0.009980551 -0.026585314 -0.080395244 0.01718212 -0.06755199 -0.011202771 -0.05319354 -0.028283166
-0.13255815 0.12294498 -0.05564735 0.07979218 -0.041924257 -0.094460316 -0.014500877 0.07941436
0.11044588 0.038085856 -0.0952636 0.0033686364 -0.09998344 -0.040764865 0.09315163 0.113903224
-0.01678365 0.0011365159 -0.10698294 0.08980695 0.042243082 -0.07556235 -0.06936178 -0.10717339
-0.041151863 -0.042342816 0.085134976 0.027943188 0.006322077 0.06745255 -0.06083526 0.09224128
-0.037423614 0.05413854 -0.09102356 -0.114777125 -0.035924263 0.06122184 -0.07163217 0.11323587
-0.025928179 0.019081859 0.011155707 -0.033537347 0.07860932 0.021796562 -0.04981687 -0.03531339
-0.121443026 -0.006948734 -0.105747536 -0.0526791 0.030184358 0.05210129 -0.04734555 0.0021249002
0.03689164 -0.01033899 0.11563922 0.10656123 -0.040642876 -0.09404866 0.076118805 0.03375695
0.12363484 0.055914797 0.07604578 -0.0007043055 0.046390854 -0.03045237 0.10254455 -0.02607933
-0.04978546 -0.057808895 0.097840324 -0.10425037 -0.03724039 -0.0707422 -0.123253286 -0.13013506
-0.058894098 0.025750766 0.09304752 -0.016452048 -0.0957472 -0.04584271 0.053123623 -0.011651808

rnn.bias_ih_l0_reverse f4 [64]
00000000: 9cc6 9c3c 4162 91bb e714 98bd 91fd 063d
00000010: c958 a7bb 106b 05be ed39 b8bd 76b5 8c3d
00000020: 6f6d af3d 8161 093e 21e5 fabd 7275 8c3d
00000030: 6dd2 a0bd ec80 e13d c4ba f7bd 6a1c 4b3d
00000040: 3101 ae3d 3f99 dcbc f51a 9dbb c32e fbbd
00000050: 2a4c 6fbd c730 a7bd 70a0 a5bd 6aa3 9d3d
00000060: f4bd 31bd eb69 ea3d 768b f33d e45e e9bd
00000070: e4de a2bd f5d3 0abe 3ceb 8c3d 4a10 3aba
00000080: 2d37 403d e7b8 063e 986e 633d d0fe e33c
00000090: c92c d63b 201a 873b c25e 39bd 61a0 a4bd
000000a0: ca44 5c3d e82f d5bd b679 abbd 701b c7ba
000000b0: aa17 273c 80d3 213d 5f51 aabb 805f 0c3d
000000c0: db29 57bd 1e09 02bc 3629 f33d 5f4c 73bc
000000d0: 52b5 e8bc 617c b9bd 3dfe 90bc 021c 203c
000000e0: a461 dabc 47b8 28bd a769 f63d 47c0 d9bc
000000f0: 2d68 a43d f5ad 19bd c489 1b3d 1743 4e3d
0.019137673 -0.0044367616 -0.07425862 0.032956664 -0.0051070196 -0.13029122 -0.089954235 0.068705484
0.08565795 0.13416101 -0.12250734 0.068583384 -0.078526355 0.11010918 -0.120961696 0.049587645
0.08496321 -0.026928542 -0.0047944733 -0.122647785 -0.058422245 -0.081636004 -0.08087242 0.076971844
-0.043394044 0.114459835 0.118918344 -0.11395052 -0.07952669 -0.13557418 0.06880805 -0.0007097764
0.04692762 0.13156472 0.055525392 0.027831465 0.0065361005 0.0041229874 -0.045256384 -0.08038402
0.05377654 -0.10409528 -0.08372824 -0.0015190672 0.010198513 0.039508343 -0.0051976885 0.034270763
-0.05253015 -0.007936744 0.11873095 -0.014849751 -0.028406773 -0.090569265 -0.017699355 0.009772303
-0.026657887 -0.041191366 0.1203187 -0.026580943 0.080276825 -0.037519414 0.03797318 0.05035695

rnn.bias_hh_l0_reverse f4 [64]
00000000: d27b 983d bb02 fabc 4581 bb3c fdad 883d
00000010: c0f9 cb3d ef47 72bd 98dd 1dbd 3489 e6bd
00000020: 045f 543d f850 3f3c dcbc 633c 8ff7 b73d
00000030: c3f8 2abc 2c8a 12bd 7210 49bd 822e c13b
00000040: 84b3 433b 980c 533d 8026 82bd 0df4 b7bd
00000050: ea55 863d f80b 433d 1e60 40bc fc97 a63d
00000060: a39d b53d 9132 a13d 0e1a 61bd 5d17 71bd
00000070: 4d76 46bd ec19 863d 6c9a 01be 8143 27bd
00000080: 78a2 8a3c 02e0 103e 8d79 773d 8d8a 1c3d
00000090: ee57 13bd 744c 973d 6579 bcbc 7d89 e63d
000000a0: 4add 33bd 85f9 2fbd 0b9d 04bd bc05 dabc
000000b0: b9e3 dd3c 6245 86bd 3cc3 30bd cead ecbd
000000c0: 2fdb c23d 76af c23c 0d6c 6e3d 81b4 913d
000000d0: 6b3d 9fbd 6c74 d13a c95f 01bd bb35 34ba
000000e0: 9817 bf3d 0c62 d23d 98e4 cdbc ece0 bbbc
000000f0: 15f9 e5bd 2cb9 bc3d ce25 973d 1114 cf3d
0.07445492 -0.03051888 0.022888789 0.06673811 0.099597454 -0.059150632 -0.038541406 -0.11256638
0.051848426 0.011677019 0.013900008 0.08982765 -0.010435286 -0.035776302 -0.04908795 0.0058954367
0.0029861638 0.051525682 -0.063549995 -0.08982096 0.065593556 0.047618836 -0.011741666 0.081344575
0.088679574 0.07870973 -0.05495649 -0.05886017 -0.048452664 0.06547913 -0.12656564 -0.04083586
0.016923174 0.14147952 0.060418654 0.03821807 -0.03597253 0.07387629 -0.023007104 0.112566926
-0.04391221 -0.04296257 -0.03237633 -0.026614062 0.027086126 -0.065562025 -0.04315494 -0.11556588
0.09514462 0.023765307 0.058208514 0.071145065 -0.077753864 0.0015980131 -0.03158549 -0.00068744615
0.09330672 0.10272607 -0.025133416 -0.0229344 -0.11229149 0.09215006 0.073802575 0.10111249

rnn.weight_ih_l1 f4 [64, 128]
00000000: cf72 3c3d 40f1 02bd 344e 5cbd bb02 153d
00000010: df4a a93b 0024 a5bd f6bb c53d 1691 ce3c
00000020: f7af 35bd 24d7 e0bd b639 debd 3632 9e3d
00000030: 88ba b03c dbcd 9dbd f5cd 36bd bee5 b23d
00000040: d570 b23d b374 d2bd 4900 dc3c ea11 04bd
00000050: 15b0 e7bd 6d6f a13d 82bd a3bc 1539 51bd
00000060: bd74 9cbc 908f 803b d17d bfbd 1ab9 1abd
00000070: f0cb a43d 170b 10bd 6b85 0bbd ae30 773d
00000080: 33bc bc3c 3174 943d a7fb 80bd 9069 94bd
00000090: c8ac 1a3d 1319 66bd ca45 043d e3c7 adbd
000000a0: 3ddb 923d c4e4 873d 5857 83bc 5526 f43d
000000b0: 5e2d c0bd 0a3c 043d 1601 ff3d da7e fabd
000000c0: 2a8f 983d 22ee d73d 3e47 583d ead6 f3bd
000000d0: e224 f73c 8c7f 8dbc 7f2a 3fbd c223 8c3a
000000e0: a3ee 573d 9c07 143d 9a2d 02bd f1c2 d93d
000000f0: 4d42 d53d 4153 c1bd 4726 b83c dd12 bc3c
00000100: 680c 1cbd 7469 89bc ccca 983d 77d1 f0bc
00000110: 8a92 96bd 4fc2 b53c 307a f83c 6ce4 98bc
00000120: 0419 31bd 1fc2 833d 46c2 b7bd 32f9 fdbd
00000130: 83ec 6ebd ec0b a23d 20c2 683c 81b8 a33d
00000140: e053 853d 2461 e93d 6bcb ce3d fae7 073d
00000150: 699a 9d3d 3aac f4bd 5e16 3dbd b150 9dbd
00000160: 5409 e93d 1e47 813d e1d8 7a3d adff f13d
00000170: e180 afbd 9c70 b83d a4b9 56bd 6b0b 4dbc
00000180: 4672 2d3d 4500 f4bd aafd ccbd 79c3 c63c
00000190: 3740 d3bc b856 92bd 0e7f 0f3d 0140 fbbd
000001a0: 0ae0 bd3d 8d38 75bd 7d51 973c 3a45 533d
000001b0: 4d82 9cb9 2070 0cbc abab 7cbd fe1f 853d
000001c0: 6901 ff3c 03c3 553d 12ec afbc 0bbf 96bd
000001d0: 3099 c33d b17c ea3d 6ca9 c6bd 9456 993c
000001e0: b414 8a3d a710 d5bd 33a9 b23d f107 a9bd
000001f0: 9602 4b3d 2ab3 0cbd 0f48 d13b c8a4 083d
00000200: c55b 113d d549 d23d d183 7c3d 855c 5839
00000210: 60e8 08bd 21be 2f3d e916 2a3d b044 40bc
00000220: 19f8 4e3d 3557 02be b6c7 3bbd f7ea 063d
00000230: 4851 833d 8025 71bc 5f97 13bd e9fe f7bd
00000240: 0eca 82bd 5898 8fbd 6461 b7bd abe3 b33d
00000250: 24ff 043c afe0 6ebd c382 4b3d f08b 6dbc
00000260: 5531 f93d e409 cbbd 7bdc 143d b5eb c3bd
00000270: 8a4c 843c f70a d53d 25e9 b03d 987b b2bd
00000280: 7fbe 083e 9058 ef3c fb49 003b 3d9c 7b3c
00000290: fa12 22bb 0940 8bbd d021 04be 42ac b73d
000002a0: 9ab8 9cbd 1935 2d3c cd6c 8f3d db00 213d
000002b0: 31ae af3a 5076 51bd 4a6b 2d3d 0614 d23d
000002c0: c44f 02be db26 953c a35b d4bd 4836 de3d
000002d0: e1ff 07bd 83e0 823d ff19 233e cfe2 68bd
000002e0: 6eab 7aba 0d40 1b3d e181 61bb b737 26bd
000002f0: 522b dcbd e397 c3bd 3338 95bd b774 d73d
00000300: 1c4e a9bd 36ae df3d 282d a93b f009 83bd
00000310: 6646 05bd 6e69 413c cda6 df3c 170d 8c3d
00000320: 593c 01be b2a6 b2bd 714b ef3d 502d 723d
00000330: 2dde a9bd 759c a8bb 0504 abbd bc6f 8abd
00000340: 44d1 b53b 109c b0bd 5be0 f1bd b81a e63d
00000350: 7077 f5bd 5204 913d 8f46 42bd 2940 903d
00000360: 9cb7 be3d ebaa ed3d 7526 343d 6875 ddbb
00000370: 4c2e c93d d704 26bd 824a 803d de8e 70bc
00000380: 00f9 a53d c8dc 82ba 0ece 88bd 9632 8bbc
00000390: 31e3 2cbd ce35 24bd 6ca4 24bd 8206 3d3c
000003a0: 48ee 443d 5008 523d 1167 7bbc 28a1 813d
000003b0: 23a3 1bbd afcc c9bd 6dd2 9ebd 5212 b13d
000003c0: a933 03bd dc85 a53d bdde d5bc 79f7 99bc
000003d0: a9ad e7bd 449f eb3d 5625 913c bd96 d4bc
000003e0: 6c21 5f3d f18d a93d 361c 7d3c fefa 8e3c
000003f0: 11bb abbc fd05 dc3d 4b21 933d c7d1 033d
0.046007928 -0.031968355 -0.053785518 0.036379557 0.005166396 -0.08063507 0.09654991 0.025215667
-0.044357266 -0.10978535 -0.10850851 0.07724421 0.02157332 -0.077052794 -0.04463001 0.08735226
0.08712927 -0.10276165 0.026855605 -0.032243647 -0.11312882 0.07882581 -0.019987825 -0.05107983
-0.019098634 0.003923364 -0.093501695 -0.037774183 0.080467105 -0.035166826 -0.034062784 0.06034916
0.02303896 0.07248724 -0.06297999 -0.07246697 0.037762433 -0.056176256 0.03229312 -0.08485391
0.07170723 0.066354305 -0.01603286 0.11921374 -0.09383653 0.03228382 0.12451379 -0.12231226
0.074491814 0.10543467 0.052802317 -0.11906226 0.030168954 -0.017272733 -0.046671387 0.0010691809
0.052717816 0.03614007 -0.03178177 0.10632885 0.104130365 -0.094397075 0.02247919 0.022958213
-0.03809777 -0.016773917 0.074605554 -0.029396756 -0.07352169 0.02218738 0.030331701 -0.018663608
-0.043236747 0.0643351 -0.089726016 -0.12401046 -0.058331024 0.0791243 0.014206439 0.07994176
0.065101385 0.11395481 0.10097393 0.033180214 0.07695467 -0.11946912 -0.04616391 -0.07681406
0.11378732 0.06312393 0.061241988 0.118163444 -0.085695036 0.090058535 -0.052423134 -0.012514929
0.042345308 -0.11914114 -0.1000932 0.02426313 -0.025787456 -0.071454465 0.03503328 -0.12268067
0.09271248 -0.059868384 0.018471474 0.05157969 -0.0002985172 -0.008571655 -0.061687153 0.06500243
0.031128602 0.05218793 -0.021474872 -0.07360657 0.095507026 0.11449564 -0.097002834 0.018718041
0.0674223 -0.10403567 0.087236784 -0.08253468 0.049563013 -0.03435055 0.006386764 0.033360273
0.03548791 0.102679886 0.061649147 0.00020633831 -0.033424735 0.04290593 0.041525755 -0.011735126
0.050529573 -0.1272858 -0.045844756 0.032938924 0.064119875 -0.014718413 -0.03603303 -0.12109167
-0.06386195 -0.07011479 -0.08954123 0.087836586 0.008117471 -0.058319744 0.04968525 -0.014498696
0.121676125 -0.09913996 0.03634308 -0.09566442 0.016149778 0.10402482 0.08638219 -0.0871498
0.13353918 0.029217035 0.0019575346 0.015357074 -0.002473055 -0.06799323 -0.12903523 0.089684024
-0.076523975 0.0105717415 0.07003174 0.039307456 0.0013403354 -0.051138222 0.042338647 0.102577254
-0.1272574 0.018207004 -0.10369041 0.10850197 -0.03320301 0.063904785 0.15927885 -0.056856927
-0.0009562288 0.03790288 -0.003440969 -0.040580478 -0.1075045 -0.095504545 -0.0728611 0.105203085
-0.08266851 0.109219 0.0051628537 -0.0639838 -0.03253784 0.011804922 0.027301216 0.06838434
-0.12620677 -0.08723201 0.11684311 0.059125245 -0.0829433 -0.0051456043 -0.08350376 -0.06759593
0.005548628 -0.086235166 -0.118103705 0.11235565 -0.119856715 0.07080902 -0.04743057 0.070434876
0.093123645 0.11604866 0.043981988 -0.0067583807 0.098232836 -0.04053196 0.06264211 -0.0146825
0.081041336 -0.0009984011 -0.06679927 -0.016991895 -0.042208854 -0.040090375 -0.040195867 0.011537196
0.048078805 0.05127746 -0.015344397 0.06329566 -0.037997376 -0.098534934 -0.07754979 0.086460724
-0.03203169 0.08082172 -0.026107186 -0.018794762 -0.1131242 0.11504987 0.017717998 -0.025950784
0.054475233 0.08279026 0.015448621 0.017453667 -0.020963224 0.1074333 0.071840845 0.03218248

rnn.weight_hh_l1 f4 [64, 64]
00000000: c43f 263d 030a b73c d859 f83d 0e9f 933d
00000010: 2409 183d 9009 103d fa68 d03b e6be 9e3d
00000020: 7c65 a3bd dfb2 86bd 0bfe 3dbd 9f9c d2bd
00000030: 4f6b eabd 6007 f33d 7562 49bd 5625 af3d
00000040: 2c49 b0bd 66dc 0ebe 2327 3a3d 5fc7 c03d
00000050: 93b7 00be 0ae0 35bd 3f0b aa3d 4e69 bbbd
00000060: 3873 0dbd b2a7 d9bd 43db be3b 00d1 60bc
00000070: 8887 88bd 8ce9 17bb 2d8f 5ebd bf86 eb3d
00000080: b5d8 9b3d 6696 963c 5ed8 18bd 3d9d e63c
00000090: 0f16 f03d ecd7 403d 0744 5d3c 7ce9 8ebc
000000a0: c3be c1bd 22e1 2bbc a3b4 f23d 3e08 91bc
000000b0: f689 e2bd fd09 7a3d fddb 05bd ae49 95bd
000000c0: 3a5f 053e 8636 b0bd 32f2 e8bd b02e 2fbd
000000d0: 89ea debd f22f cabd 28cf 803d cad6 08bc
000000e0: bbb0 963d 9c52 e13d 4e3a d53d 7aeb e3bd
000000f0: f58e b4bc d1c5 173b 82d7 4b3d da93 4ebd
00000100: d633 013d 8ca2 113e d186 86bd 8d6b 57bd
00000110: 42a0 b23d 5506 2b3d 8fd8 c6bd cb4d 743d
00000120: 0196 27bd 855c df3c e7aa 90bd 6069 f6bd
00000130: 7552 a5bd 7fe7 fe3d 7105 ee3d ba81 42bd
00000140: b4e8 073e 4976 3ebd 29c1 df3b 8a72 39bd
00000150: a862 78bd 8feb 07bd 052e d7bd 1494 ee3d
00000160: 9e62 12bd 1b65 ae3c 1f7d 73bc cc8f c7bc
00000170: c9aa 603d b342 e73d 3a4a e83d 8732 86bd
00000180: 1821 ee3d 60b8 843d c45b d7bd 8e0d a53b
00000190: 140f 82bd e724 613d ae86 dbbc 7ea9 8a3d
000001a0: d7a7 90bd 95a7 9a3c 9b5c d8ba 7114 c83b
000001b0: d72f b3bc a46a 0e3d f967 d73b b643 f13d
000001c0: 25df 973d 4846 babd 1ba7 b7bd 0b38 f03c
000001d0: bc83 3dbc 4436 9a3d 05b1 b0bc 5d3a bdbd
000001e0: 2125 a43d c834 14bc b431 b1bd c2a1 44bd
000001f0: 458a d9bd 2ca8 e83c 3262 a8bd 1f1e 8c3d
00000200: 48d1 053d 53af ccbd 2021 ebb9 0dac ac3b
00000210: 0148 b8bd da2b bebd f514 2d3d 851c ca3d
00000220: c0ff 8abb 1873 e3bd 0fc5 d23d 065c 3e3d
00000230: 7b5e 61bd 7b0f 033e 76d6 3abd 4508 783d
00000240: f60b e8bc 1c2f 6a3d 811f da3d b010 af3c
00000250: a13d 633d 3a66 bdbd 419f d0bd cd0e b33c
00000260: 9e4a 7bbc 3896 193d 642e c3bd 30d8 a53d
00000270: 7f5f e5bb ed73 263b 2b8c 683d 6f54 c7bc
00000280: e4ed 73bd d18d 083d 6825 a03d f137 e63d
00000290: bad6 d43d 2854 d7bd 36dc 1d3d 9d68 dfbc
000002a0: 1f34 98bd aae6 83bd a901 e63d f2cf 6d3c
000002b0: f65f 89bc b2df 4abd 91cb a83d d73a 5ebd
000002c0: a488 923c 88a9 c6bd 1cdc 28bb 7b4d de3d
000002d0: a0d9 ebbd 693b 1a3b d752 653d 4741 c4bd
000002e0: d0b9 94bc ab22 1a3d 6517 ea3d 04fa a23d
000002f0: d8dc a83d a5a6 cd3d 2be8 a5bd 3343 debc
00000300: 5b74 893d 89e4 68b8 3c17 af3c 7826 32bb
00000310: 6195 88bd 3f2e bc3c ed0d f73c 4310 96bd
00000320: 913c 353d 7db8 96bd 3b2f 21bd 8609 d2bd
00000330: 7689 f2b6 a6d4 bb3d ce41 b4bc f6e5 413d
00000340: 8f5b be3d f427 693c 859d 38bd 279f e13d
00000350: 6c84 163d a629 41bd cfc6 b63d 353b f83d
00000360: b7c7 ed3d f803 3a3d 0216 50bc 460d af3d
00000370: 65c5 ab3b e917 8fbc 14fa ee3d 76e0 b43d
00000380: be61 ac3d d8cf c4bd c828 d7bd 7315 bbbd
00000390: af4a e13d 6294 db36 bf80 91bd fabe df3c
000003a0: 76dc ac3d b714 fc3d f469 993b c305 d43d
000003b0: bb1c 5f3b 1abc f73d 737b 43bc 6095 843d
000003c0: 45cf 84bd 21f2 503d 2bd1 7e39 f11d ab3d
000003d0: d0c9 e9bd 11b5 66bd 9387 d5bd 973e dfbd
000003e0: e1be bebd f459 8b3d d993 cabd 3c52 eebd
000003f0: f3fb 20bc d8b1 8cbd 55b4 303d 1938 07bd
0.040588155 0.022343641 0.12126511 0.07208072 0.037118092 0.03516537 0.0063601704 0.07751255
-0.07978341 -0.06577086 -0.046384852 -0.10283779 -0.11446249 0.11866641 -0.04916616 0.08552043
-0.086077064 -0.13951263 0.04544748 0.09413027 -0.12570028 -0.044403113 0.08302926 -0.09150945
-0.03453371 -0.106276885 0.005824478 -0.0137217045 -0.066664755 -0.0023179976 -0.05433576 0.1150031
0.07609693 0.018382262 -0.03731572 0.028151149 0.11722957 0.04708092 0.0135049885 -0.017445318
-0.09460213 -0.010490688 0.1185086 -0.017704125 -0.1106147 0.06104468 -0.0326805 -0.07289444
0.13024607 -0.086041495 -0.1137432 -0.042769134 -0.10884578 -0.09872426 0.06289512 -0.008351991
0.073579274 0.110020846 0.10411511 -0.11128898 -0.022040823 0.002315868 0.04976607 -0.05043397
0.031543575 0.14222163 -0.06568683 -0.052592803 0.08721973 0.041754086 -0.09709274 0.0596445
-0.04091454 0.027265796 -0.07063847 -0.120318174 -0.08072368 0.12446498 0.116221316 -0.047487
0.13272363 -0.046499524 0.0068284464 -0.04527525 -0.06064096 -0.03318363 -0.105068244 0.116493374
-0.03573858 0.021288445 -0.014861374 -0.02436056 0.054850373 0.11292019 0.113422826 -0.06552606
0.11627406 0.06480479 -0.1051555 0.0050370162 -0.06350532 0.054966833 -0.026797619 0.06770609
-0.07063263 0.018878737 -0.0016507091 0.0061059524 -0.021873398 0.03476967 0.006573674 0.11780493
0.07415608 -0.09095436 -0.0896742 0.029323598 -0.011567052 0.075298816 -0.021568784 -0.092396475
0.08014894 -0.009045787 -0.08652058 -0.048005827 -0.10622076 0.028400503 -0.08221854 0.06841683
0.03267029 -0.09994378 -0.00044847373 0.0052695335 -0.08998109 -0.09285708 0.042256314 0.09868721
-0.0042419136 -0.11105937 0.10291492 0.04647448 -0.055021744 0.12798874 -0.045614682 0.06055476
-0.028326016 0.057173833 0.1065054 0.021370262 0.055478696 -0.09248014 -0.10186625 0.021857643
-0.015337614 0.037496775 -0.09530333 0.08097875 -0.0069999094 0.0025398687 0.0567743 -0.024332253
-0.059553042 0.03333837 0.07819635 0.11241139 0.10392518 -0.105140984 0.038540088 -0.027271563
-0.07431816 -0.0644048 0.112307854 0.01451491 -0.01676939 -0.04952974 0.08241952 -0.054255333
0.017887421 -0.09700304 -0.002576596 0.10854622 -0.11516118 0.0023533946 0.055987205 -0.09582763
-0.018155009 0.03763072 0.114302434 0.07957843 0.082452476 0.100415505 -0.08100923 -0.027131652
0.06711646 -5.552595e-05 0.021373384 -0.0027183574 -0.06669117 0.02297127 0.030158008 -0.073273204
0.044247214 -0.07359407 -0.039351683 -0.10255723 -7.2281646e-06 0.09171419 -0.022004034 0.04733845
0.09294807 0.014230717 -0.045072097 0.11016684 0.03674738 -0.04715886 0.089246385 0.12120668
0.11610358 0.04541394 -0.01270056 0.085474536 0.005242037 -0.017467456 0.11668792 0.08831875
0.0841708 -0.096099555 -0.10505825 -0.091349505 0.11000573 6.5439826e-06 -0.071046345 0.027312744
0.08440487 0.123086385 0.00468182 0.103526615 0.0034044224 0.120964244 -0.011931288 0.064738035
-0.06484846 0.051012162 0.00024301249 0.0835532 -0.11415446 -0.056325022 -0.10426249 -0.1090061
-0.09313751 0.068042666 -0.09891481 -0.11636779 -0.009825694 -0.068698585 0.043140728 -0.033012483

rnn.bias_ih_l1 f4 [64]
00000000: aa50 b7bb 4614 31bd 7d3e c0bd 6738 96ba
00000010: 6b8d df3d e835 323d 3f88 7e3d 6510 d3bd
00000020: 3959 c8bd 7058 99bd 14ad c3bd 75a5 733c
00000030: 5662 c8bc 0888 c83d a718 b63d 2c86 b5bd
00000040: 3c9d 353d 8d7a 9d3d 9045 70bd 4455 033e
00000050: ef73 593c 5e07 d2bd fc7f 1abd c46c f63c
00000060: ec55 c83d d114 efbd 3d4a 513d 9480 3bbd
00000070: 3c33 44bd c53b d53d 7c55 a53d a8e1 453d
00000080: 2fe8 0e3b 7162 933c d11b 52bd a550 c33d
00000090: 30ba da3d 8131 80bd cac1 f73d b7ab 51bd
000000a0: 52c3 2a3d 1898 77bc e9bf 87bc 2fca 7c3d
000000b0: f4bf eb3d 3fa1 d8bc 34ef bcbd ecd2 233c
000000c0: 44b4 a8bd e6e4 753d 5e5a 8dbd 1faa 6dbd
000000d0: bc0d 213d 8956 253d a973 e73d 033b e3bd
000000e0: 97f1 e33d 33e5 88bd 7380 76bd cc17 d33c
000000f0: 21c6 85bb 619f 1a3b a962 083e 1e89 02bd
-0.0055943327 -0.043232225 -0.09386919 -0.0011460901 0.10915645 0.04350844 0.062141653 -0.103058614
-0.09782643 -0.07487571 -0.095544964 0.014870991 -0.024460953 0.09791571 0.08891421 -0.08863482
0.044339404 0.0768939 -0.05866009 0.12825495 0.01327227 -0.102553114 -0.03771971 0.03008116
0.09782013 -0.11673892 0.05109619 -0.04577692 -0.047900423 0.10411791 0.080729455 0.048310906
0.0021805873 0.017991276 -0.05129606 0.09536866 0.10680044 -0.06259442 0.12097509 -0.05118915
0.04169018 -0.015111946 -0.016571002 0.061716255 0.115112215 -0.026444076 -0.09225312 0.009999018
-0.08237508 0.060032748 -0.06902002 -0.05802357 0.03931974 0.04036573 0.11301357 -0.1109524
0.11130064 -0.06684341 -0.060181092 0.025768183 -0.0040824567 0.0023593532 0.13318886 -0.031869046

rnn.bias_hh_l1 f4 [64]
00000000: 7fb4 953c 599d 81bd 7d44 ca3d 76ac b23c
00000010: 3fcd 13bd ff90 b03d db8c a13d 933a 60bd
00000020: e378 923d fe1e bbba 0c8e c0bd 88c9 d2bd
00000030: 95b8 73bc e401 c7bc 6395 a73d e538 42bd
00000040: eb3a bdbc 0599 9fbd 4d22 973c 4fc9 153d
00000050: 9965 6ebd 80dd 7a3d 600e 45bd c679 d03d
00000060: b319 ae3b e0c4 233d a6ac cebd 6687 c13d
00000070: ddd7 bf3d e311 98bc a0da e8bd c72a c83d
00000080: 0818 4b3c f174 663d 319e db3d ffdc eebd
00000090: a1c4 233d a7ef b6bd 1271 e5bd 9dae 633d
000000a0: ee8f 343d e658 c43d 1902 a9bc 9d8d 89bc
000000b0: c173 71bd 39ab 113d a606 a83d 02e8 1cbd
000000c0: 3a9e 943c af1b e5bd 51ad 5e3d 59e5 a33b
000000d0: 1628 fb3d 0eaf 153b b937 e53d 81cb 83bd
000000e0: 2e37 9ebc d3b2 7bbd 06a5 82bd febf 9ebd
000000f0: 8245 94bd e562 9ebd 83e1 81bd 3c24 6f3d
0.018274544 -0.0632884 0.09876344 0.021810751 -0.03608441 0.08621406 0.07888194 -0.05474336
0.071519636 -0.0014276204 -0.09402093 -0.10292345 -0.014875551 -0.024292894 0.0818279 -0.04741754
-0.023099383 -0.07792858 0.018448973 0.036568936 -0.05820236 0.061246395 -0.048109412 0.101794764
0.005313122 0.039982677 -0.10091524 0.09449653 0.093673445 -0.018563217 -0.113698244 0.09773784
0.012395866 0.056263868 0.10723532 -0.116632454 0.03998244 -0.08932429 -0.11203207 0.055586446
0.044082575 0.095872685 -0.020630883 -0.01679116 -0.058948282 0.03556368 0.08204393 -0.038307197
0.018141855 -0.11186921 0.054364506 0.0050017056 0.12263505 0.0022839936 0.11192269 -0.064353
-0.019313421 -0.061449837 -0.06379132 -0.07751463 -0.0723982 -0.077337064 -0.06341841 0.058384165
