ckpt/rnn_cls.pt (torch, 426019 bytes, 18 tensors)

rnn.weight_ih_l0 f4 [64, 561]
-0.029405728 0.030309021 0.104972504 -0.015917199 0.01722408 0.12511684 -0.03375864 -0.06180172
-0.07539563 -0.0678476 0.077735946 -0.09844402 0.037033275 0.08798002 -0.07727147 0.003100243
-0.0773308 0.119250156 0.0021284437 -0.124711424 0.09238575 -0.023169564 -0.019690348 -0.08317109
0.108894676 0.034639068 0.065401606 -0.11803454 -0.06718436 0.08181228 -0.005201155 -0.02875434
-0.0012895428 0.05604369 -0.0960213 -0.006939748 -0.078083366 -0.078891166 -0.15085593 0.11387216
0.057310242 0.0866431 -0.096748576 0.0547687 -0.103418685 -0.122582816 -0.025304172 0.025463227
-0.09380542 0.09185533 0.0012481471 0.12248921 0.021186484 0.07891555 -0.08108208 0.16232526
0.13704492 -0.008154259 -0.08231441 0.11919816 0.028368143 0.006470193 -0.062324256 -0.02936287
0.059994284 0.099332266 0.02573735 0.12734734 -0.024047267 -0.077542186 -0.118885726 0.11317361
0.001947909 -0.10125269 -0.08907203 0.07457831 0.09587147 -0.12874575 0.032989345 -0.0795411
0.092505865 -0.045734312 0.070382476 -0.09933731 0.047557965 0.019175908 -0.09260019 -0.006567915
-0.08427896 -0.06517696 0.09442433 -0.065858044 -0.0651779 -0.041948963 0.054904543 0.038485233
0.0717005 -0.09640063 0.09290032 0.120695375 0.11089873 -0.059941318 0.087785155 -0.080814935
-0.11643296 -0.003681532 -0.02293257 0.123888694 -0.06503523 0.051743418 0.057585258 0.015298455
-0.033808142 0.097091064 0.04032518 -0.021076187 0.08725234 0.005232099 -0.17016484 -0.0752388
-0.08676396 0.12682869 -0.12833807 0.10944805 0.0011883146 -0.1108576 0.083680846 0.050529934
0.12746526 -0.10624121 -0.057031676 -0.046469394 0.088319205 0.11111775 0.09510683 0.11752944
0.02999901 0.06878637 0.09639696 0.09462957 0.03992209 0.07461239 0.0056041214 0.07976536
-0.036552448 0.008696355 -0.034391027 0.1033879 0.12704355 0.090268895 -0.057058804 0.07834292
0.061017834 0.00460548 -0.030313727 -0.08804117 0.13181385 -0.12920849 -0.1367137 0.036295325
0.045446046 -0.038679723 0.060988534 -0.057314992 0.023453215 -0.09630757 0.09836709 -0.05847015
0.07754889 -0.10375563 -0.0238142 0.0064467303 -0.064528815 0.0461115 0.0198984 -0.052063596
-0.09816004 -0.103860416 -0.08972271 0.11917572 0.05749543 -0.118272215 0.011956916 -0.0785479
0.0842064 -0.030816555 -0.13198732 0.111255035 0.07714869 -0.12663855 0.0065993816 -0.04044717
0.031069942 -0.032554552 0.022509437 0.029987754 0.018517854 -0.033075254 0.10189511 0.044890795
0.06743372 -0.13587825 0.08069298 -0.08907956 -0.06858606 -0.020231681 -0.00814595 0.092798285
0.06884738 -0.055572886 -0.0120573 -0.12531032 -0.029058775 0.121373266 -0.110816084 -0.07763022
-0.031614233 0.11102607 -0.025405206 0.05724867 -0.12806301 0.0005190979 0.025461422 0.031530667
-0.06375594 -0.019389845 -0.08525095 0.013888084 0.012321974 -0.04209661 -0.11396362 0.054481566
-0.0443015 0.10001385 0.008405254 0.091318935 0.06408213 -0.049922183 0.016229864 0.12201613
0.049941756 -0.04277924 -0.12359949 0.07569075 0.106573656 0.07138838 0.070346646 0.059545465
0.10909046 0.10961397 0.1198498 0.010705046 0.08472933 0.017345779 -0.009492914 -0.113226116
00000000: 48e4 f0bc a04a f83c d3fb d63d c964 82bc
00000010: 8419 8d3c a11e 003e 8046 0abd cd23 7dbd
00000020: 0669 9abd aff3 8abd 0634 9f3d 059d c9bd
00000030: 34b0 173d de2e b43d 8140 9ebd 722d 4b3b
00000040: 9c5f 9ebd 6d39 f43d 5c7d 0b3b b468 ffbd
00000050: bd34 bd3d 19ce bdbc a74d a1bc 9b55 aabd
00000060: 2c04 df3d b2e1 0d3d 47f1 853d 18bc f1bd
00000070: f497 89bd 328d a73d 736e aabb 398e ebbc
00000080: e005 a9ba 118e 653d d1a6 c4bd d366 e3bb
00000090: 2cea 9fbd b191 a1bd fa79 1abe cf35 e93d
000000a0: 25be 6a3d f071 b13d 1e24 c6bd 2555 603d
000000b0: 2dcd d3bd b30c fbbd b24a cfbc 4298 d03c
000000c0: 0e1d c0bd a61e bc3d de98 a33a 9fdb fa3d
000000d0: 478f ad3c 7a9e a13d 5d0e a6bd 9838 263e
000000e0: 8155 0c3e 7199 05bc 7594 a8bd 2a1e f43d
000000f0: 4f64 e83c ea03 d43b b847 7fbd 678a f0bc
00000100: 91bc 753d b76e cb3d 23d7 d23c 5767 023e
00000110: c6fe c4bc 70ce 9ebd 5c7a f3bd 91c7 e73d
00000120: fb50 ff3a 925d cfbd 656b b6bd 83bc 983d
00000130: 4358 c43d edd5 03be d61f 073d 72e6 a2bd
00000140: b773 bd3d e753 3bbd b024 903d 5c71 cbbd
00000150: 24cc 423d cb16 9d3c 2ba5 bdbd aa37 d7bb
00000160: 739a acbd 7f7b 85bd 8b61 c13d 95e0 86bd
00000170: fe7b 85bd add2 2bbd 96e3 603d b1a2 1d3d
00000180: b6d7 923d b26d c5bd 8642 be3d 232f f73d
00000190: e01e e33d 0785 75bd b4c8 b33d 4d82 a5bd
000001a0: 6774 eebd dc45 71bb 16dd bbbc 5bb9 fd3d
000001b0: 3131 85bd e8f0 533d 85de 6b3d 5fa6 7a3c
000001c0: 687a 0abd aed7 c63d 042c 253d f8a7 acbc
000001d0: 5bb1 b23d 0772 ab3b b13f 2ebe cd16 9abd
000001e0: 4eb1 b1bd 61df 013e 0e6b 03be 4d26 e03d
000001f0: 39c1 9b3a 4f09 e3bd dd60 ab3d 7af8 4e3d
00000200: 4186 023e fe94 d9bd 0c9a 69bd b156 3ebd
00000210: b3e0 b43d b491 e33d 5fc7 c23d 46b3 f03d
00000220: 7cc0 f53c dedf 8c3d c56b c53d 26cd c13d
00000230: 5885 233d 61ce 983d c7a2 b73b 055c a33d
00000240: 05b8 15bd 287b 0e3c 9bdd 0cbd 09bd d33d
00000250: b417 023e e6de b83d 7eb6 69bd 4172 a03d
00000260: d6ed 793d 91e9 963b 7e54 f8bc ee4e b4bd
00000270: 36fa 063e 3b4f 04be adfe 0bbe 68aa 143d
00000280: a225 3a3d a16e 1ebd 1dcf 793d 20c3 6abd
00000290: f520 c03c e73c c5bd af74 c93d 657e 6fbd
000002a0: f4d1 9e3d d57d d4bd ff15 c3bc 183f d33b
000002b0: af27 84bd 6adf 3c3d f801 a33c a340 55bd
000002c0: 2208 c9bd c5b4 d4bd 8ac0 b7bd 6612 f43d
000002d0: 5480 6b3d b438 f2bd f1e6 433c b9dd a0bd
000002e0: 6874 ac3d 0073 fcbc af27 07be aed9 e33d
000002f0: 2200 9e3d 89ad 01be a03f d83b efab 25bd
00000300: 6486 fe3c ec57 05bd b665 b83c e1a8 f53c
00000310: c1b2 973c eb79 07bd 62ae d03d 69df 373d
00000320: b11a 8a3d ab23 0bbe 5c42 a53d 586f b6bd
00000330: d976 8cbd e9bc a5bc 9776 05bc 070d be3d
00000340: dbff 8c3d 65a0 63bd fb8b 45bc 5951 00be
00000350: ab0c eebc 8c92 f83d 8bf3 e2bd 98fc 9ebd
00000360: ed7d 01bd a361 e33d 941e d0bc 957d 6a3d
00000370: f322 03be 1214 083a 7994 d03c 4d26 013d
00000380: 7992 82bd 74d7 9ebc 0d98 aebd d98a 633c
00000390: 1be2 493c 7f6d 2cbd c265 e9bd 1028 5f3d
000003a0: 7d75 35bd 10d4 cc3d 31b6 093c 6c05 bb3d
000003b0: 7e3d 833d 347b 4cbd 7ef4 843c 98e3 f93d
000003c0: ba8f 4c3d 4939 2fbd bb21 fdbd c003 9b3d
000003d0: 4a43 da3d 1234 923d e711 903d f2e5 733d
000003e0: d26a df3d 4a7d e03d d073 f53d 3864 2f3c
000003f0: 9286 ad3d bc18 8e3c 2b88 1bbc 18e3 e7bd

rnn.weight_hh_l0 f4 [64, 64]
-0.008975653 -0.10419376 0.031060044 -0.050135616 0.07450802 0.022462914 0.052955046 -0.11533771
-0.048689798 0.027969994 0.11199032 0.07783475 0.044433672 0.001494921 0.084694184 -0.09262603
0.0723241 -0.06312378 -0.088168316 0.066296056 -0.0017015004 -0.050331548 0.012377024 0.17325635
0.023922823 -0.052200373 0.049317382 0.056260765 0.094887204 -0.017581457 -0.10919697 0.07605087
-0.05536221 -0.016886355 0.020434316 -0.029102106 0.0069016945 -0.0117532015 0.061067 -0.050371613
-0.09656575 0.06992395 -0.10442546 0.039219845 -0.064609125 0.036838394 0.0033661458 0.01939958
-0.015451408 -0.09176948 0.04215977 -0.0144589525 0.091221154 0.09378158 -0.10176008 0.001303092
-0.0363794 0.124759786 0.05187795 -0.125051 -0.09167806 0.08253272 0.12083585 -0.11043274
0.039375115 0.15812853 0.094885096 -0.017740393 -0.052653745 -0.0145264035 0.14045691 -0.055273794
-0.079798155 -0.023987986 0.113333635 -0.14942922 -1.7623124e-06 -0.03466862 0.019575953 0.016778
-0.0624539 -0.019256745 -0.07846492 0.018539563 -0.03461217 -0.08181269 -0.03483883 -0.018068051
0.046915367 0.02653963 0.045801118 -0.10665655 0.04176251 -0.07398342 -0.06377832 -0.009460386
0.10570635 -0.08564028 0.07162082 -0.09782437 -0.10769781 -0.008637885 -0.049719147 0.043255795
0.0003435958 0.10059386 -0.13093024 0.019378336 0.13752176 -0.11990261 0.09760565 0.076163396
0.06252753 -0.07919339 0.0645235 0.11410501 0.087936975 0.07207368 -0.09556948 0.10782773
-0.048250433 -0.061022643 -0.042807207 -0.107847475 -0.033979427 -0.09454412 -0.0684795 0.039519157
0.11420695 0.096092045 0.0795415 0.027952291 -0.06030749 -0.090517886 -0.016752357 0.0075535434
-0.07963417 0.05696375 -0.0040155733 0.0760579 -0.030724503 -0.0542067 -0.11498601 0.066119544
-0.07868977 0.13986574 -0.05681327 0.11992339 0.05349819 -0.012109993 0.014312467 -0.049886804
-0.062092744 -0.063978136 -0.07747084 0.13229272 0.049802 0.00829069 0.061571304 -0.059024356
0.072149955 0.092876785 0.121386275 -0.045765538 -0.013614952 0.019900328 0.095587 0.14624532
-0.10245811 0.104616374 -0.13707161 0.067706056 -0.116925195 0.018898485 0.14001784 -0.07155711
-0.09143436 0.03861917 0.0072279116 0.09706226 0.15601976 -0.041041486 0.023063224 0.0040494176
-0.11095302 0.09940531 -0.038485143 0.015938893 -0.071320914 0.08986892 -0.11350746 0.013712423
-0.029646117 -0.09539545 -0.09905906 0.10264663 -0.0655763 0.079745516 -0.04209621 0.12686646
-0.023168996 0.11233146 0.10748738 0.01157435 0.023562083 0.011618124 -0.047549944 0.024464158
-0.0122178225 -0.10363632 0.022331435 -0.07982249 -0.040641814 0.09008226 0.068618536 -0.05049376
-0.097362705 -0.058040302 -0.012867518 -0.001358483 -0.12606317 0.11782775 -0.121174805 0.13998914
-0.036036078 -0.119449675 0.0762663 -0.109810054 -0.09038825 0.045931783 0.051831592 0.09998267
-0.10095002 -0.029319292 -0.0848558 0.011089506 -0.07772235 -0.03593496 0.011683024 -0.12248476
0.100375965 -0.09005514 -0.03350218 -0.15983614 -0.011027678 0.06260015 -0.005502759 0.052490186
-0.07988778 -0.09002294 -0.12667304 0.03683956 -0.011667722 0.14659628 -0.13069083 -0.10259015
00000000: 9e0e 13bc 8a63 d5bd a271 fe3c 015b 4dbd
00000010: a997 983d 2504 b83c 64e7 583d 2d36 ecbd
00000020: f46e 47bd 5421 e53c 2e5b e53d d367 9f3d
00000030: 1500 363d 3af1 c33a 2574 ad3d b7b2 bdbd
00000040: a81e 943d 0a47 81bd 9791 b4bd 3ac6 873d
00000050: e104 dfba 7428 4ebd 00c9 4a3c 1d6a 313e
00000060: ccf9 c33c 0fd0 55bd 0601 4a3d b071 663d
00000070: 3954 c23d fd06 90bc a9a2 dfbd 8fc0 9b3d
00000080: 7cc3 62bd 4155 8abc de65 a73c 8a67 eebc
00000090: 9c27 e23b 8090 40bc 6421 7a3d 7752 4ebd
000000a0: 44c4 c5bd 4a34 8f3d 04dd d5bd fda4 203d
000000b0: ca51 84bd dbe3 163d 8e9a 5c3b deeb 9e3c
000000c0: e727 7dbc a3f1 bbbd b9af 2c3d 3ee5 6cbc
000000d0: 28d2 ba3d 8f10 c03d 9767 d0bd 83cc aa3a
000000e0: 9102 15bd 0f82 ff3d f97d 543d 5f0d 00be
000000f0: b5c1 bbbd ea06 a93d c978 f73d 8f2a e2bd
00000100: cd47 213d 72ec 213e 1e53 c23d 4d54 91bc
00000110: 74ab 57bd 2700 6ebc f0d3 0f3e c666 62bd
00000120: 376d a3bd 7482 c4bc 771b e83d f903 19be
00000130: 9888 ecb5 af00 0ebd c05d a03c 0472 893c
00000140: a9cf 7fbd 52c0 9dbc 37b2 a0bd 48e0 973c
00000150: 7ec5 0dbd 698d a7bd 29b3 0ebd 7303 94bc
00000160: 542a 403d a369 d93c f499 3b3d c06e dabd
00000170: 2a0f 2b3d 9f84 97bd 359e 82bd bcff 1abc
00000180: 927c d83d 2c64 afbd f0ad 923d 2558 c8bd
00000190: ab90 dcbd ea85 0dbc 4ea6 4bbd fd2c 313d
000001a0: a624 b439 2704 ce3d 9412 06be 51bf 9e3c
000001b0: 81d2 0c3e 808f f5bd 79e5 c73d 8efb 9b3d
000001c0: 6f0e 803d 2530 a2bd e624 843d e3af e93d
000001d0: 4d18 b43d 5e9b 933d eeb9 c3bd c9d4 dc3d
000001e0: 3fa2 45bd e1f2 79bd 9c56 2fbd 23df dcbd
000001f0: 032e 0bbd 59a0 c1bd fb3e 8cbd d7de 213d
00000200: 55e5 e93d e8cb c43d a7e6 a23d 34fc e43c
00000210: fd04 77bd 7161 b9bd 3d3c 89bc b783 f73b
00000220: 3d17 a3bd d252 693d 1295 83bb 3fc4 9b3d
00000230: f4b1 fbbc d807 5ebd c97d ebbd af69 873d
00000240: 1a28 a1bd f738 0f3e 08b5 68bd 659a f53d
00000250: eb20 5b3d fe68 46bc d67e 6a3c 1b56 4cbd
00000260: f654 7ebd f806 83bd 08a9 9ebd be77 073e
00000270: 2ffd 4b3d add5 073c 3132 7c3d 86c3 71bd
00000280: 5bc3 933d 2f36 be3d 5e99 f83d a574 3bbd
00000290: 3f11 5fbc 0306 a33c 1ec3 c33d 55c1 153e
000002a0: 8fd5 d1bd 1c41 d63d 805c 0cbe 79a9 8a3d
000002b0: 7a76 efbd ffd0 9a3c d660 0f3e 898c 92bd
000002c0: f041 bbbd 232f 1e3d 1ed8 ec3b 94c8 c63d
000002d0: a5c3 1f3e 1e1b 28bd 16ef bc3c fab0 843b
000002e0: 563b e3bd 0395 cb3d 99a2 1dbd 4892 823c
000002f0: b310 92bd 320d b83d 9976 e8bd 12aa 603c
00000300: 6adc f2bc b15e c3bd 7adf cabd 6538 d23d
00000310: de4c 86bd 9e51 a33d 136d 2cbd 48e9 013e
00000320: e8cc bdbc 090e e63d 5822 dc3d 58a2 3d3c
00000330: 4505 c13c f259 3e3c bbc3 42bd 0f69 c83c
00000340: 432d 48bc 473f d4bd 6af0 b63c f979 a3bd
00000350: 0878 26bd 0c7d b83d e087 8c3d 8bd2 4ebd
00000360: 1966 c7bd abbb 6dbd 48d2 52bc 200f b2ba
00000370: b416 01be ad4f f13d 7f2a f8bd 5059 0f3e
00000380: 919a 13bd 08a2 f4bd 8231 9c3d 18e4 e0bd
00000390: 7a1d b9bd f722 3c3d 5d4d 543d b7c3 cc3d
000003a0: e2be cebd 032f f0bc e1c8 adbd c2b0 353c
000003b0: e52c 9fbd 8930 13bd 276a 3f3c 4ad9 fabd
000003c0: ea91 cd3d d46e b8bd 9539 09bd 16ac 23be
000003d0: 6fad 34bc 8234 803d 7d50 b4bb f3ff 563d
000003e0: 349c a3bd f25d b8bd 94b6 01be 14e5 163d
000003f0: f929 3fbc 561d 163e d1d3 05be c91a d2bd

rnn.bias_ih_l0 f4 [64]
0.017040728 0.025319159 -0.031674843 0.016035337 -0.104728095 -0.081843495 0.0363779 0.09477436
0.097744234 0.12171198 -0.028629875 -0.12034627 -0.08790794 0.05880179 -0.09145323 0.1165805
-0.012257626 0.123563975 0.09901354 0.021121725 -0.12041676 -0.087092996 -0.000512358 -0.09432552
-0.00313309 -0.03154741 0.043164898 -0.08211295 0.0060898764 -0.07330602 -0.049111534 -0.102011696
-0.10417603 -0.11213095 0.03703887 -0.08034154 0.11512692 -0.037083503 0.08699982 -0.0042733643
0.007257776 0.1227375 -0.002142647 0.07881284 0.082245685 0.04712921 0.07352655 0.06490362
-0.08571863 -0.074263364 0.07601358 -0.114516854 -0.027058823 -0.10962408 -0.020135455 0.05765401
-0.04357826 0.095827304 -0.06290671 0.086812414 0.037415415 0.029273786 -0.07776299 -0.043864407
00000000: ff98 8b3c 206a cf3c 7bbd 01bd 8a5c 833c
00000010: af7b d6bd 909d a7bd fe00 153d 0f19 c23d
00000020: 212e c83d 2144 f93d 3389 eabc 1b78 f6bd
00000030: 1409 b4bd 25da 703d d54b bbbd c2c1 ee3d
00000040: 36d4 48bc 1c0f fd3d 9cc7 ca3d 7807 ad3c
00000050: 109d f6bd d05d b2bd c34f 06ba bd2d c1bd
00000060: 8754 4dbb db37 01bd adcd 303d d62a a8bd
00000070: 968d c73b 7721 96bd 2d29 49bd 82eb d0bd
00000080: 3e5a d5bd e9a4 e5bd 12b6 173d 1b8a a4bd
00000090: aac7 eb3d dfe4 17bd f62c b23d 9407 8cbb
000000a0: a3d2 ed3b cc5d fb3d a76b 0cbb a068 a13d
000000b0: 6d70 a83d 8f0a 413d 1695 963d 30ec 843d
000000c0: 408d afbd 6417 98bd 02ad 9b3d d087 eabd
000000d0: 77aa ddbc 9782 e0bd 1cf3 a4bc 9c26 6c3d
000000e0: 1e7f 32bd 1b41 c43d 3cd5 80bd b5ca b13d
000000f0: e840 193d 94cf ef3c 3442 9fbd 2aab 33bd

rnn.bias_hh_l0 f4 [64]
0.10259585 0.062288597 0.09239862 0.0001678324 -0.12628417 -0.0032084703 -0.104570925 0.038485914
0.12406859 -0.053787485 0.088824056 0.08454523 0.09023939 0.023151077 0.07659986 -0.0044608577
-0.07047231 0.020590074 0.11150578 0.0029009471 0.062321402 0.05003099 0.058238905 0.035151027
-0.044796754 0.119621284 -0.081195086 -0.020602437 -0.047049776 -0.046407744 0.09786237 -0.051284093
0.067963496 -0.05957778 0.09106409 -0.11380143 0.046934783 0.0876486 0.11025193 -0.120178394
-0.0606804 0.10816188 0.09847615 -0.09575167 -0.085369594 -0.0532067 0.08818008 0.014833762
0.037863467 0.04784981 0.0967291 -0.00973132 0.037394736 0.06659696 0.06840124 0.10112715
0.015966196 -0.037342817 0.063324116 0.08947184 0.009952514 0.06554828 0.04881722 0.03807018
00000000: c61d d23d 5422 7f3d 7d3b bd3d 2bfc 2f39
00000010: a350 01be 3345 52bb 4829 d6bd 68a3 1d3d
00000020: ac17 fe3d 4450 5cbd 63e9 b53d 0d26 ad3d
00000030: 6ecf b83d 54a7 bd3c 63e0 9c3d 632c 92bb
00000040: c953 90bd 84ac a83c 245d e43d d11d 3e3b
00000050: ba44 7f3d 4ced 4c3d eb8b 6e3d 86fa 0f3d
00000060: cd7c 37bd 01fc f43d 9c49 a6bd 71c6 a8bc
00000070: 44b7 40bd 0c16 3ebd 116c c83d 450f 52bd
00000080: 7230 8b3d d507 74bd cf7f ba3d b910 e9bd
00000090: b03e 403d 1c81 b33d c4cb e13d 1720 f6bd
000000a0: 038c 78bd fa83 dd3d ddad c93d 7419 c4bd
000000b0: 41d6 aebd 45ef 59bd c297 b43d 4f09 733c
000000c0: b916 1b3d 2afe 433d e819 c63d 1d70 1fbc
000000d0: 392b 193d fd63 883d f315 8c3d c01b cf3d
000000e0: 8acb 823c c8f4 18bd 13b0 813d 033d b73d
000000f0: df0f 233c 2d3e 863d 91f4 473d 7aef 1b3d

rnn.weight_ih_l0_reverse f4 [64, 561]
-0.03973989 -0.005193856 0.005112272 -0.04893498 0.08617107 0.09258693 -0.118283935 0.10452433
-0.02594369 -0.049360152 -0.042796 0.07759165 0.0057143513 0.07928384 0.0151090035 0.00029409328
0.048452374 -0.03523788 -0.09440981 0.0073181787 0.01902632 -0.07382978 0.07899449 -0.0020670376
-0.17407052 0.008111471 0.0021236956 -0.054698613 -0.070626825 -0.08911744 0.012925758 0.0108947335
-0.01016293 -0.0030302624 0.041742183 0.002279506 0.07044149 0.061557584 0.09094143 -0.0030026303
-0.095312014 -0.13087267 -0.119861186 -0.054446686 -0.010353083 0.031167924 0.0014752469 0.027051594
-0.028846836 -0.016500795 -0.067341276 -0.06494865 -0.066545285 0.003888386 -0.10105513 0.077390775
-0.016585073 0.058112964 -0.05390498 0.07107668 0.06414185 -0.06469909 -0.113257036 0.047956612
0.03495025 0.07894231 0.041843083 -0.09105691 -0.059234716 0.10563336 -0.074342005 -0.039397273
0.012224453 -0.0814287 0.12424666 0.012776728 0.10075724 -0.028441181 0.03888067 0.034485612
0.06290233 0.06688803 -0.12404562 -0.05083774 0.12665246 0.020057883 -0.10443258 0.05087638
0.12120181 -0.1452375 0.088979825 -0.0103461165 -0.14193006 0.05117405 -0.13760807 -0.06777828
-0.00544007 -0.09818123 0.012668529 -0.0091838045 -0.086876266 -0.0191529 0.089238234 -0.013761162
0.08994265 0.046905085 0.030458571 0.084436335 0.13282159 -0.006850677 -0.10041297 -0.10692467
-0.05843811 -0.04491934 0.08153671 0.05385664 0.047487494 -0.044010274 0.03518088 0.13982587
-0.10192196 -0.010056193 -0.04373822 -0.07850023 0.05335532 0.15417902 -0.024321996 0.14094125
-0.021079244 -0.03128031 0.028091412 0.1088786 0.046603166 0.012832781 0.094416864 -0.08768744
-0.026992591 0.05875233 -0.05399445 -0.007238389 0.08075233 -0.0847299 0.020274196 0.056201708
-0.06440126 0.06614866 -0.05059655 -0.07766496 -0.026814602 -0.057594027 0.023461876 0.08524218
-0.048763435 -0.023995917 0.07664253 -0.012620182 0.12949549 7.092665e-05 -0.023051267 0.13175875
-0.06096008 0.07353399 -0.100909345 0.059799656 -0.050607827 -0.11468939 0.12413633 0.110448785
0.00047752148 0.023087654 0.117368326 -0.04863882 -0.07431006 0.08466809 0.08249136 0.09174908
-0.07641243 -0.10593431 -0.08508181 0.052884493 -0.10220112 0.10224972 -0.040212166 -0.08754592
-0.07113875 0.0980104 -0.057750948 -0.05876217 -0.028619133 0.06363994 0.08901225 -0.0053965705
0.032248933 0.06596685 0.03785307 0.0034445198 -0.037241306 0.07079073 -0.050190594 0.036806967
0.020393912 -0.060310654 -0.17571378 -0.0843115 -0.08132051 -0.037411343 0.04622356 0.074372575
-0.06674569 -0.030374506 -0.10999446 -0.13117492 -0.058993436 -0.055925757 0.0075271954 -0.14850889
-0.12860999 0.11842427 -0.044992294 -0.12483977 0.02571748 -0.11608415 0.13339606 0.067873195
0.037826724 -0.07946065 0.004176518 -0.11256982 -0.026581435 0.04068077 -0.031895068 0.045024596
-0.11305315 -0.12092704 0.07661664 0.06833981 0.03723291 -0.0011175136 -0.06643275 -0.06719698
0.01799355 -0.07987454 -0.02078409 0.11081327 -0.047884513 -0.06282961 -0.026565854 -0.025553646
-0.08661853 0.10488116 -0.11187108 -0.0074320287 0.1024932 0.098422326 0.06730982 -0.023622736
00000000: 4bc6 22bd 3931 aabb d984 a73b 0c70 48bd
00000010: 757a b03d 379e bd3d d93e f2bd da10 d63d
00000020: dd87 d4bc df2d 4abd dc4a 2fbd 5fe8 9e3d
00000030: 743f bb3b 915f a23d c18b 773c 8830 9a39
00000040: ff75 463d 9855 10bd ee59 c1bd 55cd ef3b
00000050: 16dd 9b3c 1134 97bd ddc7 a13d 2377 07bb
00000060: 8b3f 32be fae5 043c b32d 0b3b a70b 60bd
00000070: cca4 90bd 3483 b6bd 8fc6 533c d37f 323c
00000080: 6b82 26bc 5e97 46bb daf9 2a3d c463 153b
00000090: a143 903d ce23 7c3d 803f ba3d c7c7 44bb
000000a0: f232 c3bd 7c03 06be c879 f5bd 7d03 5fbd
000000b0: fa9f 29bc e053 ff3c 125d c13a 4e9b dd3c
000000c0: 3350 ecbc ad2c 87bc 39ea 89bd cc03 85bd
000000d0: e548 88bd 4bd4 7e3b fef5 cebd 0e7f 9e3d
000000e0: 6bdd 87bc dc07 6e3d 78cb 5cbd a790 913d
000000f0: cd5c 833d f580 84bd 4ef3 e7bd 276e 443d
00000100: fe27 0f3d 81ac a13d a763 2b3d 0c7c babd
00000110: 1aa0 72bd 4e56 d83d 9f40 98bd 095f 21bd
00000120: 1249 483c 17c4 a6bd 0875 fe3d 7b55 513c
00000130: d059 ce3d 7bfd e8bc 5641 1f3d c940 0d3d
00000140: f0d2 803d 97fc 883d a10b febd 3c3b 50bd
00000150: 2fb1 013e 6e50 a43c c0e0 d5bd c063 503d
00000160: a838 f83d 24b9 14be 0e3b b63d c282 29bc
00000170: 1d56 11be e19b 513d 21e9 0cbe 57cf 8abd
00000180: 9d42 b2bb 3e13 c9bd a98f 4f3c ab77 16bc
00000190: 2fec b1bd 8be6 9cbc 89c2 b63d 7f76 61bc
000001a0: da33 b83d 8c1f 403d 4184 f93c f5ec ac3d
000001b0: 6202 083e a57b e0bb 51a5 cdbd 52fb dabd
000001c0: cd5c 6fbd 58fd 37bd b8fc a63d c898 5c3d
000001d0: 3f82 423d 1e44 34bd d419 103d 832e 0f3e
000001e0: 76bc d0bd bbc2 24bc d926 33bd bbc4 a0bd
000001f0: 1c8b 5a3d 1be1 1d3e ec3e c7bc e752 103e
00000200: 61ae acbc c81f 00bd f61f e63c befb de3d
00000210: f6e2 3e3d 9640 523c a15d c13d 7995 b3bd
00000220: 911f ddbc 48a6 703d 4929 5dbd 0230 edbb
00000230: 7a61 a53d df86 adbd 1216 a63c c333 663d
00000240: cfe4 83bd f378 873d 543e 4fbd ce0e 9fbd
00000250: 4caa dbbc b7e7 6bbd 1f33 c03c 7493 ae3d
00000260: 2bbc 47bd 1693 c4bc c2f6 9c3d e1c4 4ebc
00000270: 779a 043e 75be 9438 03d6 bcbc c4eb 063e
00000280: 47b1 79bd fd98 963d 8fa9 cebd 7cf0 743d
00000290: 274a 4fbd 45e2 eabd 303b fe3d f932 e23d
000002a0: d95b fa39 5222 bd3c ce5e f03d 8039 47bd
000002b0: df2f 98bd 7766 ad3d 3bf1 a83d f1e6 bb3d
000002c0: 1f7e 9cbd 16f4 d8bd 5f3f aebd 699d 583d
000002d0: d24e d1bd 4d68 d13d 83b5 24bd 464b b3bd
000002e0: 31b1 91bd adb9 c83d 428c 6cbd 9ab0 70bd
000002f0: ac72 eabc a855 823d 0e4c b63d b7d5 b0bb
00000300: 7517 043d a119 873d d20b 1b3d 74bd 613b
00000310: 578a 18bd bbfa 903d a794 4dbd e7c2 163d
00000320: 2211 a73c 4e08 77bd 50ee 33be 82ab acbd
00000330: 5e8b a6bd a33c 19bd ea54 3d3d a650 983d
00000340: f7b1 88bd f5d3 f8bc c744 e1bd b852 06be
00000350: 1aa3 71bd 6812 65bd b1a6 f63b b712 18be
00000360: 56b2 03be 6c88 f23d d749 38bd feab ffbd
00000370: 77ad d23c 87bd edbd fa98 083e 1a01 8b3d
00000380: 32f0 1a3d 44bc a2bd 2cdb 883b 018b e6bd
00000390: 4fc1 d9bc e1a0 263d 67a4 02bd b66b 383d
000003a0: 6988 e7bd 99a8 f7bd 2fe9 9c3d bef5 8b3d
000003b0: 8981 183d 8979 92ba e50d 88bd 929e 89bd
000003c0: 3667 933c 4395 a3bd 6543 aabc 11f2 e23d
000003d0: 8d22 44bd d0ac 80bd a2a0 d9bc e155 d1bc
000003e0: 0e65 b1bd efcb d63d aa1c e5bd 6088 f3bb
000003f0: f4e7 d13d a591 c93d bbd9 893d 7884 c1bc

rnn.weight_hh_l0_reverse f4 [64, 64]
0.07293678 0.113917425 0.21165013 -0.07677746 0.05655955 0.06882949 -0.16365197 0.056439992
-0.0027672763 0.0030045726 -0.19631557 0.043843105 -0.014791112 -0.07343274 0.015522269 -0.030793764
0.17776445 -0.07717657 -0.079278626 -0.013223969 0.16213772 -0.10579748 0.011296602 -0.06867932
-0.030998403 0.06052564 -0.06372565 -0.06584406 0.09182151 0.06631787 -0.05718702 0.11667106
-0.020963062 0.07664076 0.017003002 0.14602804 -0.008647853 0.0875105 0.02751528 -0.12644012
-0.016779568 0.056164287 -0.091529995 -0.030860387 0.10003657 0.059592284 -0.07836247 -0.06468507
0.12126925 -0.0045559183 0.12660249 0.015361513 0.026532432 0.14039919 0.08753293 -0.0099893985
-0.17020604 0.05073275 0.043030635 -0.051387984 0.011044024 0.04784598 -0.017960623 -0.0926676
0.14020936 -0.052506443 0.0040902686 -0.029306414 -0.108077206 0.09477156 -0.12460123 -0.1453332
-0.031627815 0.08950832 0.0073952684 0.054215215 0.060673848 0.048026446 0.05460765 -0.03888468
-0.019120201 0.09168474 0.05796972 0.0485961 0.04813448 -0.05197546 -0.08973457 0.03039932
0.12631576 -0.14902176 -0.05925934 -0.04785781 0.06235199 0.021877453 -0.09127293 0.041447163
-0.016806254 -0.10737737 0.09391573 0.08266956 -0.016870035 0.12184506 0.14536862 0.026488338
-0.07220464 -0.119373135 -0.11997855 -0.12691887 -0.09066205 -0.022630887 0.0041637984 0.00809836
-0.04928105 -0.07282852 0.13546577 0.013575492 0.05388482 -0.056515712 -0.07212565 0.11734342
-0.12224514 0.04172963 -0.10820168 -0.06307298 0.096430734 0.060715385 0.043322902 -0.040894262
0.037628394 0.12547895 0.08441397 -0.045397434 0.07026503 -0.052927785 -0.16311483 -0.12796184
-0.116811484 -0.0409354 0.035496246 0.0108080255 -0.025642114 -0.10536798 -0.06643998 -0.029638434
0.057428107 0.07371143 -0.089822225 0.112643644 0.14701912 -0.006245121 -0.035946235 0.027721189
-0.0974719 -0.08084061 0.07898571 -0.014420103 0.029285137 -0.119723156 0.018492656 -0.004256252
0.08743266 0.0924918 -0.042459715 0.08786896 -0.094947204 -0.043530844 -0.061087653 -0.17388211
-0.12753265 -0.06207694 -0.08829204 -0.10448024 0.02487421 0.0093216775 -0.008332061 0.000912212
-0.016052494 0.05913018 0.0071949633 -0.0502446 0.107010156 -0.06875363 0.037534587 -0.10945332
0.013288779 0.039937884 0.018809836 0.09973752 0.047993757 -0.00313079 0.050406743 -0.07688085
-0.071308866 0.08529947 -0.0499252 0.023315607 0.0067087417 -0.11015319 0.07406768 -0.064262174
-0.11172373 0.08618762 0.14697263 -0.00493627 0.0067042857 -0.1347361 -0.023810294 0.017524546
-0.006407267 0.06738487 -0.06545036 -0.07038161 0.085797824 0.017461428 -0.021117546 -0.027439147
0.11524294 0.10235473 -0.031525213 0.050549954 0.033836834 -0.06196462 0.045655552 -0.0064945207
0.056087002 0.05124696 -0.049758088 -0.11232297 -0.08207365 0.07442174 0.056319498 0.02220147
0.023103796 -0.11484046 0.106560245 0.03676651 -0.028072651 -0.06946613 0.112906136 -0.02488327
-0.08274722 0.040292535 0.019938665 0.061810356 0.0011696155 0.0032572527 -0.012391875 0.067701235
-0.08305881 -0.023425497 0.061246008 -0.041413672 0.09263043 -0.0406799 0.12895706 0.06825622
00000000: e15f 953d 8a4d e93d d0ba 583e 803d 9dbd
00000010: fdaa 673d 7af6 8c3d 6294 27be 9f2d 673d
00000020: 315b 35bb 5de8 443b f306 49be d494 333d
00000030: 6c56 72bc e863 96bd 1d51 7e3c 3443 fcbc
00000040: e207 363e c00e 9ebd d55c a2bd 59a9 58bc
00000050: 6e07 263e 59ac d8bd 6215 393c bea7 8cbd
00000060: 5df0 fdbc bce9 773d 9882 82bd 40d9 86bd
00000070: ea0c bc3d aad1 873d f03c 6abd 3df1 ee3d
00000080: baba abbc d5f5 9c3d e149 8b3c 6088 153e
00000090: b9af 0dbc b438 b33d b967 e13c 8579 01be
000000a0: 4e75 89bc 860c 663d 1474 bbbd ecce fcbc
000000b0: f9df cc3d 0a17 743d 817c a0bd 9b79 84bd
000000c0: 035c f83d d049 95bb 15a4 013e dbae 7b3c
000000d0: 8b5a d93c cec4 0f3e 7744 b33d 93aa 23bc
000000e0: 7e4a 2ebe 25cd 4f3d e440 303d 357c 52bd
000000f0: fef1 343c 25fa 433d 2822 93bc 83c8 bdbd
00000100: 0b93 0f3e ff10 57bd a907 863b 0114 f0bc
00000110: 9557 ddbd 9717 c23d ee2e ffbd 3ad2 14be
00000120: 2b8c 01bd 2350 b73d 0254 f23b c610 5e3d
00000130: 2485 783d 61b7 443d 45ac 5f3d 8b45 1fbd
00000140: f8a1 9cbc 35c5 bb3d a871 6d3d b40c 473d
00000150: a928 453d 38e4 54bd c2c6 b7bd ff07 f93c
00000160: eb58 013e 2999 18be ecb9 72bd 8d06 44bd
00000170: cd64 7f3d 5838 b33c 4ded babd 80c4 293d
00000180: 45ad 89bc abe8 dbbd e456 c03d a94e a93d
00000190: 0733 8abc e789 f93d 83db 143e 12fe d83c
000001a0: 07e0 93bd e779 f4bd 50b7 f5bd 05f7 01be
000001b0: 06ad b9bd 6964 b9bc 7970 883b fcae 043c
000001c0: edda 49bd 1e27 95bd 8ab7 0a3e be6b 5e3c
000001d0: 54b6 5c3d 057d 67bd 9db6 93bd bf51 f03d
000001e0: a95b fabd b0ec 2a3d d898 ddbd 682c 81bd
000001f0: 7a7d c53d b2b0 783d 5b73 313d be80 27bd
00000200: 3b20 1a3d 8e7d 003e 3be1 ac3d a9f2 39bd
00000210: 1de7 8f3d ceca 58bd 9307 27be 6e08 03be
00000220: dc3a efbd e1ab 27bd 8364 113d 2514 313c
00000230: 690f d2bc 2bcb d7bd af11 88bd 4dcc f2bc
00000240: bc39 6b3d 05f6 963d b7f4 b7bd b6b1 e63d
00000250: 2e8c 163e dfa3 ccbb 5c3c 13bd 8c17 e33c
00000260: 599f c7bd c38f a5bd 43c3 a13d 4c42 6cbc
00000270: 62e7 ef3c 6a31 f5bd e97d 973c 0878 8bbb
00000280: e50f b33d 576c bd3d 3dea 2dbd a4f4 b33d
00000290: ae73 c2bd 664d 32bd 0c37 7abd 270e 32be
000002a0: eb97 02be 6444 7ebd 75d2 b4bd bcf9 d5bd
000002b0: 00c5 cb3c f3b9 183c 3283 08bc 8321 6f3a
000002c0: 8580 83bc 7d32 723d bac3 eb3b 48cd 4dbd
000002d0: 2428 db3d b4ce 8cbd debd 193d 1029 e0bd
000002e0: 2eb9 593c e895 233d 1617 9a3c 2f43 cc3d
000002f0: 1a95 443d f12d 4dbb 4d77 4e3d b573 9dbd
00000300: 620a 92bd 7db1 ae3d 5e7e 4cbd 5f00 bf3c
00000310: 01d5 db3b ff97 e1bd ccb0 973d e39b 83bd
00000320: 69cf e4bd 2383 b03d fe7f 163e 6fc0 a1bb
00000330: a0af db3b 43f8 09be ce0d c3bc a38f 8f3c
00000340: 0df4 d1bb 1401 8a3d d70a 86bd 3c24 90bd
00000350: c5b6 af3d 450b 8f3c b4fe acbc 10c8 e0bc
00000360: 7e04 ec3d 5b9f d13d 9520 01bd 780d 4f3d
00000370: 7e98 0a3d 9dce 7dbd 5101 3b3d fdcf d4bb
00000380: 7cbb 653d 55e8 513d 23cf 4bbd 9609 e6bd
00000390: 3b16 a8bd 6d6a 983d 46af 663d dbdf b53c
000003a0: 2c44 bd3c 7a31 ebbd 423c da3d 7b98 163d
000003b0: 9ef8 e5bc 4244 8ebd 553b e73d 00d8 cbbc
000003c0: 6077 a9bd c909 253d 6956 a33c db2c 7d3d
000003d0: c94d 993a a277 553b 4a07 4bbc f2a6 8a3d
000003e0: bd1a aabd d4e6 bfbc 18dd 7a3d 62a1 29bd
000003f0: 06b5 bd3d f89f 26bd 520d 043e ebc9 8b3d

rnn.bias_ih_l0_reverse f4 [64]
-0.117353484 0.086433806 0.018525558 -0.09207464 0.03992271 -0.031973515 0.0023108704 0.12614363
0.034447264 0.09321097 -0.08447035 -0.087326795 0.063991256 -0.084625006 0.018921841 0.12429732
0.10863403 0.011295561 -0.0490763 0.07050123 -0.019912183 0.06754126 -0.07447336 0.09922674
-0.036243293 0.05142431 0.09462799 -0.03185334 -0.06563082 -0.10429278 -0.10988556 0.032196473
0.11026299 0.04546118 -0.097502574 -0.06692551 0.02020808 -0.06770159 0.014098231 -0.075161114
-0.11181034 0.096702814 0.048915002 -0.116291925 -0.11382612 0.09354854 -0.01745072 -0.026229229
-0.089578964 0.07174162 0.052988403 -0.08621719 0.042730227 0.092810646 -0.0038803807 0.04345973
0.09981653 -0.010669999 0.06258982 0.11723397 0.1050716 0.011569254 0.06219194 -0.08450592
00000000: 0657 f0bd 3504 b13d e9c2 973c a191 bcbd
00000010: ff85 233d a9f6 02bd f971 173b cc2b 013e
00000020: 9318 0d3d 65e5 be3d cafe acbd 64d8 b2bd
00000030: d90d 833d e04f adbd fa01 9b3c 988f fe3d
00000040: 857b de3d 0411 393c 3b04 49bd f362 903d
00000050: e01e a3bc 1253 8a3d 7d85 98bd 6437 cb3d
00000060: d973 14bd 4ca2 523d 52cc c13d a678 02bd
00000070: 7469 86bd 7497 d5bd ae0b e1bd 73e0 033d
00000080: 90d1 e13d 8135 3a3d 6eaf c7bd 3e10 89bd
00000090: 6a8b a53c 22a7 8abd 44fc 663c 12ee 99bd
000000a0: d2fc e4bd 200c c63d 195b 483d 762a eebd
000000b0: ab1d e9bd 6096 bf3d d0f4 8ebc aede d6bc
000000c0: 2d75 b7bd 45ed 923d 5e0a 593d a392 b0bd
000000d0: e405 2f3d 8213 be3d fc4d 7ebb d402 323d
000000e0: 9c6c cc3d 38d1 2ebc 172f 803d 5d18 f03d
000000f0: c72f d73d f88c 3d3c fabc 7e3d 7111 adbd

rnn.bias_hh_l0_reverse f4 [64]
0.11236948 -0.12452955 0.103239074 -0.036732774 -0.024693647 0.0036539396 0.06556706 0.07487486
-0.012333448 0.04091487 -0.08197485 0.11753543 0.08288501 -0.12399165 -0.06321734 -0.08280288
-0.07533368 0.09812064 0.05956136 -0.10123601 -0.08825117 -0.063120745 0.043116607 0.11609824
-0.09461573 0.016436897 0.04518466 -0.079234324 -0.104372926 0.091689095 0.065763615 -0.08913075
-0.09927711 -0.10370292 0.019463742 0.038144488 0.034792893 0.0856514 0.08883082 0.10279845
-0.059644 -0.02905889 -0.12246594 0.047842555 0.05060419 -0.031046838 0.01872579 0.047477506
-0.10976306 0.090887405 0.047389485 -0.081284665 -0.058408815 -0.12278886 0.01163294 0.0015380933
-0.042007163 -0.081867084 -0.0021055387 0.122897945 0.050480362 0.112210475 -0.043007396 0.036448088
00000000: f821 e63d 5909 ffbd 026f d33d 1b75 16bd
00000010: 554a cabc ef76 6f3b 0648 863d fe57 993d
00000020: 3b12 4abc 5a96 273d 6ee2 a7bd 6ab6 f03d
00000030: 9ebf a93d 56ef fdbd 1878 81bd 8e94 a9bd
00000040: 8b48 9abd 79f3 c83d 9df6 733d d354 cfbd
00000050: 08bd b4bd 7345 81bd 0a9b 303d eac4 ed3d
00000060: e4c5 c1bd aca6 863c 8d13 393d 9b45 a2bd
00000070: 79c1 d5bd 7ec7 bb3d 13af 863d 2f8a b6bd
00000080: cc51 cbbd 3262 d4bd 6d72 9f3c 653d 1c3d
00000090: fe82 0e3d 006a af3d efec b53d fe87 d23d
000000a0: 444d 74bd e90c eebc 6ccf fabd 8ef6 433d
000000b0: 5746 4f3d f055 febc d466 993c c677 423d
000000c0: 75cb e0bd 2d23 ba3d 7a1b 423d 9378 a6bd
000000d0: 153e 6fbd ba78 fbbd 1698 3e3c d999 c93a
000000e0: b40f 2cbd eea9 a7bd 14fd 09bb ebb1 fb3d
000000f0: 7fc4 4e3d 9bce e53d 8628 30bd 974a 153d

rnn.weight_ih_l1 f4 [64, 128]
-0.08067501 0.06919752 0.08481101 -0.026043167 -0.12680076 -0.121354975 0.035949845 -0.05397354
0.0699648 -0.10569425 0.005695399 -0.09480885 0.054242164 -0.054513328 0.118843906 0.0050080917
-0.042942148 -0.08142129 0.061880615 0.012147201 -0.047199626 -0.091994666 -0.08255261 -0.07594166
0.04334541 -0.09929325 -0.09682859 -0.06600107 -0.05175768 -0.0154013345 0.11265549 -0.086975604
0.045506913 -0.10017123 0.14881206 -0.058793496 -0.06758295 -0.06849468 0.021921052 0.12240337
-0.046959117 -0.06532155 -0.07097659 -0.122431725 0.054803774 -0.032775767 0.09674397 0.04810355
-0.10892356 -0.08010357 0.010807508 -0.10062221 0.10370252 -0.06707806 -0.057355907 -0.11205434
0.11216121 0.01924068 -0.08700128 0.10181691 0.029114844 0.092980444 -0.06986308 -0.09230794
-0.035724778 0.027786246 0.008982877 0.020331284 -0.08480237 -0.036371104 0.05665077 0.002427006
0.08630623 -0.016798453 0.07047398 0.09059605 -0.09593274 -0.1405061 0.032469906 -0.0973243
0.04903096 0.033422735 0.079032786 0.054716296 -0.12414705 -0.08015327 0.12643519 0.01782186
0.066000566 0.13098831 -0.020008368 0.0021977348 -0.10966561 -0.018747762 -0.022188213 0.08918924
-0.09888376 -0.034474112 -0.009927041 -0.083574995 -0.0050899987 -0.0019154196 0.0013453126 0.06724627
0.10986357 0.03439267 -0.059916284 -0.106062524 -0.09587074 0.118802086 0.034404572 0.03021117
0.10121442 0.026545357 0.04839079 -0.055148367 -0.03907716 0.09309178 0.11445542 -0.09310813
-0.026428811 0.046298623 -0.014349555 0.13407785 -0.09496718 0.114336364 0.0063553597 0.037192594
-0.15924501 0.09996826 0.013460809 -0.0069387876 0.055474263 0.01863844 -0.026870951 0.08781333
0.01670911 0.100728534 -0.04961256 0.14088807 0.07537715 -0.07061221 0.106293455 0.06592488
-0.09768381 -0.051165435 -0.041786466 -0.11377771 -0.022190407 -0.03524236 0.045989916 -0.09842745
-0.05586813 -0.056134325 0.12292623 -0.0076678307 -0.037028976 -0.13585171 0.009801766 0.08585175
7.5731896e-06 0.09220028 -0.034246456 0.05028226 -0.01146942 -0.013014862 -0.084956884 -0.077939644
-0.11772784 0.016924303 0.118194215 0.005271206 -0.015993476 0.09332394 -0.013729802 0.038366806
-0.0024223095 -0.07488652 0.1406439 0.104384206 -0.15805382 -0.05977723 -0.16088773 0.06609039
0.0972459 -0.022913944 -0.0778905 0.15461373 -0.1099094 0.08594429 -0.026619803 -0.087423675
-0.07363679 0.02421397 0.0046685995 -0.09177833 -0.045976 4.7330677e-06 0.025463363 -0.079711236
0.10352473 -0.100317046 0.03864076 0.1474426 0.06488932 -0.051118545 0.07746168 -0.0042367945
0.09065612 0.07926863 -0.007025687 -0.07665799 0.0349714 -0.1362736 -0.08096754 0.037620135
-0.12478178 0.05473729 0.10139658 0.059181266 0.0042403787 0.05311992 -0.014493943 -0.065790884
0.11882247 -0.021567203 0.06437796 -0.13373221 -0.010844449 -0.028466474 -0.0075826305 0.0032620593
-0.09503584 0.08562972 0.093512446 -0.010496084 -0.100574866 0.01240892 0.042778764 -0.021184683
0.026480343 -0.1013027 -0.009006195 -0.03776684 -0.118879676 -0.09563771 -0.04697344 0.07030688
0.09180883 0.106862 -0.11996715 0.1037971 0.072050616 0.034327943 0.000605911 0.04173694
00000000: f138 a5bd 6eb7 8d3d 65b1 ad3d 7b58 d5bc
00000010: 0fd8 01be f588 f8bd 2540 133d 5c13 5dbd
00000020: b449 8f3d 3a76 d8bd 78a0 ba3b 242b c2bd
00000030: 082d 5e3d 5e49 5fbd 6f64 f33d eb1a a43b
00000040: 1be4 2fbd 35c0 a6bd 8776 7d3d 0e05 473c
00000050: 6554 41bd b367 bcbd 5811 a9bd 4d87 9bbd
00000060: f58a 313d 425a cbbd 114e c6bd 922b 87bd
00000070: dcff 53bd e155 7cbc ecb7 e63d 4420 b2bd
00000080: 7565 3a3d 9326 cdbd 3062 183e 73d1 70bd
00000090: ee68 8abd f046 8cbd c793 b33c 9eae fa3d
000000a0: 3458 40bd 4ec7 85bd 2d5c 91bd 7cbd fabd
000000b0: ec79 603d e23f 06bd b421 c63d 3a08 453d
000000c0: 5113 dfbd 570d a4bd f911 313c 0413 cebd
000000d0: fd61 d43d 3960 89bd 07ee 6abd bf7c e5bd
000000e0: c7b4 e53d a19e 9d3c ba2d b2bd 6285 d03d
000000f0: 4182 ee3c 886c be3d 6014 8fbd f20b bdbd
00000100: 2554 12bd fb9f e33c eb2c 133c cb8d a63c
00000110: ddac adbd def9 14bd a30a 683d 670e 1f3b
00000120: 52c1 b03d e99c 89bc a954 903d 6c8a b93d
00000130: 6278 c4bd d5e0 0fbe 2aff 043d f651 c7bd
00000140: b0d4 483d 47e6 083d f1db a13d 321e 603d
00000150: cf40 febd 6627 a4bd 3a78 013e 26ff 913c
00000160: 4e2b 873d cd21 063e 97e8 a3bc df07 103b
00000170: 5d98 e0bd e894 99bc 0ec4 b5bc d9a8 b63d
00000180: 9283 cabd ba34 0dbd 07a5 22bc 5e29 abbd
00000190: 01ca a6bb d10e fbba 3355 b03a 6ab8 893d
000001a0: 2700 e13d 54df 0c3d c76a 75bd 4f37 d9bd
000001b0: e157 c4bd 824e f33d cfeb 0c3d 6a7d f73c
000001c0: 8149 cf3d a675 d93c 6c35 463d 41e3 61bd
000001d0: 5f0f 20bd e7a6 be3d 9a67 ea3d 7aaf bebd
000001e0: 3c81 d8bc a0a3 3d3d 651a 6bbc b44b 093e
000001f0: 277e c2bd 2f29 ea3d 9f40 d03b 4357 183d
00000200: 2011 23be 29bc cc3d ba8a 5c3c c55e e3bb
00000210: fb38 633d a4af 983c 7820 dcbc 7ad7 b33d
00000220: 8be1 883c c34a ce3d 8a36 4bbd f644 103e
00000230: 565f 9a3d 229d 90bd 62b0 d93d a003 873d
00000240: 730e c8bd d992 51bd 4928 2bbd 4a04 e9bd
00000250: a8c8 b5bc 4b5a 10bd ec5f 3c3d 5594 c9bd
00000260: fbd5 64bd 1bed 65bd bfc0 fb3d 6d42 fbbb
00000270: b2ab 17bd b61c 0bbe 9697 203c 0bd3 af3d
00000280: 341d fe36 80d3 bc3d 0346 0cbd c5f4 4d3d
00000290: 3cea 3bbc 4a3c 55bc e0fd adbd d29e 9fbd
000002a0: 4b1b f1bd d6a4 8a3c cf0f f23d 15ba ac3b
000002b0: c004 83bc 9f20 bf3d f7f2 60bc 8326 1d3d
000002c0: 9cbf 1ebb 1b5e 99bd f404 103e 63c7 d53d
000002d0: dcd8 21be f8d8 74bd c1bf 24be 665a 873d
000002e0: dc28 c73d 06b6 bbbc 0e85 9fbd 1053 1e3e
000002f0: 2e18 e1bd 8f03 b03d c611 dabc 2f0b b3bd
00000300: e3ce 96bd 605c c63c 0dfb 983b 47f6 bbbd
00000310: 5551 3cbd bed0 9e36 8b98 d03c a53f a3bd
00000320: c604 d43d 0673 cdbd c645 1e3d 31fb 163e
00000330: b1e4 843d ae61 51bd 3ba4 9e3d cfd4 8abb
00000340: eaa9 b93d 9757 a23d bc37 e6bb ddfe 9cbd
00000350: 2c3e 0f3d 4e8b 0bbe 4fd2 a5bd 9217 1a3d
00000360: 978d ffbd 3534 603d 03a9 cf3d 0e68 723d
00000370: e0f2 8a3b 4694 593d 0178 6dbc 5fbd 86bd
00000380: 3259 f33d b4ad b0bc 98d8 833d 19f1 08be
00000390: eaac 31bc 8632 e9bc b777 f8bb 46c8 553b
000003a0: 27a2 c2bd a25e af3d 7483 bf3d c4f7 2bbc
000003b0: 32fa cdbd c84e 4b3c c938 2f3d 808b adbc
000003c0: 4eed d83c ca77 cfbd b88e 13bc 67b1 1abd
000003d0: 3077 f3bd b4dd c3bd 3967 40bd 0efd 8f3d
000003e0: 4506 bc3d 77da da3d 56b1 f5bd 9393 d43d
000003f0: 468f 933d 759b 0c3d 00d6 1e3a 5bf4 2a3d

rnn.weight_hh_l1 f4 [64, 64]
0.025496874 0.03176463 -0.07511393 -0.047078554 0.03655743 -0.0077087246 0.14754525 0.07088343
-0.030493528 0.06086466 -0.04401674 -0.108633116 -0.04325165 -0.13161658 0.019538864 -0.05170606
-0.015020472 0.10446751 -0.15615201 -0.12399734 0.069883294 -0.10512841 -0.04197474 -0.07535957
0.055157874 -0.07055492 -0.011949127 0.06304415 -0.070099115 -0.06883567 0.10297081 -0.048351116
-0.080217 0.0015227974 0.059930857 0.022804637 -0.09275959 0.04953771 0.0017141656 -0.034799725
-0.046171155 0.114255086 -0.113836706 0.021112336 -0.12133647 -0.05384716 -0.08935444 -0.09927537
0.06302571 -0.04149014 -0.06409282 -0.09534768 -0.13304952 -0.034799144 0.07666176 0.11406229
0.036223516 0.019560866 0.053548455 0.07769212 0.03948068 0.08338182 -0.10120137 -0.105512656
-0.03324411 0.05239161 0.07801802 -0.155606 -0.010228051 0.13121709 -0.07757316 0.020166256
-0.102706715 0.035686966 -0.025462484 -0.115521885 -0.093269624 0.021846725 -0.009653493 -0.027730232
-0.17123754 -0.052652385 0.08745932 -0.06821898 -0.078768685 0.115866445 0.07232756 -0.044389404
-0.11112661 -0.011282293 -0.12007379 -0.10947039 -0.04681273 0.027954161 -0.091781124 -0.1001833
0.07245165 -0.12033929 -0.062296048 -0.053226452 0.07134372 0.050827406 -0.08038137 0.018002793
0.024624635 0.031541612 0.07541723 0.090749666 -0.12775744 -0.04438731 0.16789304 -0.09748737
0.04613968 0.026774174 -0.082492776 -0.04315037 -4.518309e-05 0.043725602 -0.015709335 0.019764887
-0.1409674 -0.028362062 0.031284604 0.046448324 -0.08633795 0.018851139 -0.08668301 0.027136393
-0.07676776 0.0032748238 0.009700539 -0.030777058 0.0071609975 -0.052368335 0.016248673 0.11220027
0.028336609 -0.09738709 0.0011663133 0.062572554 -0.11199765 0.04164332 -0.016309386 0.044700135
-0.062844165 -0.04832825 0.12698022 -0.0861523 -0.036641534 -0.07720501 -0.023784107 0.08049077
-0.107697316 -0.12018679 0.066155136 -0.012151969 0.10667477 -0.048228398 0.017902754 -0.019568283
0.05546344 -0.09605746 0.1142284 0.013471796 0.13143131 -0.06629573 0.016026603 0.11303003
0.05809705 0.11031684 0.14571819 0.118846394 0.056538012 -0.11333212 0.1726584 -0.12044704
0.10508201 -0.12835747 -0.021869238 0.062225595 0.029867772 -0.032727964 0.047810785 -0.15219787
-0.07585702 0.095665485 0.0037197452 -0.017376555 0.06523145 0.06076349 0.029145248 -0.07396842
-0.074411735 -0.039192066 -0.035192426 -0.034158286 0.091178924 -0.17563786 0.034097333 -0.05824029
-0.03026361 0.0068132663 0.009321151 0.14460514 0.04981684 -0.13592176 0.033970393 0.080791704
-0.046783246 -0.05766559 0.023108462 -0.09573099 -0.099545024 0.11749926 0.048555605 0.06374484
0.122962885 0.11271688 -0.0008258244 0.06573458 0.02645155 0.07373665 0.00040113498 -0.025698004
-0.16858977 -0.025167488 -0.08371401 0.096426584 0.0026660976 0.074916616 -0.023671033 0.04126754
0.075239725 -0.14614299 -0.09034643 -0.062255736 -0.0050550844 0.14327884 -0.16318585 -0.09888774
-0.14637384 -0.06417146 -0.1216746 0.0717214 0.041279163 -0.06225841 -0.12976082 -0.07555993
0.07698849 0.020451413 -0.028575204 0.03311326 0.0128680635 -0.07542098 0.06743323 -0.07660206
00000000: d2de d03c a11b 023d 55d5 99bd 71d5 40bd
00000010: 3ebd 153d 7899 fcbb 1a16 173e 552b 913d
00000020: 90cd f9bc 394d 793d e64a 34bd 0a7b debd
00000030: a428 31bd 7fc6 06be f80f a03c bcc9 53bd
00000040: 6d18 76bc 10f3 d53d 50e6 1fbe 51f2 fdbd
00000050: f91e 8f3d 904d d7bd b4ed 2bbd 1e56 9abd
00000060: 39ed 613d 197f 90bd 45c6 43bc 4b1d 813d
00000070: 2090 8fbd b7f9 8cbd 5ce2 d23d d20b 46bd
00000080: cf48 a4bd 9a98 c73a 0f7a 753d cad0 ba3c
00000090: bdf8 bdbd 0ee8 4a3d daad e03a 288a 0ebd
000000a0: f71d 3dbd 92fe e93d 3823 e9bd c7f3 ac3c
000000b0: 417f f8bd d78e 5cbd 76ff b6bd e350 cbbd
000000c0: a013 813d 91f1 29bd 1943 83bd a545 c3bd
000000d0: 223e 08be 8c89 0ebd d700 9d3d 7d99 e93d
000000e0: 1c5f 143d 1c3e a03c a055 5b3d 0c1d 9f3d
000000f0: 7eb6 213d 16c4 aa3d aa42 cfbd 0517 d8bd
00000100: fa2a 08bd 9698 563d e9c7 9f3d 2e57 1fbe
00000110: 8e93 27bc c65d 063e adde 9ebd b433 a53c
00000120: e657 d2bd 7f2c 123d b396 d0bc bd96 ecbd
00000130: 2504 bfbd e7f7 b23c af29 1ebc 832a e3bc
00000140: e558 2fbe 07aa 57bd df1d b33d 65b6 8bbd
00000150: 7a51 a1bd 634b ed3d 7920 943d aad1 35bd
00000160: 5996 e3bd 5ed9 38bc 3fe9 f5bd 0332 e0bd
00000170: b5be 3fbd 2000 e53c bef7 bbbd e72c cdbd
00000180: 8861 943d 7274 f6bd 242a 7fbd fb03 5abd
00000190: a81c 923d 6630 503d fd9e a4bd 987a 933c
000001a0: 9ab9 c93c c731 013d 5974 9a3d f6da b93d
000001b0: d9d2 02be 78cf 35bd 27ec 2b3e 75a7 c7bd
000001c0: f6fc 3c3d 8355 db3c f9f1 a8bd 71be 30bd
000001d0: f982 3db8 9e19 333d ddb0 80bc f9e9 a13c
000001e0: c259 10be 8e57 e8bc 4924 003d 9940 3e3d
000001f0: f3d1 b0bd b46d 9a3c dd86 b1bd 244d de3c
00000200: 6a38 9dbd 6d9e 563b 02ef 1e3c 2b20 fcbc
00000210: cda6 ea3b 2e80 56bd f01b 853c 41c9 e53d
00000220: 2d22 e83c e272 c7bd fbde 983a 0a26 803d
00000230: 065f e5bd 3092 2a3d 439b 85bc 7d17 373d
00000240: 71b4 80bd d8f3 45bd 1a07 023e 9e70 b0bd
00000250: 6f15 16bd a91d 9ebd e3d6 c2bc 58d8 a43d
00000260: 6990 dcbd 7e24 f6bd 587c 873d 0d19 47bc
00000270: 4d78 da3d 248b 45bd cca8 923c aa4d a0bc
00000280: a22d 633d c6b9 c4bd 94f0 e93d cfb8 5c3c
00000290: ee95 063e 0ec6 87bd 394a 833c 4a7c e73d
000002a0: 2cf7 6d3d cced e13d 2637 153e bd65 f33d
000002b0: 6794 673d ac1a e8bd 5dcd 303e f0ac f6bd
000002c0: 3d35 d73d 2470 03be 1e27 b3bc 44e0 7e3d
000002d0: 42ad f43c c20d 06bd 3ed5 433d c2d9 1bbe
000002e0: ed5a 9bbd 44ec c33d f8c6 733b 4759 8ebc
000002f0: 1198 853d 23e3 783d 04c2 ee3c c17c 97bd
00000300: 2e65 98bd dc87 20bd ef25 10bd 8fe9 0bbd
00000310: 04bc ba3d 69da 33be a5a9 0b3d 5f8d 6ebd
00000320: 64eb f7bc d241 df3b beb7 183c 5f13 143e
00000330: be0c 4c3d 132f 0bbe 8a24 0b3d 1f76 a53d
00000340: ca9f 3fbd c132 6cbd f54d bd3c 9c0e c4bd
00000350: 43de cbbd 74a3 f03d 3ee2 463d a88c 823d
00000360: f7d3 fb3d 1cd8 e63d 237c 58ba da9f 863d
00000370: ecb0 d83c 3e03 973d 6d4f d239 9f84 d2bc
00000380: cca2 2cbe 0c2c cebc 4072 abbd 4d7b c53d
00000390: b2b9 2e3b e26d 993d c1e9 c1bc 2708 293d
000003a0: 4917 9a3d 82a6 15be 8d07 b9bd dfff 7ebd
000003b0: 1fa5 a5bb b0b7 123e 311a 27be a885 cabd
000003c0: 06e3 15be 546c 83bd 8830 f9bd abe2 923d
000003d0: 5714 293d ad02 7fbd 05e0 04be 2abf 9abd
000003e0: 24ac 9d3d b989 a73c 8c16 eabc c5a1 073d
000003f0: 92d4 523c 5176 9abd 6f1a 8a3d 8ae1 9cbd

rnn.bias_ih_l1 f4 [64]
-0.08419139 0.0015914558 -0.094637886 -0.079512805 0.000778605 -0.041273475 0.027550388 0.0028663464
-0.00084772916 0.051413156 0.11874665 0.08323015 0.12703708 0.09360274 0.043747906 0.019150477
-0.087761536 -0.007174111 0.01852909 0.05384609 -0.07469738 0.04899332 -0.09808962 0.0351251
-0.03862948 -0.069433935 -0.020021107 0.024401484 0.08676057 -0.105611205 0.048007846 -0.010480986
0.046427865 -0.11944932 -0.1307435 0.03630386 0.09663814 0.06921843 0.00962669 -0.10355017
-0.04391735 0.038945597 0.060537014 0.076301016 -0.09445768 -0.028548425 -0.029445853 0.016674567
-0.14375085 0.09562472 0.07021818 -0.09986803 -0.06757412 0.09769451 0.018987676 -0.05282188
-0.08909614 -0.10783536 -0.020059368 0.039756745 -0.0029893976 0.074946426 0.05016035 -0.12835708
00000000: 896c acbd 6598 d03a 82d1 c1bd 9cd7 a2bd
00000010: 4c1b 4c3a 600e 29bd 5ab1 e13c 50d9 3b3b
00000020: 243a 5eba 9a96 523d 7231 f33d 9274 aa3d
00000030: 0216 023e cbb2 bf3d 0131 333d 76e1 9c3c
00000040: 52bc b3bd ce14 ebbb 51ca 973c b88d 5c3d
00000050: f1fa 98bd 38ad 483d 36e3 c8bd 56df 0f3d
00000060: f239 1ebd 6133 8ebd 4e03 a4bc 9fe5 c73c
00000070: 87af b13d b04a d8bd e0a3 443d 71b8 2bbc
00000080: 252b 3e3d d8a1 f4bd a0e1 05be 5bb3 143d
00000090: 38ea c53d 64c2 8d3d 44b9 1d3c 1d12 d4bd
000000a0: aee2 33bd 6b85 1f3d a9f5 773d b543 9c3d
000000b0: 0773 c1bd 63de e9bc 6e38 f1bc 1a99 883c
000000c0: 6c33 13be e5d6 c33d 8dce 8f3d 9c87 ccbd
000000d0: 4d64 8abd 0f14 c83d 0b8c 9b3c c15b 58bd
000000e0: 0978 b6bd c9d8 dcbd 8b53 a4bc f8d7 223d
000000f0: c5e9 43bb 837d 993d f074 4d3d 0a70 03be

rnn.bias_hh_l1 f4 [64]
-0.06538583 0.044439565 -0.066752136 0.08194256 0.06699672 -0.049643233 -0.11037298 -0.09098715
0.012016368 0.086037464 -0.07224804 0.08260244 -0.02078918 -0.052136235 -0.0318899 0.051082343
0.061774306 0.030583713 -0.0878058 -0.025715774 0.07282915 0.12322435 0.07838713 0.07602718
-0.042977635 -0.06878585 -0.121478386 0.06983116 0.06152297 -0.065882415 0.050111018 0.08475222
-0.0007904737 0.049680237 0.0372466 0.10415664 -0.021296391 -0.027247623 0.11108867 0.07339179
0.120833226 -0.028826308 0.06296203 -0.13059515 -0.051886495 -0.0063321 0.12512961 -0.022591554
-0.071326494 0.07510916 0.079568036 0.043777194 -0.0736854 0.06318717 0.030519726 -0.12860647
-0.01825588 -0.0063769217 -0.09703785 -0.00795299 0.10104028 -0.009964469 0.037161514 0.07904774
00000000: 02e9 85bd 4306 363d 58b5 88bd 80d1 a73d
00000010: 9435 893d b456 4bbd 3b0b e2bd 7957 babd
00000020: 4de0 443c 6934 b03d c8f6 93bd 782b a93d
00000030: 124e aabc ce8c 55bd fc9e 02bd b83b 513d
00000040: 0e07 7d3d b28a fa3c 87d3 b3bd e3a9 d2bc
00000050: 7327 953d 0c5d fc3d 6e89 a03d 23b4 9b3d
00000060: 5109 30bd 99df 8cbd a9c9 f8bd a403 8f3d
00000070: 83ff 7b3d 5ced 86bd 3641 4d3d 9292 ad3d
00000080: cb37 4fba 817d 4b3d e48f 183d 1450 d53d
00000090: c575 aebc 6836 dfbc 7582 e33d 6f4e 963d
000000a0: 6977 f73d 2625 ecbc 3df2 803d bcba 05be
000000b0: ef86 54bd 817d cfbb fa21 003e ec11 b9bc
000000c0: a013 92bd d5d2 993d 91f4 a23d b74f 333d
000000d0: 5fe8 96bd 4668 813d 8104 fa3c 6ab1 03be
000000e0: 5b8d 95bc 7ff5 d0bb c8bb c6bd 424d 02bc
000000f0: 35ee ce3d 0342 23bc ac36 183d c8e3 a13d
