ckpt/rnn_reg.pt (torch, 177635 bytes, 17 tensors)

rnn.weight_ih_l0 f4 [64, 81]
-0.031399805 0.07279275 0.112245046 -0.0066059795 0.009667627 0.12137821 -0.016008975 -0.068931736
-0.07495347 -0.044799134 0.0766714 -0.09638092 0.043850433 0.07996153 -0.07839429 0.0028107106
-0.06477834 0.12259394 -0.0011607228 -0.1104274 0.09185875 -0.027859079 -0.04035599 -0.07870463
0.13009603 0.040626 0.04896929 -0.12014425 -0.02947233 0.07570303 -0.0005862831 -0.018270642
-0.00011427328 0.0518878 -0.08975103 0.01530478 -0.10329779 -0.0394108 -0.09214478 0.07192605
0.023487153 0.11351649 -0.09561955 0.049644344 -0.10793595 -0.12653731 -0.02332257 0.019674314
-0.09205389 0.059473712 0.025066445 0.117406435 -0.016256161 0.09948679 -0.09212444 0.113300644
0.09808068 0.017161984 -0.0698681 0.11620008 0.021393944 0.00043567998 -0.046935238 -0.03849109
0.06419537 0.081633106 0.031240305 0.11327057 -0.013371646 -0.081968166 -0.115129694 0.11534103
-0.00511589 -0.088624746 -0.09227185 0.08643392 0.0888864 -0.078784876 0.0587367 -0.08226027
0.10136653 -0.038699873 0.09758936 -0.096077465 0.04234493 0.010708968 -0.0923245 -0.010899931
-0.09080377 -0.05255442 0.10294671 -0.057189353 -0.049512718 -0.03578619 0.05934129 0.03615759
0.069575936 -0.09994283 0.08516846 0.118452415 0.102355845 -0.061253414 0.08068305 -0.08883861
-0.12308368 -0.010985313 -0.055470347 0.10631998 -0.08557717 0.039126813 0.04074534 0.005842405
-0.029962348 0.08769344 0.05299724 -0.022032721 0.12087102 0.019715507 -0.12287039 -0.11192842
-0.10880165 0.11052741 -0.09088921 0.11466455 0.00013570044 -0.12620836 0.08545045 0.046253107
0.1189995 -0.115400344 -0.0647274 -0.047741853 0.07464144 0.10430045 0.09478005 0.11304418
0.033709563 0.06460475 0.08771019 0.09173876 0.03658632 0.06305 -0.001473692 0.06830877
-0.026878702 -0.013961948 -0.011417711 0.09073017 0.10571109 0.09699506 -0.06960688 0.094617456
0.042078916 -0.026793601 -0.0053371023 -0.10155005 0.11808297 -0.120927796 -0.11306634 0.014894951
0.048728544 -0.044602923 0.06742365 -0.098332115 0.012438651 -0.08922657 0.08426655 -0.05867502
0.087864526 -0.11785494 -0.031018585 0.005238616 -0.07818365 0.05432762 0.0052867574 -0.045575198
-0.10347626 -0.106871285 -0.08562486 0.095402226 0.06664317 -0.1225838 0.003013207 -0.07160391
0.0896443 -0.03785937 -0.110201634 0.10121719 0.07015785 -0.114229135 0.0075070392 -0.021908943
0.017227579 -0.062364858 0.05102377 0.022365121 0.008329503 0.018928787 0.02847679 -0.0029765149
0.07144809 -0.11995094 0.10160002 -0.064706266 -0.06929786 -0.015542147 0.010505386 0.117830284
0.06947594 -0.07537436 -0.019812858 -0.10360545 -0.008685532 0.12862603 -0.07952175 -0.054933455
-0.013503485 0.11163727 -0.024192674 0.07039066 -0.12080334 0.0026152802 -0.010870179 0.054921057
-0.04303987 0.0004707776 -0.08582152 0.014515348 0.02780534 -0.03159923 -0.1247719 0.049347527
-0.046495464 0.10991679 0.024171546 0.09586733 0.063771605 -0.029769257 -0.013503461 0.123216614
0.06600674 -0.030585969 -0.103222854 0.06431124 0.119830094 0.058845382 0.060796198 0.0758676
0.089982904 0.123557396 0.095501795 0.029994328 0.08452202 0.010861232 -0.020340873 -0.11590807
00000000: 159d 00bd 5e14 953d bbe0 e53d f976 d8bb
00000010: f764 1e3c 2495 f83d 4125 83bc 152c 8dbd
00000020: 3481 99bd 4c7f 37bd e505 9d3d 5c63 c5bd
00000030: 839c 333d dfc2 a33d 2f8d a0bd e633 383b
00000040: 82aa 84bd 8812 fb3d 6523 98ba c327 e2bd
00000050: 7120 bc3d b938 e4bc 534c 25bd e52f a1bd
00000060: e537 053e 7367 263d 0694 483d 300e f6bd
00000070: f56f f1bc 310a 9b3d cbb0 19ba 50ac 95bc
00000080: 00a6 efb8 4d88 543d 63cf b7bd e6c0 7a3c
00000090: cb8d d3bd 386d 21bd 67b6 bcbd f74d 933d
000000a0: 2168 c03c 557b e83d 2fd4 c3bd de57 4b3d
000000b0: 860d ddbd ff92 01be f90e bfbc 072c a13c
000000c0: c086 bcbd b59a 733d 2558 cd3c c972 f03d
000000d0: a42b 85bc bbbf cb3d bdab bcbd 2b0a e83d
000000e0: 86de c83d 4a97 8c3c 0217 8fbd 4ffa ed3d
000000f0: 5a42 af3c fa6b e439 2a3f 40bd d5a8 1dbd
00000100: dd78 833d 422f a73d abeb ff3c 67fa e73d
00000110: c014 5bbc edde a7bd 1ec9 ebbd eb37 ec3d
00000120: 32a3 a7bb e480 b5bd 06f9 bcbd 4404 b13d
00000130: 130a b63d f759 a1bd e595 703d 1378 a8bd
00000140: 4199 cf3d c283 1ebd eedc c73d 43c4 c4bd
00000150: e171 2d3d ab74 2f3c a114 bdbd a095 32bc
00000160: 54f7 b9bd 4e43 57bd bad5 d23d 623f 6abd
00000170: d9cd 4abd 8a94 12bd da0f 733d fb19 143d
00000180: d47d 8e3d d4ae ccbd cd6c ae3d 2e97 f23d
00000190: f19f d13d dce4 7abd 283d a53d 04f1 b5bd
000001a0: 4c13 fcbd befb 33bc e034 63bd 4abe d93d
000001b0: 1543 afbd 7043 203d 96e4 263d a571 bf3b
000001c0: 9973 f5bc 9e98 b33d a213 593d f77d b4bc
000001d0: 3a8b f73d 6a82 a13c 79a3 fbbd ba3a e5bd
000001e0: 66d3 debd 325c e23d 1f24 babd 3fd5 ea3d
000001f0: cf4a 0e39 c43c 01be a500 af3d e673 3d3d
00000200: 03b6 f33d 0457 ecbd cd8f 84bd f68c 43bd
00000210: 9cdd 983d 799b d53d 0b1c c23d b583 e73d
00000220: 0a13 0a3d 7f4f 843d 66a1 b33d 88e1 bb3d
00000230: 89db 153d 5c20 813d e628 c1ba 78e5 8b3d
00000240: b930 dcbc a8c0 64bc 5a11 3bbc bdd0 b93d
00000250: 0e7f d83d 59a5 c63d 0d8e 8ebd ccc6 c13d
00000260: f15a 2c3d 417e dbbc dce2 aebb 79f9 cfbd
00000270: 7cd5 f13d fea8 f7bd 538f e7bd f409 743c
00000280: 9597 473d 8eb1 36bd 6915 8a3d 5962 c9bd
00000290: 7ccb 4b3c 6cbc b6bd f193 ac3d 3855 70bd
000002a0: 51f2 b33d ee5d f1bd b01a febc b2a8 ab3b
000002b0: c01e a0bd a386 5e3d 893c ad3b 0fad 3abd
000002c0: 5deb d3bd 55df dabd 165c afbd 3e62 c33d
000002d0: 377c 883d 370d fbbd 3a79 453b 12a5 92bd
000002e0: 6e97 b73d 6d12 1bbd 65b1 e1bd f54a cf3d
000002f0: ebae 8f3d f7f0 e9bd 9cfd f53b 627a b3bc
00000300: da20 8d3c 4b72 7fbd 4dfe 503d 0f37 b73c
00000310: 7878 083c 8b10 9b3c 2848 e93c a211 43bb
00000320: 6053 923d d7a8 f5bd ac13 d03d b884 84bd
00000330: 09ec 8dbd 7da4 7ebc c81e 2c3c 0151 f13d
00000340: 6749 8e3d df5d 9abd 934e a2bc 182f d4bd
00000350: c34d 0ebc 8bb6 033e 4ddc a2bd e701 61bd
00000360: b93d 5dbc 15a2 e43d b72f c6bc fa28 903d
00000370: be67 f7bd 1f65 2b3b d618 32bc e7f4 603d
00000380: 934a 30bd b3d2 f639 31c3 afbd c8d1 6d3c
00000390: 06c8 e33c 326e 01bd 6988 ffbd a220 4a3d
000003a0: 0772 3ebd 0e1c e13d 6803 c63c 1756 c43d
000003b0: b09a 823d a8de f3bc 9f3d 5dbc fe58 fc3d
000003c0: 8b2e 873d 6d8f fabc 8166 d3bd 9db5 833d
000003d0: 7b69 f53d db07 713d 6f05 793d 7960 9b3d
000003e0: f548 b83d a90b fd3d 7296 c33d aab6 f53c
000003f0: e119 ad3d 4ff3 313c e7a1 a6bc 3661 edbd

rnn.weight_hh_l0 f4 [64, 64]
0.08598974 -0.05733942 -0.08051375 0.109863445 0.12622009 -0.04403185 0.06716312 -0.06333975
-0.000197955 0.0035436577 0.113805436 0.108483575 -0.053054526 0.01816834 0.06989165 0.059722237
-0.041933972 0.08922715 0.11566646 -0.05596482 -0.028004846 -0.057537757 0.06867759 0.020738741
0.042918254 -0.043970816 0.11344252 -0.013988028 -0.07779747 -0.09254115 -0.032032404 -0.07992216
0.044698637 0.09497397 -0.07902334 -0.06490223 0.012101559 0.03725802 -0.06422507 0.07911268
-0.11592746 0.040828098 -0.07742779 -0.07144892 -0.02071787 -0.019472215 0.08799421 0.069008425
0.035700034 0.0669383 -0.087723434 0.054508977 -0.046532698 -0.024476102 -0.086503915 0.08477711
-0.047385607 -0.03439425 -0.037064217 0.015323583 0.013008871 0.11952153 -0.015849136 0.046210095
0.044289824 -0.121615134 -0.08619093 0.05884416 0.057886012 -0.009505326 -0.012050365 -0.059586734
-0.03915738 0.050749224 0.091603264 -0.02493136 -0.07934548 0.08470177 -0.046556257 0.0069281845
0.07965803 0.11310157 0.08133205 -0.049683895 -0.09690481 -0.01721873 -0.10005023 0.113683425
0.060152184 0.041661896 0.018571388 -0.11340448 0.08833024 -0.037351914 0.026494276 -0.05075724
-0.102478795 0.039726462 0.09418223 0.09462258 -0.109561734 0.12760067 -0.110291526 0.12125319
0.087311074 0.07914355 0.10804736 -0.1278641 -0.09986412 0.08740322 -0.03135007 0.12041935
-0.04546847 0.10241692 -0.11507962 -0.016118731 0.07013305 -0.06556674 -0.02086095 -0.104166456
0.05926902 0.08198095 0.015155107 0.07679963 0.06848623 0.07355186 -0.12369251 -0.07926249
-0.05066532 0.033152457 0.105428815 0.006722651 0.096801326 -0.068518355 0.093761526 -0.00024872608
-0.017223833 0.087491095 -0.07664064 0.026865339 0.008128171 0.05731165 0.06756024 0.07628957
-0.038220957 -0.086493075 -0.09349851 0.064174294 -0.014384479 -0.0508094 -0.011385006 0.041648954
-0.025528416 0.014698592 0.055351537 0.015321435 0.017624795 -0.057589855 0.06739034 -0.055240937
0.008608625 0.025753247 -0.04119894 -0.008546227 0.05961803 0.032502346 0.05400421 0.06770905
-0.11492977 -0.006071019 -0.09366753 0.10523304 -0.13885249 0.026726823 0.06897223 -0.04081205
0.01445801 -0.0814303 -0.03340953 -0.067988425 0.0064103524 -0.15038626 -0.08000367 0.013393453
0.059714034 0.027041392 0.12147507 -0.049446825 -0.022617633 0.099718675 0.067355365 0.060515366
-0.0044211634 -0.048301037 -0.070024885 0.021780424 -0.10004897 0.023431405 -0.09636183 -0.11128759
0.039412525 -0.12093294 -0.061610665 -0.10541125 -0.08163732 0.13465938 -0.04663152 0.08203215
-0.10816517 0.090089425 0.118249565 -0.0011618517 -0.027278991 -0.06618194 -0.007042164 0.033444636
-0.058886923 0.047558933 -0.027397964 0.08640019 0.018685477 -0.06999462 -0.09793344 0.07630613
0.0837071 -0.05469159 0.116320096 0.08063943 -0.086514056 -0.03531454 -0.06490972 0.06141671
0.12819833 -0.10552416 0.109124936 0.039659284 -0.08372209 -0.072981134 0.11254388 0.10548497
0.07104663 -0.082422525 -0.06361274 0.089330964 -0.020286154 -0.03986856 -0.08088833 0.09393085
-0.08834705 -0.07123233 0.10811883 0.0077515594 0.04857944 0.06643975 -0.046653394 -0.01728989
00000000: 641b b03d bddc 6abd 65e4 a4bd 1600 e13d
00000010: d73f 013e be5a 34bd d18c 893d 45b8 81bd
00000020: 2492 4fb9 b63c 683b d312 e93d a32c de3d
00000030: b44f 59bd c5d5 943c 5a23 8f3d 4e9f 743d
00000040: f5c2 2bbd b9bc b63d 89e2 ec3d 5e3b 65bd
00000050: 6b6a e5bc b6ac 6bbd d6a6 8c3d 4be4 a93c
00000060: 0dcb 2f3d be1a 34bd 8d54 e83d 0b2e 65bc
00000070: 4854 9fbd 3786 bdbd 6934 03bd 3bae a3bd
00000080: eb15 373d b681 c23d fdd6 a1bd 76eb 84bd
00000090: 9e45 463c de9b 183d 6f88 83bd d405 a23d
000000a0: 606b edbd 5d3b 273d 7692 9ebd d053 92bd
000000b0: 86b8 a9bc 3284 9fbc 4f36 b43d 4a54 8d3d
000000c0: 333a 123d f316 893d 58a8 b3bd ce44 5f3d
000000d0: 1299 3ebd 1b82 c8bc f728 b1bd 9f9f ad3d
000000e0: 6917 42bd fce0 0cbd a6d0 17bd c40f 7b3c
000000f0: 2923 553c b4c7 f43d 0cd6 81bc cc46 3d3d
00000100: 3f69 353d 5b11 f9bd df84 b0bd 9306 713d
00000110: e219 6d3d 3abc 1bbc e56e 45bc 3811 74bd
00000120: 7d63 20bd 6bde 4f3d 7e9a bb3d da3c ccbc
00000130: e27f a2bd 1f78 ad3d c6b1 3ebd d305 e33b
00000140: c023 a33d cca1 e73d 6b91 a63d 5781 4bbd
00000150: 0776 c6bd 4b0e 8dbc 23e7 ccbd dbd2 e83d
00000160: 2362 763d aaa5 2a3d 0623 983c 9c40 e8bd
00000170: 7ce6 b43d 52fe 18bd 860a d93c d3e6 4fbd
00000180: 67e0 d1bd 37b8 223d 9de2 c03d 7cc9 c13d
00000190: e761 e0bd c0a9 023e 86e0 e1bd 9853 f83d
000001a0: 26d0 b23d 0316 a23d ef47 dd3d ceee 02be
000001b0: 8f85 ccbd 7600 b33d ee68 00bd 6c9e f63d
000001c0: 253d 3abd f6bf d13d ddae ebbd 6e0b 84bc
000001d0: eba1 8f3d db47 86bd 95e4 aabc 3955 d5bd
000001e0: 12c4 723d a1e5 a73d 204d 783c 2049 9d3d
000001f0: 8242 8c3d 5ca2 963d 8052 fdbd 5f54 a2bd
00000200: 7086 4fbd dfca 073d 10eb d73d af49 dc3b
00000210: c63f c63d 5a53 8cbd 0b06 c03d 7367 82b9
00000220: ff18 8dbc 882e b33d c5f5 9cbd b314 dc3c
00000230: 052c 053c 9fbf 6a3d 065d 8a3d b53d 9c3d
00000240: 948d 1cbd 4823 b1bd 267c bfbd d06d 833d
00000250: e1ac 6bbc 841d 50bd 2d88 3abc 1898 2a3d
00000260: f820 d1bc 5dd2 703c 4bb8 623d c206 7b3c
00000270: e061 903c 57e3 6bbd f203 8a3d 5244 62bd
00000280: 310b 0d3c 79f8 d23c 38c0 28bd 7905 0cbc
00000290: 0932 743d 2e21 053d 8533 5d3d 0bab 8a3d
000002a0: 4d60 ebbd 66ef c6bb c3d4 bfbd 6c84 d73d
000002b0: 592f 0ebe 36f2 da3c 5041 8d3d 892a 27bd
000002c0: 4ae1 6c3c eec4 a6bd 6ed8 08bd 843d 8bbd
000002d0: ef0d d23b dbfe 19be f7d8 a3bd 3770 5b3c
000002e0: b496 743d e985 dd3c ecc7 f83d c188 4abd
000002f0: 9d48 b9bc 4e39 cc3d 9cf1 893d f6de 773d
00000300: 68df 90bb 4fd7 45bd 3569 8fbd dc6c b23c
00000310: 79e6 ccbd 38f3 bf3c 5a59 c5bd bfea e3bd
00000320: 076f 213d b0ab f7bd 775b 7cbd dae1 d7bd
00000330: 7831 a7bd 26e4 093e b100 3fbd 7900 a83d
00000340: b385 ddbd ce80 b83d d42c f23d 4649 98ba
00000350: 3178 dfbc 668a 87bd f4c1 e6bb 3efd 083d
00000360: 6a33 71bd 28cd 423d b271 e0bc 95f2 b03d
00000370: 4912 993c 5759 8fbd 5491 c8bd 6346 9c3d
00000380: a16e ab3d 4a04 60bd 3b39 ee3d 4926 a53d
00000390: 482e b1bd fba5 10bd 63ef 84bd 1790 7b3d
000003a0: 6c46 033e 0d1d d8bd e57c df3d c671 223d
000003b0: 7d76 abbd 2277 95bd 687d e63d 8108 d83d
000003c0: e580 913d 24cd a8bd 6547 82bd 27f3 b63d
000003d0: 262f a6bc 374d 23bd c8a8 a5bd d15e c03d
000003e0: 4cef b4bd 41e2 91bd 686d dd3d cb00 fe3b
000003f0: 3cfb 463d 9011 883d a117 3fbd 87a3 8dbc

rnn.bias_ih_l0 f4 [64]
-0.05463054 0.036193535 0.03941236 -0.016941639 -0.08559438 0.045755543 -0.046817157 0.07636615
0.108789325 0.11867668 -0.061724626 0.08733383 -0.13408157 0.05391113 0.074105404 0.010135259
-0.0635958 -0.104797706 0.09537414 -0.063944675 0.08057419 -0.061145414 0.11514222 -0.05858979
0.08072913 0.0057840054 0.12783903 0.12484594 -0.08223722 0.12065254 0.03134825 0.02895788
0.040783998 -0.0350017 0.05973374 0.096783444 -0.06733195 -0.033957537 0.02509379 0.07413741
-0.12219242 -0.0034881735 0.011746274 -0.11275005 -0.11556798 0.03571427 -0.049544454 0.059322633
0.14053683 0.0662956 0.046905667 0.02482708 -0.0010040421 0.051101338 -0.058335237 0.09050392
-0.036148887 -0.09138769 0.040208917 -0.0897979 -0.06353538 0.07607054 0.10954923 0.065097526
00000000: 46c4 5fbd ac3f 143d db6e 213d 31c9 8abc
00000010: 1b4c afbd 2a6a 3b3d 59c3 3fbd db65 9c3d
00000020: f0cc de3d c20c f33d f6d2 7cbd 14dc b23d
00000030: ae4c 09be ebd1 5c3d 93c4 973d 5b0e 263c
00000040: 843e 82bd 2ea0 d6bd 8453 c33d 6df5 82bd
00000050: 1504 a53d 9d73 7abd afcf eb3d d9fb 6fbd
00000060: 5055 a53d c187 bd3b 3ce8 023e 3aaf ff3d
00000070: fd6b a8bd ae18 f73d 0667 003d 1339 ed3c
00000080: 1f0d 273d f15d 0fbd 5eab 743d 6636 c63d
00000090: 55e5 89bd 0f17 0bbd 7e91 cd3c 5bd5 973d
000000a0: 0540 fabd d799 64bb 7273 403c 80e9 e6bd
000000b0: e8ae ecbd 2049 123d 20ef 4abd 4afc 723d
000000c0: e3e8 0f3e fdc5 873d 2820 403d 2962 cb3c
000000d0: 109a 83ba a34f 513d eef0 6ebd 1f5a b93d
000000e0: db10 14bd 7829 bbbd 1bb2 243d f6e7 b7bd
000000f0: d61e 82bd dfca 9b3d 595b e03d da51 853d

rnn.bias_hh_l0 f4 [64]
0.06680833 -0.056913644 0.11836516 -0.010092963 0.058720723 0.060189836 -0.008668513 -0.05869331
0.03895369 0.10288274 0.104589015 -0.10320954 -0.110525884 -0.13158035 0.11258686 0.014618812
0.078056626 0.0083318325 0.049665403 0.04600071 0.12644593 -0.02304975 -0.072188206 -0.042176947
0.14342473 -0.10826853 -0.10256586 0.064989656 -0.07009664 -0.09509413 0.053268638 0.07995582
-0.01023368 -0.063870125 -0.10283723 0.082434356 -0.05272175 -0.05840708 -0.06783954 0.008458872
0.012413352 -0.1155019 0.028447526 0.05863102 -0.10656324 0.06375687 0.025673628 -0.046829768
0.04241856 0.09997459 -0.07042452 -0.03123966 0.024195602 -0.13471098 -0.100809656 -0.06903424
0.06990429 -0.12488645 0.096657164 -0.04975948 0.06527992 -0.08986508 0.09046425 -0.10811196
00000000: ced2 883d 481e 69bd 6f69 f23d f55c 25bc
00000010: 2485 703d 9e89 763d 6106 0ebc 6568 70bd
00000020: e88d 1f3d 30b4 d23d c432 d63d 865f d3bd
00000030: 655b e2bd 00bd 06be f193 e63d be83 6f3c
00000040: 27dc 9f3d 3d82 083c f36d 4b3d 3e6b 3c3d
00000050: 0b7b 013e d4d2 bcbc 69d7 93bd bcc1 2cbd
00000060: efdd 123e e4bb ddbd 0d0e d2bd 4c19 853d
00000070: d48e 8fbd b6c0 c2bd 3730 5a3d e1bf a33d
00000080: 2aab 27bc 57ce 82bd 539c d2bd 58d3 a83d
00000090: c3f2 57bd 433c 6fbd 75ef 8abd 1597 0a3c
000000a0: 5f61 4b3c 438c ecbd c90a e93c 1527 703d
000000b0: d43d dabd f692 823d 8051 d23c 92d0 3fbd
000000c0: 15bf 2d3d 7abf cc3d bb3a 90bd 51ea ffbc
000000d0: db35 c63c adf1 09be 4b75 cebd d361 8dbd
000000e0: fb29 8f3d 78c4 ffbd 31f4 c53d 99d0 4bbd
000000f0: 7bb1 853d 2f0b b8bd 5245 b93d ce69 ddbd

rnn.weight_ih_l0_reverse f4 [64, 81]
-0.07776747 -0.072743215 0.0008763957 0.06957149 -0.11378277 0.032639857 0.02528243 -0.049854472
-0.04122908 0.091787525 0.063799 0.017139731 -0.103107296 0.11261981 0.09038425 -0.0025479882
-0.1274742 0.045511875 0.118253306 -0.0012129075 -0.007898339 0.11799433 0.03926145 0.060973417
0.10622006 -0.08640194 0.120333664 0.007666101 0.0011201822 0.007724528 -0.10912142 0.016301697
0.068558365 -0.07930671 0.008075839 0.0051815044 0.07476345 -0.088011295 -0.10929602 0.07438566
0.009564616 0.11792448 0.06951843 -0.07987667 -0.03513388 -0.028596668 0.032390825 0.12034513
-0.08834759 0.07653078 -0.044232253 0.09123203 -0.018687624 -0.058268365 0.064653754 -0.032368988
0.119483925 -0.043124914 -0.020538975 -0.031102246 0.10202254 -0.09653837 -0.11892385 -0.035064187
-0.07853674 0.020117044 -0.045130104 0.03968975 -0.053722225 0.0489676 0.10296204 -0.004580181
0.03212399 -0.08023339 -0.11010598 -0.028226338 0.029484008 0.015573738 0.044810448 -0.015649607
-0.07216337 0.11343178 0.100957565 -0.08747859 0.0072264317 -0.057865016 -0.050149642 -0.08337627
3.0578318e-05 -0.043275863 -0.0019136384 0.08363819 -0.07061863 -0.03398465 -0.026405487 -0.09016084
-0.006593821 -0.0981983 0.051123735 -0.07508611 -0.045588944 -0.105424225 -0.056557406 0.13206479
0.09468325 -0.099099666 0.09071161 -0.031747777 -0.092561014 0.06456938 -0.019748662 0.10406562
0.036778368 -0.1129355 -0.0671927 -0.06768203 -0.053932156 -0.06690851 -0.11401121 -0.079760306
0.067357406 0.017510595 -0.018955229 0.11621722 -0.08623271 0.020830084 -0.091265514 -0.0823478
0.011128681 0.054972332 0.10286497 0.09438537 0.0010633093 0.09774923 -0.019300168 -0.09525825
-0.03634368 0.124587856 -0.018426882 0.07450831 0.009052115 0.096759416 0.0190084 -0.08221299
-0.08949523 -0.027519796 0.048665307 0.09352709 -0.10369428 -0.009079348 0.033245888 0.04773912
-0.023307204 -0.021474585 -0.06258782 -0.088150494 -0.005838808 -0.023642847 0.0699929 0.048219677
-0.012723575 0.072503366 -0.0873359 -0.032112196 0.1077992 -0.10154782 -0.02015585 0.019265775
0.036278684 0.08608533 -0.109434165 0.016334878 0.06749523 0.101961985 -0.0005615363 0.057773843
-0.01419592 0.069888905 0.041613985 -0.03110257 -0.02070599 0.014900233 -0.032862253 -0.12846632
0.031038282 0.053936534 0.03704265 0.117216915 0.084443115 -0.014109833 -0.10161229 -0.0037998818
0.05716363 -0.058393802 -0.0011050897 -0.034435723 0.044413883 0.105451465 0.09698406 -0.098968334
-0.0069716605 0.0014263061 -0.049862865 0.03802003 -0.024057752 -0.06912074 0.0010700369 0.07930846
0.0015190712 0.100503914 0.078337654 0.073616646 -0.05520265 0.087878324 -0.10782169 -0.0033119635
0.11339592 -0.13670006 -0.037218206 0.10313218 -0.050758336 -0.01684217 -0.101558484 -0.117802136
0.024902804 -0.03755783 -0.101719216 -0.078428544 -0.106168 -0.12345288 0.0641253 0.0033349704
-0.08636829 -0.052361023 0.057853844 0.075401954 -0.09018428 0.045220476 -0.06185673 -0.050314464
-0.0789314 0.090121605 0.035494145 -0.021152886 0.06285081 -0.068753526 0.05000413 -0.041047256
0.03467671 0.09552751 0.062067896 -0.10952418 -0.08523185 -0.042810537 -0.12045605 -0.07537218
00000000: 8d44 9fbd 65fa 94bd ebbd 653a 7f7b 8e3d
00000010: f106 e9bd 5fb1 053d 191d cf3c 3434 4cbd
00000020: d3df 28bd 19fb bb3d 0da9 823d 9f68 8c3c
00000030: eb29 d3bd 37a5 e63d 611b b93d 26fc 26bb
00000040: 9988 02be a96a 3a3d ca2e f23d 6cfa 9eba
00000050: 0968 01bc 03a7 f13d 9dd0 203d 43bf 793d
00000060: e789 d93d 80f3 b0bd 7f71 f63d eb33 fb3b
00000070: 14d3 923a 0a1e fd3b 0d7b dfbd 238b 853c
00000080: 5468 8c3d 8e6b a2bd 8650 043c 9cc9 a93b
00000090: 941d 993d 443f b4bd 97d6 dfbd 8257 983d
000000a0: e8b4 1c3c 6482 f13d ae5f 8e3d 6196 a3bd
000000b0: 8be8 0fbd 8f43 eabc 3eac 043d 8277 f63d
000000c0: 95ef b4bd 2bbc 9c3d e12c 35bd dcd7 ba3d
000000d0: ca16 99bc cfaa 6ebd 3069 843d 5895 04bd
000000e0: fdb3 f43d c0a3 30bd 5a41 a8bc 23ca febc
000000f0: 32f1 d03d e9b5 c5bd 598e f3bd 779f 0fbd
00000100: dfd7 a0bd 80cc a43c 58da 38bd b891 223d
00000110: d60b 5cbd 4092 483d c3dd d23d 5815 96bb
00000120: 7294 033d 6751 a4bd 3e7f e1bd ec3a e7bc
00000130: 7288 f13c fe28 7f3c 298b 373d 9b33 80bc
00000140: 64ca 93bd ec4e e83d d7c2 ce3d fa27 b3bd
00000150: b4cb ec3b de03 6dbd b669 4dbd 2ec1 aabd
00000160: 3841 0038 0842 31bd 0dd3 faba 804a ab3d
00000170: 80a0 90bd 7d33 0bbd 5250 d8bc 3fa6 b8bd
00000180: fb10 d8bb 311c c9bd 1f67 513d bfc6 99bd
00000190: 79bb 3abd a8e8 d7bd bda8 67bd fe3b 073e
000001a0: 4be9 c13d c4f4 cabd 02c7 b93d f509 02bd
000001b0: a190 bdbd f33c 843d f2c7 a1bc 5b20 d53d
000001c0: eaa4 163d ba4a e7bd 549c 89bd e09c 8abd
000001d0: f7e7 5cbd 5407 89bd b67e e9bd 5f59 a3bd
000001e0: aef2 893d 6172 8f3c ff47 9bbc 4b03 ee3d
000001f0: c69a b0bd daa3 aa3c 6ae9 babd f7a5 a8bd
00000200: 1255 363c ab2a 613d dfaa d23d 1e4d c13d
00000210: bd5e 8b3a c030 c83d 631b 9ebc c216 c3bd
00000220: 1cdd 14bd eb27 ff3d f9f3 96bc d097 983d
00000230: 524f 143c cd29 c63d 81b7 9b3c 495f a8bd
00000240: 4649 b7bd 3271 e1bc 4655 473d 228b bf3d
00000250: ab5d d4bd 8cc1 14bc d72c 083d 188a 433d
00000260: c0ee bebc 78eb afbc 0b2e 80bd 3f88 b4bd
00000270: 7953 bfbb a5ae c1bc 7058 8f3d ff81 453d
00000280: 8b76 50bc a57c 943d 2add b2bd 1488 03bd
00000290: d4c5 dc3d 4ef8 cfbd e21d a5bc 42d3 9d3c
000002a0: f598 143d 814d b03d 051f e0bd b9d0 853c
000002b0: f03a 8a3d 72d1 d03d 1034 13ba 44a4 6c3d
000002c0: 0196 68bc ea21 8f3d 6d73 2a3d d1ca febc
000002d0: 9c9f a9bc 1b20 743c 929a 06bd ad8c 03be
000002e0: ff43 fe3c 8eec 5c3d 09ba 173d 6c0f f03d
000002f0: 83f0 ac3d ee2c 67bc 1b1a d0bd 7007 79bb
00000300: 6924 6a3d 572e 6fbd a8d8 90ba 790c 0dbd
00000310: 55eb 353d f0f6 d73d 949f c63d e9af cabd
00000320: 8772 e4bb e4f2 ba3a 013d 4cbd e4ba 1b3d
00000330: c314 c5bc 2d8f 8dbd 7b40 8c3a 796c a23d
00000340: 921b c73a ffd4 cd3d 7e6f a03d 53c4 963d
00000350: 2d1c 62bd 8df9 b33d 9ed1 dcbd 870d 59bb
00000360: 1f3c e83d 1afb 0bbe 1e72 18bd f736 d33d
00000370: f9e7 4fbd 97f8 89bc e5fd cfbd 3f42 f1bd
00000380: f700 cc3c 3dd6 19bd 2a52 d0bd 259f a0bd
00000390: 9c6e d9bd ddd4 fcbd 2054 833d 858f 5a3b
000003a0: dce1 b0bd 8378 56bd 27f8 6c3d 576c 9a3d
000003b0: 89b2 b8bd 1b39 393d 7c5d 7dbd 8a16 4ebd
000003c0: c9a6 a1bd ad91 b83d 4f62 113d d148 adbc
000003d0: edb7 803d a6ce 8cbd 21d1 4c3d 2b21 28bd
000003e0: 2a09 0e3d eda3 c33d e83a 7e3d 374e e0bd
000003f0: 098e aebd 1a5a 2fbd a9b1 f6bd bb5c 9abd

rnn.weight_hh_l0_reverse f4 [64, 64]
-0.08424971 0.05573633 -0.043627363 0.12306807 -0.13554852 -0.070870414 -0.09040499 -0.15189563
-0.04840069 -0.065784484 -0.09140475 0.109498054 -0.07436263 0.12657201 -0.021948155 0.0071710018
0.080778755 -0.0662359 -0.040324315 -0.0059426194 0.008497085 0.04082527 0.073547736 0.06969846
-0.014193492 -0.0167323 0.07731634 -0.12707296 0.063806325 0.10616863 0.022195406 0.09400003
-0.0386154 0.059761148 -0.112912916 0.07538738 -0.01797251 0.08954606 -0.05866524 0.028702004
-0.02102194 -0.11175731 0.04742348 0.1091342 -0.077166684 -0.043905605 -0.011103243 -0.08841983
-0.05350469 0.08620053 -0.06633845 -0.12645352 0.011953396 -0.039179206 -0.00081595447 0.07854679
-0.10624515 0.051830947 0.079095475 -0.0100246705 -0.10752907 0.009938733 0.023032244 0.009964733
0.023374705 0.05522507 0.10017803 -0.031903848 -0.057357337 0.04937857 0.040287543 0.07598536
-0.04177609 -0.03761081 -0.100445874 -0.09040668 -0.046514302 -0.03361859 -0.07902104 0.039628014
-0.09526995 -0.0501727 -0.08085254 0.0993126 0.06148372 -0.022575429 -0.039594397 -0.09182323
-0.12198438 -0.09452801 -0.11846952 0.094808504 -0.05185399 0.08924449 -0.04553422 0.09137216
-0.07878977 0.05299597 0.124777004 0.1296371 -0.054439623 -0.14728254 0.07773476 0.05870814
0.017284436 0.022431992 -0.0054413714 0.0062219463 -0.0012995609 0.07746999 0.07508692 0.053145006
-0.015500058 0.04387463 0.03242171 -0.04357226 0.017233979 0.089968055 0.070229255 -0.0019971337
0.06329485 -0.020208513 -0.016301004 0.09599759 0.053440616 -0.07577427 -0.06379266 -0.07099772
0.051935762 -0.026537122 0.027312135 0.12061373 0.05829379 0.010717767 -0.03424935 0.10755018
-0.0030011784 -0.077912696 0.06652237 0.092901185 -0.006570656 0.09010633 0.060848985 0.07711104
-0.10468413 -0.07474787 0.046193283 -0.063747086 0.014938519 0.014642848 -0.09407642 -0.044145204
-0.062689885 -0.021634633 0.018704087 -0.11890744 0.03801449 -0.08415836 0.05962239 0.073841035
0.06436576 -0.0033211305 0.11557009 0.004356302 0.02957324 -0.006234287 0.12675528 0.114119366
-0.01009002 -0.0028581494 -0.13059886 0.09473811 -0.103843465 -0.001051787 0.053658903 0.0549486
-0.054257743 0.052547667 -0.03373173 0.050692417 0.06979502 -0.0020874946 -0.019839354 0.022526646
0.088374965 -0.047624324 -0.034661457 -0.0015475702 0.07930326 0.10331087 -0.12421065 -0.04761479
0.10344864 0.07181537 -0.11675935 -0.09649061 0.02312275 0.006006013 -0.05601567 0.0013590975
-0.04476359 -0.10609227 0.11665823 -0.11987458 0.044934303 0.0023204412 -0.0026164379 0.11899722
0.13327838 0.07231706 -0.116484225 0.08534838 -0.05880462 0.013005213 0.046292335 0.007901885
0.080360174 0.02963757 0.08126709 0.049652483 -0.041350923 0.024869319 0.035611615 0.09723713
-0.09174089 0.1057258 0.08005032 -0.037609037 0.09235356 0.04588564 0.02365157 -0.090390176
0.105924994 0.0712794 -0.11049971 -0.055451557 0.074624054 -0.025455032 0.108535536 -0.006196411
-0.040939152 -0.06914479 0.04566314 0.047958214 -0.0020861882 0.13620625 -0.12224484 0.020696199
-0.0861332 -0.041173894 0.024661692 0.08695373 0.067580335 0.06462865 -0.0064091575 0.034397364
00000000: 1d8b acbd c74b 643d 9bb2 32bd 1d0b fc3d
00000010: 3bcd 0abe 8224 91bd 4026 b9bd 878a 1bbe
00000020: cd3f 46bd 04ba 86bd 6a32 bbbd 8440 e03d
00000030: 6f4b 98bd 189c 013e 9ecc b3bc b9fa ea3b
00000040: 556f a53d b0a6 87bd 1c2b 25bd 4eba c2bb
00000050: 5c37 0b3c 6638 273d 32a0 963d 11be 8e3d
00000060: d28b 68bc 2d12 89bc 0758 9e3d 6a1f 02be
00000070: e4ac 823d f06e d93d 24d3 b53c 1683 c03d
00000080: 2f2b 1ebd 1bc8 743d e33e e7bd b364 9a3d
00000090: 163b 93bc ed63 b73d f64a 70bd 7720 eb3c
000000a0: 3436 acbc 04e1 e4bd 1f3f 423d c081 df3d
000000b0: 9109 9ebd 5dd6 33bd 60ea 35bc 7515 b5bd
000000c0: bc27 5bbd e789 b03d 74dc 87bd 087d 01be
000000d0: 2dd8 433c 607a 20bd c7e5 55ba 24dd a03d
000000e0: 0f97 d9bd b04c 543d cffc a13d 843e 24bc
000000f0: 3338 dcbd 11d6 223c 1eae bc3c 1f43 233c
00000100: 4f7c bf3c af33 623d 242a cd3d 9cad 02bd
00000110: 87ef 6abd 2f41 4a3d 8d04 253d 369e 9b3d
00000120: 681d 2bbd cb0d 1abd 91b6 cdbd 2327 b9bd
00000130: c885 3ebd a6b3 09bd c8d5 a1bd fc50 223d
00000140: e41c c3bd e481 4dbd 0496 a5bd 6864 cb3d
00000150: 5ad6 7b3d 1bf0 b8bc bc2d 22bd d10d bcbd
00000160: f2d2 f9bd e797 c1bd 26a0 f2bd f62a c23d
00000170: d964 54bd d1c5 b63d 1782 3abd 5421 bb3d
00000180: 885c a1bd 4d12 593d 168b ff3d 97bf 043e
00000190: 15fc 5ebd 3cd1 16be 6733 9f3d f277 703d
000001a0: 1798 8d3c 4cc3 b73c 884d b2bb 78e1 cb3b
000001b0: 0756 aaba 96a8 9e3d 2cc7 993d 94ae 593d
000001c0: f5f3 7dbc e2b5 333d a1cc 043d d378 32bd
000001d0: 462e 8d3c 2c41 b83d 5bd4 8f3d 58e2 02bb
000001e0: bba0 813d 538c a5bc af89 85bc 629a c43d
000001f0: 8ce4 5a3d 8a2f 9bbd baa5 82bd 4167 91bd
00000200: 98ba 543d 6164 d9bc b3bd df3c 5504 f73d
00000210: 78c5 6e3d 9399 2f3c 0c49 0cbd 4543 dc3d
00000220: 6baf 44bb b190 9fbd e13c 883d fa42 be3d
00000230: a84e d7bb ab89 b83d c93c 793d 65ec 9d3d
00000240: a264 d6bd 6915 99bd 2b35 3d3d d58d 82bd
00000250: b1c0 743c 8ee8 6f3c 23ab c0bd 9ad1 34bd
00000260: 8e63 80bd 1d3b b1bc 5039 993c be85 f3bd
00000270: 15b5 1b3d 385b acbd 9b36 743d f839 973d
00000280: 32d2 833d 53a7 59bb 03b0 ec3d 4fbf 8e3b
00000290: 9443 f23c fd48 ccbb 23cc 013e 6ab7 e93d
000002a0: 9c50 25bc ca4f 3bbb b5bb 05be 0e06 c23d
000002b0: e2ab d4bd 1edc 89ba 70c9 5b3d c811 613d
000002c0: 5e3d 5ebd 393c 573d 482a 0abd daa2 4f3d
000002d0: b1f0 8e3d 59ce 08bb 2486 a2bc cd89 b83c
000002e0: effd b43d b911 43bd 2cf9 0dbd d7d7 caba
000002f0: bf69 a23d a694 d33d 2762 febd ba07 43bd
00000300: e1dc d33d f013 933d 871f efbd de9c c5bd
00000310: ec6b bd3c 17ce c43b b070 65bd bf23 b23a
00000320: 075a 37bd e746 d9bd 83ea ee3d ce80 f5bd
00000330: 080d 383d 8b12 183b 8b78 2bbb d1b4 f33d
00000340: 217a 083e f71a 943d 488f eebd 22cb ae3d
00000350: 1ddd 70bd d113 553c 089d 3d3d e876 013c
00000360: e093 a43d 7dca f23c 5c6f a63d 6760 4b3d
00000370: 965f 29bd beba cb3c 7cdd 113d 4324 c73d
00000380: a6e2 bbbd c586 d83d 6cf1 a33d ef0b 1abd
00000390: dd23 bd3d 95f2 3b3d f0c0 c13c 7c1e b9bd
000003a0: 34ef d83d effa 913d ac4d e2bd 2c21 63bd
000003b0: 7fd4 983d 1287 d0bc e147 de3d 430b cbbb
000003c0: d0af 27bd c99b 8dbd 4609 3b3d d56f 443d
000003d0: 6eb8 08bb a779 0b3e 815b fabd 138b a93c
000003e0: 9a66 b0bd f5a5 28bd 5107 ca3c cc14 b23d
000003f0: 8f67 8a3d 075c 843d e903 d2bb 40e4 0c3d

rnn.bias_ih_l0_reverse f4 [64]
-0.09893064 0.05778783 -0.048133563 -0.10537079 0.013314116 0.10412084 -0.09598849 -0.053178065
-0.012918549 -0.0163181 -0.028713247 -0.050495524 0.038098827 0.065902814 0.11179545 -0.08270627
-0.08839578 0.106062725 0.00092781824 0.042437963 -0.101975024 -0.017354103 0.13893227 -0.030263249
-0.049212355 0.06310883 -0.05563908 0.06691566 0.064165875 0.07725294 0.07847011 0.058608998
-0.083996125 0.03294577 -0.11757725 0.054087568 0.00030204054 0.13488814 -0.042821493 -0.036475748
-0.030900352 0.04416061 -0.05805 0.033893455 0.10250569 -0.05844682 -0.08247198 -0.10880148
-0.029757354 0.050369434 -0.080494165 0.085297436 -0.07365163 0.024133576 -0.12565728 0.05336981
0.0799299 -0.086621694 0.043379333 -0.010006586 0.018053817 -0.08845174 0.09668225 0.030745536
00000000: 269c cabd eeb2 6c3d b327 45bd a4cc d7bd
00000010: 7323 5a3c 4f3d d53d 9d95 c4bd 3ed1 59bd
00000020: 52a8 53bc 89ad 85bc 0b38 ebbc 65d4 4ebd
00000030: 840d 1c3d 0ef8 863d 03f5 e43d e861 a9bd
00000040: d908 b5bd 6a37 d93d d438 733a 6ed3 2d3d
00000050: 48d8 d0bd 312a 8ebc 4344 0e3e a2ea f7bc
00000060: e592 49bd 343f 813d cee5 63bd 140b 893d
00000070: 6669 833d ca36 9e3d f0b4 a03d fd0f 703d
00000080: 2906 acbd 25f2 063d 57cc f0bd ed8a 5d3d
00000090: 325b 9e39 1e20 0a3e 9765 2fbd 9867 15bd
000000a0: bc22 fdbc c1e1 343d d6c5 6dbd ddd3 0a3d
000000b0: 81ee d13d ef65 6fbd 12e7 a8bd 4fd3 debd
000000c0: b2c5 f3bc 2e50 4e3d 20da a4bd 6cb0 ae3d
000000d0: aad6 96bd c7b3 c53c 4dac 00be 4d9a 5a3d
000000e0: 4ab2 a33d b766 b1bd 87ae 313d aaf2 23bc
000000f0: 99e5 933c 3026 b5bd 5801 c63d 10de fb3c

rnn.bias_hh_l0_reverse f4 [64]
0.084267825 0.08810978 0.026311452 0.005315293 0.08744205 -0.034818012 0.044458885 0.032364644
-0.07484251 0.020188691 0.030966064 0.1260532 -0.02443954 -0.03987016 -0.10795804 -0.061914694
-0.022484351 0.023345673 0.020010598 -0.03130166 -0.05625805 0.11450838 0.029089792 0.11113356
-0.052751523 -0.032142017 -0.012787344 -0.00600184 0.0009962012 -0.052292086 0.045261312 0.08260496
0.0802929 0.04779472 -0.10171964 -0.017870357 0.051082898 0.14140595 0.031063333 -0.03949693
-0.016791154 -0.10788069 0.08890955 -0.11989186 -0.056095313 -0.00034136284 -0.10110602 0.007724678
-0.11404086 0.013477855 0.004694386 -0.07286094 -0.050792046 -0.104270086 -0.12905343 0.0073870607
-0.12511826 0.04324684 -0.042805437 0.021474954 -0.00015470902 -0.0026691302 0.09583984 -0.09301888
00000000: 9c94 ac3d e672 b43d 1d8b d73c e92b ae3b
00000010: d114 b33d 559d 0ebd 851a 363d ca90 043d
00000020: 0847 99bd c162 a53c 8bac fd3c 1714 013e
00000030: 6e35 c8bc e54e 23bd 1b19 ddbd 439a 7dbd
00000040: 1a31 b8bc 6d3f bf3c 44ed a33c 2b36 00bd
00000050: d76e 66bd 5f83 ea3d b74d ee3c fe99 e33d
00000060: fb11 58bd 59a7 03bd 0282 51bc 15ab c4bb
00000070: f792 823a 3a30 56bd ed63 393d ca2c a93d
00000080: 9b70 a43d 65c4 433d 6352 d0bd db64 92bc
00000090: 4d3c 513d b9cc 103e 8878 fe3c 88c7 21bd
000000a0: 9a8d 89bc 8df0 dcbd 3616 b63d dd89 f5bd
000000b0: 33c4 65bd f2f8 b2b9 ac10 cfbd 4c1f fd3b
000000c0: 418e e9bd 39d2 5c3c 5dd3 993b 1e38 95bd
000000d0: 520b 50bd 8e8b d5bd 9526 04be 280f f23b
000000e0: 001f 00be 9923 313d c154 2fbd 3eec af3c
000000f0: 6339 22b9 93ec 2ebb ae47 c43d af80 bebd

rnn.weight_ih_l1 f4 [64, 128]
0.07487301 -0.037623048 0.08331749 0.05918824 -0.07134233 0.008885899 -0.07942129 0.00021461703
-0.079728484 0.018370906 -0.0571145 -0.054488476 -0.035598606 -0.11459161 0.0024354118 -0.046557527
-0.083758645 0.12219072 -0.04259681 0.083721876 -0.1309182 0.011390976 0.08111557 -0.055623733
0.049625654 -0.09650223 0.026461257 -0.10502903 0.09594312 -0.10848222 -0.115905955 -0.10424478
0.058134228 0.0088219885 -0.07870075 -0.023962567 0.06325631 0.021223927 0.025773859 -0.052131727
0.0014798274 0.10156957 0.06439524 -0.025925476 -0.09328173 -0.05953606 -0.04217196 0.09037456
0.07346519 -0.04337864 0.09755386 -0.081133105 0.03815538 -0.015138642 -0.11759747 0.014273943
-0.09933697 -0.094342776 0.008033361 -0.013147287 -0.06092903 0.033298295 0.07846939 0.084387176
-0.10508068 0.0736599 -0.052524135 0.07477573 -0.11903104 -0.11184049 0.0107212225 -8.670015e-05
0.03514218 -0.06357061 0.037164208 -0.099411294 -0.045052253 0.038827017 -0.10040749 0.08441096
0.03695855 0.035257645 -0.06823772 0.10173742 0.06086084 -0.096908115 0.004470926 -0.000718793
-0.08761198 0.10842778 -0.0026996448 -0.069567546 -0.059063192 -0.1031482 0.0860141 -0.12031772
-0.0032401779 0.11797164 0.10604704 0.074249126 -0.10091899 0.011645064 -0.044818264 -0.12256159
0.10147744 -0.069709264 -0.1225031 -0.119392104 0.013165605 -0.11555595 0.12151469 0.04142089
0.109302126 -0.03674466 -0.10072313 0.044920746 0.064326935 0.05401735 -0.09181956 0.069552235
0.05320253 -0.019589622 0.041165322 -0.03178567 0.0100450115 0.014562775 -0.00451159 -0.040638365
-0.121216096 0.1073359 -0.06465258 0.09389444 0.06274447 -0.058980465 0.05016818 0.057922274
0.016535109 -0.02321281 0.10602664 -0.029125506 -0.089324005 -0.02879364 0.019679295 -0.048132487
-0.012394341 0.07079916 0.067390844 -0.0817621 0.0016447987 -0.11368975 -0.08392359 -0.0012054066
0.07011673 0.098601274 0.11525977 0.053367678 0.100186504 -0.08562271 0.035684846 -0.1182997
-0.026261406 0.11234446 0.05252836 0.044392448 -0.0009793803 0.008489925 -0.11198669 -0.082151055
-0.10917872 0.10230633 -0.119734675 -0.04505573 0.08723999 -0.108090885 -0.055933017 0.13232538
0.017146248 0.0564827 -0.013437137 -0.105091475 0.1166655 -0.10280637 -0.06993324 0.027570715
0.025724852 -0.0090513155 0.10752279 0.08641467 0.05199044 -0.058754798 -0.07394368 -0.10044752
-0.005979926 0.12011105 0.10660818 0.11087947 -0.048222285 0.033211783 0.12160567 0.13184588
-0.096897736 -0.02618883 -0.012908419 -0.009573379 -0.095648415 -0.07813947 0.10004392 -0.07646994
0.0963862 0.08664714 0.036195446 0.11978212 0.03025824 0.06869901 -0.07542665 -0.04405302
-0.1401158 0.051933784 -0.029189643 -0.07069989 -0.11193526 0.0021688133 -0.1012483 -0.061863497
0.007914422 -0.045430016 0.100738876 -0.106935 0.10727681 0.06939334 0.10752934 0.022525143
0.070430115 -0.09396387 0.10626215 0.02121225 -0.078304365 0.07181848 0.11613992 -0.039035168
-0.018318903 -0.1193212 0.01303173 -0.023990544 0.10811735 0.08860472 0.12860031 0.07531809
0.09959167 0.020422218 -0.024307532 0.072140224 -0.08638662 0.046339147 0.06917552 0.12720972
00000000: 0557 993d a01a 1abd 5ca2 aa3d 5e6f 723d
00000010: ed1b 92bd 2996 113c a1a7 a2bd d20a 6139
00000020: b048 a3bd 957e 963c e5f0 69bd 4f2f 5fbd
00000030: d8cf 11bd 02af eabd 6e9b 1f3b 1bb3 3ebd
00000040: a789 abbd 213f fa3d fe79 2ebd 6076 ab3d
00000050: 6c0f 06be 37a1 3a3c ec1f a63d b6d5 63bd
00000060: 4544 4b3d f6a2 c5bd 47c5 d83c 7619 d7bd
00000070: d47d c43d ed2b debd 1a60 edbd 4a7e d5bd
00000080: 281e 6e3d 1a8a 103c dc2d a1bd 254d c4bc
00000090: 868c 813d cddd ad3c b323 d33c 1488 55bd
000000a0: c5f6 c13a b503 d03d a7e1 833d aa61 d4bc
000000b0: 7e0a bfbd 15dc 73bd 81bc 2cbd 4c16 b93d
000000c0: eb74 963d cdad 31bd 51ca c73d 1d29 a6bd
000000d0: d148 1c3d 1108 78bc f1d6 f0bd 42dd 693c
000000e0: 2e71 cbbd c936 c1bd 5c9e 033c b867 57bc
000000f0: b890 79bd cb63 083d 8fb4 a03d 2fd3 ac3d
00000100: 8a34 d7bd 00db 963d 8c23 57bd 0524 993d
00000110: 8cc6 f3bd a00c e5bd 11a8 2f3c cad2 b5b8
00000120: 3ff1 0f3d 4f31 82bd 7f39 183d 2698 cbbd
00000130: b688 38bd 1409 1f3d 71a2 cdbd a7df ac3d
00000140: d961 173d 526a 103d 38c0 8bbd b55b d03d
00000150: 3749 793d c377 c6bd d880 923b 626d 3cba
00000160: e96d b3bd 620f de3d 86ec 30bb 6e79 8ebd
00000170: 3fec 71bd 5d3f d3bd 2928 b03d 2369 f6bd
00000180: 2a59 54bb 1d9b f13d 312f d93d ed0f 983d
00000190: 9eae cebd f0ca 3e3c 5b93 37bd 9201 fbbd
000001a0: 67d3 cf3d bbc3 8ebd e8e2 fabd d983 f4bd
000001b0: 8db4 573c 99a8 ecbd b2dc f83d f3a8 293d
000001c0: cbd9 df3d 9281 16bd ee47 cebd d1fe 373d
000001d0: d7bd 833d 4c41 5d3d e50b bcbd 6771 8e3d
000001e0: e5ea 593d 6a7a a0bc f89c 283d b131 02bd
000001f0: d593 243c b598 6e3c f6d5 93bb 6a74 26bd
00000200: 2540 f8bd edd2 db3d 9268 84bd ba4b c03d
00000210: 2c80 803d 8095 71bd 267d 4d3d e83f 6d3d
00000220: a374 873c ca28 bebc 7f24 d93d 9d98 eebc
00000230: 81ef b6bd a4e0 ebbc 7936 a13c 9226 45bd
00000240: a211 4bbc 26ff 903d 3604 8a3d e372 a7bd
00000250: 4996 d73a 2cd6 e8bd 22e0 abbd bcfe 9dba
00000260: 5c99 8f3d 77ef c93d 500d ec3d 1198 5a3d
00000270: 952e cd3d f65a afbd 462a 123d 1d47 f2bd
00000280: 2922 d7bc da14 e63d fa27 573d dbd4 353d
00000290: 8d5e 80ba 5419 0b3c 4759 e5bd d03e a8bd
000002a0: 1899 dfbd fb85 d13d 7437 f5bd 5b8c 38bd
000002b0: e1aa b23d c15e ddbd 051a 65bd 4e80 073e
000002c0: 4a76 8c3c 675a 673d 7027 5cbc 333a d7bd
000002d0: 52ee ee3d 258c d2bd 2939 8fbd fbdb e13c
000002e0: edbc d23c f84b 14bc e934 dc3d 2dfa b03d
000002f0: edf3 543d dfa8 70bd c96f 97bd 6eb7 cdbd
00000300: 41f3 c3bb c8fc f53d 6455 da3d c714 e33d
00000310: bb84 45bd 1409 083d 650c f93d 9b02 073e
00000320: 5272 c6bd f589 d6bc d57d 53bc a9d9 1cbc
00000330: 51e3 c3bd 9607 a0bd d4e3 cc3d 469c 9cbd
00000340: 2166 c53d 0e74 b13d ad41 143d 5450 f53d
00000350: 21e0 f73c 11b2 8c3d 4a79 9abd f170 34bd
00000360: 847a 0fbe 85b8 543d 1e1f efbc 1bcb 90bd
00000370: 503e e5bd a622 0e3b 455b cfbd 9464 7dbd
00000380: 7eab 013c d314 3abd 2f50 ce3d bd00 dbbd
00000390: f2b3 db3d 181e 8e3d 5838 dc3d a686 b83c
000003a0: aa3d 903d 2170 c0bd f89f d93d 50c5 ad3c
000003b0: 0a5e a0bd 9115 933d c4da ed3d 57e3 1fbd
000003c0: 8611 96bc ac5e f4bd 0a83 553c d187 c4bc
000003d0: a16c dd3d 6476 b53d cdaf 033e 5f40 9a3d
000003e0: b8f6 cb3d 7f4c a73c 9720 c7bc 41be 933d
000003f0: 78eb b0bd 1ece 3d3d e5ab 8d3d 4443 023e

rnn.weight_hh_l1 f4 [64, 64]
-0.04099716 -0.09645951 -0.032548357 0.071392484 -0.016747225 0.12767419 -0.004505347 0.055318158
0.11108318 -0.006708489 0.0024028504 -0.11336634 -0.040813934 0.057860337 0.05102158 -0.11729346
0.056770556 -0.016137248 0.014800391 0.10722459 0.07512315 0.0882659 0.080856696 -0.04380512
0.049687095 0.06401055 0.038181037 0.047054343 0.076551475 -0.11624216 0.11289661 -0.019904517
0.0031599808 -0.043836385 0.0015698427 0.09730797 -0.001453616 0.03000465 -0.028649513 -0.08890231
-0.10663867 0.104685314 0.10469848 0.06332382 -0.015396859 -0.024907788 -0.10241686 0.007525354
0.06632023 0.071596645 0.008050836 0.11750358 -0.108482525 0.0233862 0.023223711 0.05700463
-0.06695767 -0.1339812 0.046838712 -0.0796766 -0.06128373 -0.012106185 0.058851432 0.09752015
-0.092298366 -0.024608653 -0.009897759 -0.11732503 -0.012458889 0.014865899 0.023065899 0.016976928
-0.007623838 0.027491359 0.028373973 0.107663594 0.004282117 0.0039298716 -0.04633209 0.047562458
-0.011824148 0.07539511 -0.11461052 -0.018109636 -0.05534186 0.017309261 -0.06973895 -0.10228203
0.027499273 0.020074265 -0.07970626 -0.015686987 -0.034433275 -0.03874452 -0.081693105 -0.12631151
0.09897938 -0.036156204 0.0832338 -0.016631525 -0.058345787 0.050292846 -0.12950827 -0.11684424
0.04585515 0.017255824 -0.042275496 0.003107663 -0.012662909 -0.08559397 0.08133885 -0.095847316
0.019367194 -0.008328608 0.11306579 0.10478741 -0.108996384 0.11607316 0.07014712 -0.075358905
-0.11986769 -0.13619758 -0.00019813605 0.04755563 -0.08988987 0.09605484 -0.07190143 0.058282223
0.06795723 -0.0232727 0.10940049 -0.059539147 0.05832821 -0.022397753 -0.013331735 0.009961257
-0.073977314 -0.1013516 -0.08247508 -0.073675916 -0.04985077 -0.06223489 -0.05981576 -0.085579984
-0.07154034 0.12261213 0.11514318 0.07991148 0.07684907 0.048222017 0.069432564 0.10123045
-0.027784025 -0.04005204 0.11775221 -0.05453983 -0.005004099 -0.10794796 0.060591873 -0.106981
0.033729307 0.082213715 0.034092505 -0.026826946 0.056130033 0.1197736 0.11249134 -0.066947706
-0.12702687 -0.06780431 0.009309486 -0.024499137 -0.012143913 -0.04369697 -0.11039907 -0.112185486
0.10163502 0.10732418 0.07897726 -0.03761498 0.025723862 0.030820109 0.10038907 0.114024855
0.037389416 -0.09623546 -0.07632641 -0.12551835 0.02060807 -0.09984219 0.078305736 -0.042290673
-0.11332427 0.09512985 0.015525478 0.041682698 0.074597105 0.12115711 0.10919967 0.0904439
0.115918145 -0.00092953065 -0.062270638 -0.0066137873 0.1349276 0.036069855 -0.06385962 0.080766685
-0.09856225 -0.09801679 -0.01003081 -0.06540359 -0.005903167 -0.057872232 0.09465292 0.051356662
0.039873585 0.08389451 -0.052671082 0.055231065 0.089914784 -0.106747136 0.025894538 0.121446036
0.009848163 0.03666913 0.12630934 -0.008122627 0.020736035 0.0788499 -0.019260606 -0.061657764
0.072191626 0.013725084 -0.0021062456 -0.08329006 -0.06813094 0.080099136 -0.053583167 -0.09055606
0.067561686 -0.04995293 0.068407215 -0.07325217 -0.0777285 0.06188653 0.027476162 0.0488575
0.038390167 0.05587054 -0.05325638 0.0631304 -0.10501074 -0.07574966 -0.047896277 -0.020920707
00000000: a3ec 27bd 908c c5bd 6d51 05bd 3936 923d
00000010: 7a31 89bc 06bd 023e 97a1 93bb 4b95 623d
00000020: 947f e33d e2d2 dbbb 2479 1d3b 9d2c e8bd
00000030: 832c 27bd f6fe 6c3d 01fc 503d 8e37 f0bd
00000040: 3e88 683d 4332 84bc 577d 723c 9198 db3d
00000050: 2bda 993d c1c4 b43d 3298 a53d ff6c 33bd
00000060: b284 4b3d f717 833d b863 1c3d 0ebc 403d
00000070: 05c7 9c3d 5f10 eebd 5636 e73d cc0e a3bc
00000080: ae17 4f3b c88d 33bd 2ec3 cd3a 6749 c73d
00000090: 4287 beba 50cc f53c 62b2 eabc 6a12 b6bd
000000a0: 6065 dabd 4165 d63d 286c d63d ebaf 813d
000000b0: 1b43 7cbc 6b0b ccbc eebf d1bd 3f97 f63b
000000c0: e7d2 873d 43a1 923d a7e7 033c b8a5 f03d
000000d0: 162c debd 6b94 bf3c a73f be3c b07d 693d
000000e0: 1a21 89bd 5e32 09be f3d9 3f3d 7c2d a3bd
000000f0: a604 7bbd 0559 46bc 330e 713d a5b8 c73d
00000100: ed06 bdbd 1698 c9bc 362a 22bc 1b48 f0bd
00000110: 5e20 4cbc 1a90 733c b2f4 bc3c 3313 8b3c
00000120: 63d1 f9bb 8f35 e13c 8970 e83c bb7e dc3d
00000130: 0051 8c3b 27c6 803b b8c6 3dbd dad0 423d
00000140: 12ba 41bc c068 9a3d ecb8 eabd a95a 94bc
00000150: 25ae 62bd 27cc 8d3c 4bd3 8ebd 3e79 d1bd
00000160: 2846 e13c c972 a43c 093d a3bd ff81 80bc
00000170: e809 0dbd 93b2 1ebd b74e a7bd ce57 01be
00000180: b4b5 ca3d 8718 14bd 7c76 aa3d d63e 88bc
00000190: fefb 6ebd dfff 4d3d d19d 04be 084c efbd
000001a0: 9cd2 3b3d 165c 8d3c 1229 2dbd efa9 4b3b
000001b0: 1778 4fbc e44b afbd fc94 a63d 994b c4bd
000001c0: f3a7 9e3c b774 08bc 098f e73d c89a d63d
000001d0: 7f39 dfbd c4b7 ed3d 4ba9 8f3d c555 9abd
000001e0: 317d f5bd 6177 0bbe bec2 4fb9 b1c9 423d
000001f0: 2e18 b8bd 66b8 c43d 0f41 93bd 57b9 6e3d
00000200: 292d 8b3d 64a6 bebc 5d0d e03d 52df 73bd
00000210: 90e9 6e3d 7e7b b7bc 596d 5abc 8a34 233c
00000220: 6b81 97bd 6d91 cfbd b2e8 a8bd 66e3 96bd
00000230: 5230 4cbd 03ea 7ebd 5f01 75bd 8f44 afbd
00000240: be83 92bd 121c fb3d 30d0 eb3d a1a8 a33d
00000250: 0c63 9d3d 7384 453d a932 8e3d e951 cf3d
00000260: 539b e3bc 9c0d 24bd 1228 f13d 2865 5fbd
00000270: 6df9 a3bb d213 ddbd 2f2f 783d db18 dbbd
00000280: be27 0a3d aa5f a83d 95a4 0b3d 2fc4 dbbc
00000290: 9be8 653d dc4b f53d dc61 e63d e11b 89bd
000002a0: 5513 02be fcdc 8abd d086 183c 6ab2 c8bc
000002b0: 43f7 46bc 98fb 32bd e818 e2bd 81c1 e5bd
000002c0: 0526 d03d c8cc db3d d4be a13d 2a12 1abd
000002d0: d9ba d23c 747a fc3c c998 cd3d dd85 e93d
000002e0: a525 193d 1917 c5bd 0551 9cbd e287 00be
000002f0: 41d2 a83c 107a ccbd c25e a03d fc38 2dbd
00000300: 8e16 e8bd 70d3 c23d 935e 7e3c 7abb 2a3d
00000310: 5ec6 983d 3821 f83d 14a4 df3d a73a b93d
00000320: 7e66 ed3d bfab 73ba 7f0f 7fbd 78b8 d8bb
00000330: 762a 0a3e fcbd 133d d5c8 82bd 0169 a53d
00000340: 01db c9bd 07bd c8bd 4458 24bc 51f2 85bd
00000350: 5b6f c1bb 6f0b 6dbd 64d9 c13d 5d5b 523d
00000360: 7c52 233d e3d0 ab3d a2bd 57bd f839 623d
00000370: 3e25 b83d 3e9e dabd c820 d43c b3b8 f83d
00000380: 315a 213c 5f32 163d 3c57 013e c414 05bc
00000390: 9ede a93c 0e7c a13d 6bc8 9dbc da8c 7cbd
000003a0: 34d9 933d 2ddf 603c f008 0abb fb93 aabd
000003b0: 3c88 8bbd 040b a43d 067a 5bbd 7575 b9bd
000003c0: c85d 8a3d 729b 4cbd 1519 8c3d 3c05 96bd
000003d0: 1f30 9fbd bb7c 7d3d b015 e13c cd1e 483d
000003e0: 023f 1d3d 82d8 643d 5d23 5abd 834a 813d
000003f0: df0f d7bd a322 9bbd e32e 44bd e761 abbc

rnn.bias_ih_l1 f4 [64]
0.07109914 -0.06535247 -0.057309795 -0.06463607 -0.11051683 -0.035344478 0.0024701047 0.022860968
0.05017506 -0.06691787 0.0037485403 0.06871725 -0.123693146 -0.09758994 0.118310496 0.03565849
0.11710985 0.030103836 -0.090338215 -0.032274824 0.11629804 0.050137423 -0.12533328 -0.02436081
-0.008632561 -0.009410308 0.120675 -0.12351631 -0.050566632 0.047659338 0.12004351 0.09845446
0.021469029 0.010726298 -0.0808738 0.1000632 -0.06458069 -0.043669537 0.06713644 -0.105350554
-0.1158189 0.086560234 -0.039577235 0.014860512 -0.10163601 0.050354805 -0.12312995 0.09296912
0.09848781 0.04548061 0.054954257 -0.052767374 0.09060434 0.078466795 0.10957752 0.10730229
-0.040012483 0.04081784 0.02657336 -0.0704566 -0.085831046 -0.037932847 -0.09441948 -0.116424575
00000000: 6d9c 913d 84d7 85bd adbd 6abd ea5f 84bd
00000010: a656 e2bd 5fc5 10bd 7be1 213b ed46 bb3c
00000020: 5d84 4d3d 3c0c 89bd 12aa 753b a1bb 8c3d
00000030: d552 fdbd 3cdd c7bd c64c f23d a30e 123d
00000040: 4ad7 ef3d 529c f63c 3e03 b9bd 9b32 04bd
00000050: ab2d ee3d e65c 4d3d 5e57 00be 5290 c7bc
00000060: 966f 0dbc b12d 1abc 7424 f73d 1ef6 fcbd
00000070: f51e 4fbd 7036 433d 5fd9 f53d 7ea2 c93d
00000080: d1df af3c 5bbd 2f3c 2aa1 a5bd efed cc3d
00000090: e142 84bd d4de 32bd d47e 893d 08c2 d7bd
000000a0: 7632 edbd 7e46 b13d bd1b 22bd 8179 733c
000000b0: 8a26 d0bd d740 4e3d 8e2b fcbd 9866 be3d
000000c0: fab3 c93d e049 3a3d b717 613d 9a22 58bd
000000d0: c58e b93d 33b3 a03d 2e6a e03d 4ec1 db3d
000000e0: 21e4 23bd 9b30 273d 60b0 d93c 8d4b 90bd
000000f0: 30c8 afbd 795f 1bbd 005f c1bd 0270 eebd

rnn.bias_hh_l1 f4 [64]
0.08843546 -0.10049695 0.10505258 0.07729555 0.032485154 0.09898819 0.08861025 -0.11763725
-0.1026594 0.11609894 0.0913756 -0.028473487 0.0233442 0.058954816 0.0747655 0.11650442
-0.06304585 -0.034766514 0.058009386 -0.059263494 0.112991996 -0.025125658 -0.1187075 -0.038647443
0.0120180445 0.092339836 0.019287298 -0.073394224 -0.0007443948 -0.101846926 0.11709549 -0.007400071
-0.11819022 -0.07318064 -0.038592122 0.074595995 0.024577677 0.057413515 -0.11651945 0.12785594
0.10294449 -0.039792363 -0.083589256 0.087459885 0.039857917 0.03996299 -0.05557554 0.08464597
0.049319293 0.09779396 0.09303459 0.050052278 -0.011440773 -0.06164613 -0.084363535 -0.01976727
-0.09795677 -0.0027625319 -0.07116957 -0.09182543 -0.0036284514 -0.06478188 -0.057660062 0.0013219452
00000000: a71d b53d 58d1 cdbd cf25 d73d 214d 9e3d
00000010: 270f 053d 52ba ca3d 4a79 b53d cceb f0bd
00000020: 173f d2bd 48c5 ed3d 2123 bb3d 3b41 e9bc
00000030: 563c bf3c 9b7a 713d a81e 993d df99 ee3d
00000040: 2f1e 81bd 5567 0ebd 409b 6d3d 47be 72bd
00000050: 5968 e73d 53d4 cdbc eb1c f3bd c84c 1ebd
00000060: 55e7 443c ab1c bd3d 6500 9e3c b64f 96bd
00000070: 7d23 43ba 1f95 d0bd c3cf ef3d 4b7c f2bb
00000080: b70d f2bd bbdf 95bd c612 1ebd c9c5 983d
00000090: 2057 c93c 6f2a 6b3d c0a1 eebd abec 023e
000000a0: 90d4 d23d 51fd 22bd d830 abbd 2b1e b33d
000000b0: 0e42 233d 3bb0 233d 2da3 63bd de5a ad3d
000000c0: 0703 4a3d 3348 c83d eb88 be3d 9e03 4d3d
000000d0: 1472 3bbc a780 7cbd cac6 acbd f8ee a1bc
000000e0: 8f9d c8bd 980b 35bb 5ac1 91bd f90e bcbd
000000f0: 50cb 6dbb 5dac 84bd f52c 6cbd 1f45 ad3a
